Assets/51.onnx (onnx, 130006 bytes, 8 tensors)

network_body._body_endoder.seq_layers.0.weight f4 [128, 107]
000000 35 27 1d bd 0e aa 6b be a4 90 bb bc 46 a3 de bd
       -0.03836747 -0.2301409 -0.022896118 -0.10870986
000010 6f e6 c9 3d 39 a6 7b bd 74 8c 10 3e b3 52 d4 3d
       0.09858405 -0.06143782 0.14116079 0.10367336
000020 fd ef a9 bd 19 3e 2b be 56 b5 d1 3c 43 1f 4b 3c
       -0.08297727 -0.16722907 0.025599163 0.01239759
000030 69 ab 9f 3d 0f ac 92 3b 89 a9 ba 3d e2 2f 1c be
       0.07796366 0.0044760774 0.091143675 -0.15252641
000040 aa 2d b9 bd e0 58 52 3e 8d 21 3d be a9 53 11 3c
       -0.09041913 0.20541716 -0.1846983 0.008870044
000050 fe ce 27 3e 5b 2e fc bd 73 4e a7 3c ec 05 da 3d
       0.16387555 -0.12313529 0.02042315 0.10645661
000060 67 93 38 3c 44 ff 40 be 0d 62 b6 bb 3e eb 90 bd
       0.011265612 -0.18847376 -0.005565888 -0.07076119
000070 42 28 52 3d 62 9a 03 3d 0d 93 4c 3e dd bd ff bc
       0.051307924 0.032129653 0.1997797 -0.031218464
000080 fa 54 e6 3b 63 45 b2 3d 4d 50 a0 bd a9 f6 f8 bd
       0.007029173 0.08704641 -0.07827816 -0.12156422
000090 21 8b f2 bd aa 35 ba bd 26 6d 03 3e f9 0d 41 bd
       -0.11842943 -0.09092267 0.12834606 -0.047132466
0000a0 f8 9c f6 3b c6 17 a9 bc ed f0 fc bd 06 53 9b 3d
       0.0075260364 -0.020641219 -0.123506404 0.07584195
0000b0 95 ad 36 bd 36 9f 6e bd 32 32 08 3c c4 d6 5d 3e
       -0.044599134 -0.058257304 0.008312749 0.21663958
0000c0 2a 19 d6 3d c9 a7 5f 3e 63 64 17 3e d3 c5 ec bc
       0.104540184 0.21841349 0.14784388 -0.028902924
0000d0 3b e5 39 3e c5 28 88 3c 5c f6 ec 3d 19 f1 5f 3d
       0.1815385 0.016621003 0.11570427 0.054673288
0000e0 57 78 6f bd 30 d8 59 bd 30 e8 a7 bd 03 ab 85 3d
       -0.058464374 -0.053184688 -0.08198583 0.065267585
0000f0 99 a7 7a 3d 10 6a 93 bc 4a 00 5b bc 99 16 1c bd
       0.06119499 -0.01799491 -0.013366768 -0.03810749
000100 2e 66 b6 3c f6 d0 08 3c 08 ad 4e bd ed e1 78 bd
       0.02226552 0.008350601 -0.050457984 -0.060762335
000110 be 95 ab bd 84 24 b2 bd f8 88 06 be 52 f6 41 bd
       -0.083781704 -0.08698371 -0.13138187 -0.04735405
000120 b1 55 26 3e f9 89 8f be fd e6 6e 3c 8a 61 81 3b
       0.16243626 -0.28034952 0.014581439 0.003948395
000130 de df 9e bd 1f c0 42 bc 11 0e c0 bc cd 73 c0 3c
       -0.07757543 -0.011886626 -0.023444207 0.023492718
000140 66 c0 93 bd d1 30 ec bd a1 95 86 bd c0 8a bc bd
       -0.072144315 -0.115327485 -0.06571508 -0.09206152
000150 14 93 e0 bc 9c 43 c3 3c cc 73 1b bd 1d 96 2f be
       -0.027413882 0.02383595 -0.03795223 -0.17147107
000160 f5 18 d7 3d 5e be 6c bd f1 a3 52 be ef ef 1b be
       0.10502807 -0.057798736 -0.20570351 -0.15228246
000170 2d 89 57 bb 24 fa 2d 3c 46 17 0c be 12 95 cc bd
       -0.003288816 0.01061872 -0.13680753 -0.099893704
000180 dc f9 49 be e4 1f 88 3d 26 10 cd bd ce d8 40 be
       -0.1972422 0.06646708 -0.10012846 -0.18832704
000190 05 30 cf bb c9 b8 ee 3c 04 b7 8c 3e be e9 36 be
       -0.006322863 0.029140847 0.2748338 -0.17862603
0001a0 19 d4 f1 bc 79 5d 0e 3d a8 25 27 3d e7 32 03 3e
       -0.029520081 0.03475711 0.040807396 0.12812386
0001b0 59 a4 0e bd 2a f2 b2 3e ec af 66 bc dc 9f ae bd
       -0.034824703 0.34950382 -0.014080029 -0.085265845
0001c0 37 74 94 bd 5f d8 36 bd 95 2b 94 3d 48 f3 a6 bd
       -0.07248729 -0.04463994 0.07234875 -0.08151871
0001d0 cf 8b 5a be 21 1d ee 3c 6c 87 24 be 47 ed 81 3e
       -0.21342395 0.029066624 -0.16067284 0.2537634
0001e0 e7 0c 87 3d 98 4f 15 bd 92 03 d3 bc 88 b5 77 3c
       0.06594258 -0.03645286 -0.025758538 0.015118964
0001f0 2e 86 d2 3d 6e 32 2a be 4d ee 97 bd 90 0c 19 be
       0.10279499 -0.166208 -0.07418499 -0.14946198
000200 c7 76 24 bc fe 68 81 3d 79 12 af bc e5 54 0c 3d
       -0.010038084 0.06318854 -0.021371113 0.03426065
000210 2d fd 1f 3e 2f 44 38 be 43 20 86 bd f1 d3 f0 bc
       0.15623923 -0.1799476 -0.06549122 -0.029397937
000220 e4 db b6 bd 7f 91 aa 3e 56 48 0c be c1 c5 ee 3d
       -0.089286596 0.3331413 -0.13699469 0.11658812
000230 e7 28 bf bd 61 e4 2d bd 6e d5 5f 3e 8b 21 cc bd
       -0.093339734 -0.042454127 0.2185876 -0.09967335
000240 0e 76 08 bc a1 3b 16 be 51 b9 0c be 54 95 a2 3c
       -0.008328928 -0.14671184 -0.13742568 0.019846596
000250 ab 37 a3 bd 48 56 e2 3d b4 0b 55 3e 1e 72 d5 bc
       -0.07969602 0.11051613 0.20805246 -0.026055392
000260 8c 6b 9d 3d 03 43 3d 3e 99 4b 58 3d 74 e0 74 3d
       0.076865286 0.18482594 0.05280647 0.059784368
000270 88 05 a8 3d 9a 62 50 3d ec b0 e7 3d 65 cd bb bd
       0.0820418 0.050875284 0.11313042 -0.09170035
000280 72 26 40 3d c9 96 ab bc 69 9f b8 bd 99 99 ac 3c
       0.046911664 -0.020945923 -0.0901478 0.021069335
000290 9b 4f 74 bd 1a e0 73 3e 21 45 c9 3c 03 5f c4 3d
       -0.05964623 0.23815957 0.024569096 0.095884345
0002a0 d9 46 ae bc e9 65 6a bd c0 db 16 be a9 8b 70 3d
       -0.021274017 -0.057226095 -0.14732265 0.05872694
0002b0 ce 65 20 be c3 63 65 3b 91 62 2d 3d d4 70 0d 3e
       -0.15663835 0.003500209 0.04233033 0.13812572
0002c0 5f 6c d7 3d aa 7a 03 bb 71 4e c6 bc 84 f3 f4 bd
       0.10518717 -0.0020062127 -0.024207326 -0.119605094
0002d0 dc c3 fd 3b c8 a7 09 3e 24 8d df 3b 73 ea f9 3d
       0.0077442955 0.1344291 0.006822245 0.12202921
0002e0 b5 99 33 3b 7a 4b 5c 3d f5 79 f5 bd 92 ff 37 be
       0.002740485 0.053782918 -0.11986152 -0.17968586
0002f0 c4 7b df 3c a3 ac e3 3d aa d1 c7 bd 8d 3d b9 3d
       0.027280696 0.11116912 -0.09756787 0.09044943
000300 a6 ac 6a 3d 99 30 78 3d e1 53 54 be b2 ca 6e 3c
       0.057293557 0.06059322 -0.20735122 0.0145746935
000310 fe 07 d2 bd de c0 26 3d d0 1c dc bd 43 4b 44 be
       -0.10255431 0.040711276 -0.10747683 -0.19169335
000320 2d 4a 95 bd 5b 07 da bb 3d 21 1d bd a6 bb c8 3d
       -0.072895385 -0.006653709 -0.038361777 0.09801416
000330 5b f1 85 bd 91 8a 02 bd 74 8b 5d 3d d2 c7 08 be
       -0.065401755 -0.03187043 0.05408807 -0.13357475
000340 95 93 6a bc 6a 2a 86 b9 91 c7 52 3e 20 a5 be bd
       -0.014317413 -0.00025590073 0.20583941 -0.09308839
000350 51 14 b9 bd 06 68 b5 3b b5 a5 99 bd a7 c6 0a 3e
       -0.09037078 0.005536082 -0.07502309 0.13552342
000360 c8 1b 07 be 6d 59 cd 3d de 1a 17 be e2 17 55 3e
       -0.13194191 0.10026822 -0.14756343 0.20809892
000370 e7 79 95 3b f5 44 ab 3d d9 48 c3 3d 00 69 f6 3d
       0.004561651 0.08362762 0.09535379 0.12031746
000380 cb b0 ad bd 4f 1c 0a 3e 46 4f 9e 3c c8 c6 bf 3c
       -0.08480986 0.13487361 0.01932491 0.023410216
000390 b2 d8 45 be 70 cb 82 bd 72 d8 2d 3d e8 5d 49 3c
       -0.19320944 -0.06386459 0.042442746 0.012290455
0003a0 f4 5e 6c 3b 88 c4 fb 3b 47 0a a5 bd 60 ac 2b 3c
       0.0036067339 0.0076833405 -0.08058601 0.010478109
0003b0 42 15 95 bd c8 17 aa 3d c9 4f 70 3c 48 96 87 ba
       -0.07279445 0.08305317 0.01466746 -0.001034447
0003c0 b9 f1 d0 3d c8 59 dd 3d f4 c4 0e bd 27 3f 65 39
       0.10202355 0.1080814 -0.034855798 0.00021862668
0003d0 b6 03 54 bd 6d 4b ba 3d b6 1d b0 3d 00 a8 4b bd
       -0.05176135 0.090964176 0.08599417 -0.049720764
0003e0 60 09 f0 3c 18 76 80 3d df 74 c8 bd 13 48 fc bd
       0.029301345 0.062725246 -0.097879164 -0.123184346
0003f0 a2 6a 55 bd e8 d5 c8 3b 83 6a 62 3d d3 9c d5 bd
       -0.052103646 0.0061290152 0.05527736 -0.104303025

network_body._body_endoder.seq_layers.0.bias f4 [128]
000000 5c 3a 2d bd f0 94 c0 bc fd 88 f7 3c 8c 77 ad bc
       -0.042291984 -0.023508519 0.030216688 -0.021175168
000010 32 66 0e 3c 44 d6 8e bd d8 41 63 bd 98 2c c8 bb
       0.008691357 -0.06974462 -0.055482715 -0.0061088316
000020 d0 09 8c bc 10 42 8b bc f8 dc 29 bc c2 81 3a bd
       -0.017094523 -0.016999274 -0.010367624 -0.045533903
000030 9b 14 8f bd 13 39 46 bd 6d 40 02 bc 13 d3 1b bd
       -0.06986352 -0.048394274 -0.007949931 -0.038043093
000040 f8 7d 24 bc d5 dd 7f bc 5b 8f 6e bd 26 3b 13 3d
       -0.010039799 -0.015616854 -0.058242183 0.03594508
000050 4e 5a 53 bd 4e 3e fd 3a 23 58 cb 3c c9 37 62 3c
       -0.051599793 0.0019320936 0.0248223 0.0138072455
000060 12 50 a3 bc 73 78 0f bd 04 b0 66 bd 83 65 07 bd
       -0.019935641 -0.03502698 -0.056320205 -0.033055793
000070 ed fb 0c bc 62 61 ff bc 0b 87 98 bc 5c d1 eb bc
       -0.008604986 -0.031174365 -0.018619081 -0.028786354
000080 1e 55 44 bc a7 d2 87 3c a7 d5 87 3b 5b ad 52 3b
       -0.011983184 0.016579939 0.0041453424 0.0032146785
000090 39 77 4d bd f3 a8 ba bc 95 3a 34 bd 81 45 51 3d
       -0.050162528 -0.02278564 -0.04400118 0.051091675
0000a0 09 b1 14 bd 39 b9 08 bd 20 3c 04 bd a6 19 a0 bd
       -0.036301646 -0.033379767 -0.032283902 -0.07817392
0000b0 dd 3f c7 bc 9f ec d9 bc 6e 97 6c bd 0e b1 e0 bd
       -0.024322445 -0.026602088 -0.057761602 -0.109712705
0000c0 f0 04 db 3a 6a d5 4a 3d ef 87 87 3c 57 ed 8d bc
       0.0016709846 0.049519934 0.01654431 -0.017325087
0000d0 0d 56 2a bc d1 73 47 bd 71 6f ed bc d0 47 fb bc
       -0.010396493 -0.048694436 -0.028983803 -0.030673891
0000e0 3e a4 62 bb 82 aa 13 3c 1b 74 88 bd 54 23 72 bd
       -0.003458276 0.00901282 -0.0666277 -0.059115723
0000f0 71 aa 22 bd f6 ee d0 3c 90 6e b3 bc 8c c2 8d bb
       -0.039713327 0.02550457 -0.021903306 -0.0043261703
000100 2a 85 83 3b 00 b6 ae ba 26 47 5c bd e4 5d 1e 3d
       0.004013677 -0.0013329387 -0.05377879 0.03866376
000110 0e f3 b5 bc 10 aa 54 bd af d9 dc bd 98 6e 1d bd
       -0.022210624 -0.051919997 -0.10783707 -0.03843555
000120 83 f9 12 bd 28 d4 c8 bc 51 6a 09 bd cb f0 9b 3c
       -0.035882484 -0.024515226 -0.033548657 0.019035717
000130 a6 d3 8f bc 82 f4 32 bd b8 9d 68 3c 16 62 55 bd
       -0.017556977 -0.043690212 0.014197759 -0.052095495
000140 d6 a6 81 3a 46 06 7c bc b3 2e 52 3d 21 c9 51 bc
       0.000989164 -0.015382355 0.051314067 -0.0128043005
000150 48 df 7f bc be 96 33 bd 42 a3 13 bd 7c 61 f0 3c
       -0.015617199 -0.04384493 -0.036044367 0.02934336
000160 be af d7 ba 16 64 a9 bd ce e9 c7 3c 17 71 af bc
       -0.0016455573 -0.08271043 0.024403479 -0.02141623
000170 f4 0a 96 bd d1 74 39 3c 59 38 45 bd f7 84 1c bd
       -0.07326308 0.011319355 -0.04814944 -0.038212743
000180 4c 14 a4 bd 59 86 c6 bb 6f 5b a7 bd 07 d0 32 3c
       -0.08011684 -0.006058496 -0.081717364 0.010913855
000190 07 09 be 39 66 d9 85 bb 67 58 1a bd 2b 35 9b bd
       0.0003624635 -0.004084754 -0.037681963 -0.075785
0001a0 89 6f 04 bd d4 1d aa bc e7 2f 86 bd 9a 3b 91 bd
       -0.03233293 -0.020766176 -0.065521054 -0.07091446
0001b0 0f c6 ea bc 98 b6 61 3c ed 70 05 bd e2 12 59 bc
       -0.028658895 0.013776444 -0.032578398 -0.013249131
0001c0 2c 4a c6 bd 4a 13 3c bc 8b a2 9a 3a 69 08 dc 3c
       -0.09682116 -0.011479208 0.0011797709 0.026859479
0001d0 8d 6a 3d 3c 82 c0 6a bd 91 a9 92 3c df df 1d bb
       0.011561048 -0.057312496 0.017903121 -0.0024089736
0001e0 35 1c 32 3d 9e 11 4e 3d eb 00 37 bd c2 86 c2 bc
       0.04348393 0.05030977 -0.04467861 -0.023745898
0001f0 68 a6 7d 3c a4 f6 75 bd ca f1 60 bc 8b 41 79 bd
       0.015481569 -0.060049668 -0.013729522 -0.060853522

network_body._body_endoder.seq_layers.2.weight f4 [128, 128]
000000 7b 3d e9 3d 9c d1 53 be fb 2c 23 3e 79 91 9c 3d
       0.113886796 -0.20685428 0.15935127 0.07644934
000010 5d f3 fd bd c1 12 1e 3c 52 4f 71 bd c9 35 6a 3d
       -0.123999335 0.009648026 -0.058913536 0.0571802
000020 cc 4a 14 be 40 f2 c9 bd 4f 63 cf bd 5b 53 91 bd
       -0.14481658 -0.09860659 -0.101263635 -0.07095977
000030 a0 e6 6f bd 6d ce 02 be b2 9f 02 3e fe 6e ce bc
       -0.05856955 -0.12774058 0.12756231 -0.02519941
000040 96 0c bf 3d f2 33 c9 3c dc d4 2c 3e 4c 19 0d be
       0.093285725 0.024560902 0.16878074 -0.13779181
000050 f3 e2 fb 3d 4c 17 04 3d c6 8c fd bc 31 76 eb 3d
       0.122991465 0.03224878 -0.030950915 0.114971526
000060 49 66 df 3c 85 d5 87 3d da 88 38 3e 88 f6 21 be
       0.027270453 0.066325225 0.18020955 -0.158167
000070 2c 33 4f bd e5 e0 4c 3d c1 a3 0f be 0d 17 20 be
       -0.05058591 0.050019164 -0.14027311 -0.15633793
000080 8c a7 94 bd 73 e4 79 3c e8 ff a2 bd 1c 00 e8 bd
       -0.072585195 0.01525222 -0.079589665 -0.11328146
000090 d1 8e 6d 3c 4e eb 65 3e 01 46 0c 3d e8 27 af bd
       0.014499382 0.22453043 0.03424645 -0.085525334
0000a0 0e 91 ea 3d 36 d8 28 be 9c 62 30 3e 2a e8 d7 bc
       0.11453448 -0.16488728 0.17225116 -0.026355822
0000b0 0b 89 83 bd 97 1d 84 bd 31 c7 c8 3d 60 10 7e bb
       -0.06422623 -0.06450956 0.09803618 -0.0038767084
0000c0 a9 ce 23 be 51 7a 7d 3d 5b 55 a5 3d b6 46 97 3d
       -0.15996803 0.06188423 0.08072921 0.07386534
0000d0 a1 05 45 3d a7 d3 19 be f8 54 5c 3e 49 6f fc bd
       0.04810107 -0.15022145 0.21516788 -0.123259135
0000e0 71 bd 72 3c 13 5a b0 bc e2 f9 1e be 62 56 9d bd
       0.014815674 -0.021527326 -0.1552501 -0.07682492
0000f0 0b d1 f4 bd 3d f6 36 bb fd ea ba 3d 64 fa 25 bd
       -0.11953934 -0.0027917766 0.09126852 -0.040521994
000100 a0 24 e3 3c bc c8 04 3e 0a 48 51 be 86 66 8c bd
       0.027727425 0.12967199 -0.20437637 -0.06855492
000110 f2 e6 a2 3d 5d 74 03 bd 9f de 0d bd 47 48 82 3d
       0.079542056 -0.032093395 -0.034636136 0.06361442
000120 92 57 1a 3d 29 44 5d 3d eb a0 ee 3c 12 a2 05 be
       0.03768117 0.05402008 0.029129466 -0.13050106
000130 b4 27 3a 3e e8 01 f1 bd 09 e4 99 bc d5 25 c8 bb
       0.18179208 -0.11767942 -0.018785493 -0.0061080256
000140 ff fb eb bd e7 b4 e2 bd e0 ab ae 3c 42 6a aa 3d
       -0.11522674 -0.11069661 0.02132219 0.08321048
000150 57 3c 2b 3e fa 85 83 bd 22 45 27 be 4e d4 32 3d
       0.16722237 -0.064220384 -0.16334966 0.0436595
000160 c5 32 31 be 85 2a f0 3d 6b 11 aa 3d ef fb 5c be
       -0.17304523 0.1172686 0.083041035 -0.2158048
000170 d8 59 2a 3e 3e 7c ec bd 59 bd 1d 3d e4 1b fb bd
       0.16635835 -0.11547135 0.038510654 -0.12261179
000180 a2 fd 39 3d c5 c5 53 be 9a 29 b0 bd 2a 19 0f 3e
       0.0454079 -0.20680912 -0.08601685 0.13974443
000190 e6 95 0d 3d c9 66 7f bd dc e4 4b 3e 52 ec 64 be
       0.034566782 -0.062353883 0.19911522 -0.22355774
0001a0 ed ed 11 be 0f 03 28 bc 72 86 27 3e c1 25 2c be
       -0.14250918 -0.0102546355 0.1635988 -0.16811277
0001b0 60 df 05 be 26 05 89 bd 20 55 b3 bc f3 27 81 bd
       -0.13073492 -0.06690435 -0.021891177 -0.06306448
0001c0 47 ea 34 3d 94 28 12 bc a0 f1 00 be a2 66 ac bd
       0.044168737 -0.008920807 -0.12592173 -0.08418013
0001d0 37 9c 26 bd 0a 65 63 be ce 48 bf bd a4 95 ee 3d
       -0.04067632 -0.22206512 -0.09340058 0.116496354
0001e0 75 fe 99 bd 94 e8 99 3c c6 7c 0c bd e9 af 3f bd
       -0.07519237 0.01878766 -0.03429868 -0.04679862
0001f0 27 cf a0 bd 86 18 46 bd 56 a5 1c 3e 68 70 17 bd
       -0.07852011 -0.04836323 0.15297446 -0.036972433
000200 1b 7a 7e bd 4d 78 df 3c 80 a6 23 3d 6e d0 70 bc
       -0.062128168 0.027279044 0.03995371 -0.014698131
000210 e2 42 82 3d 98 10 ae bd 1a b8 5b be 31 55 89 3d
       0.06360413 -0.08499259 -0.21456948 0.06705702
000220 42 33 1a bb f8 0b 92 3d 2a 7d f1 3d a0 fd 24 3d
       -0.0023529087 0.07131189 0.11791451 0.04028094
000230 2a 94 4c 3d 3f 16 5f 3d 17 02 b0 3d 7f f2 fc bc
       0.049945988 0.054464575 0.085941486 -0.03087735
000240 96 f8 5b 3e 6a 8a 1a bc cb 35 c0 3d 36 c7 40 be
       0.21481547 -0.009432415 0.0938526 -0.18825993
000250 48 1c b0 3d 0b bb 28 be 93 74 49 3d 39 17 2f 3e
       0.08599144 -0.16477601 0.04918344 0.17098702
000260 3e 85 c1 3c 77 5d db bd 84 ed 0a bd 07 b9 4c 3b
       0.023623105 -0.107111864 -0.03391792 0.0031238215
000270 e2 54 21 be f2 a4 9e 3d 45 b3 71 3d 55 02 82 3e
       -0.15755036 0.077463046 0.059008855 0.25392404
000280 da d2 48 bd 85 16 47 bd d1 c0 f1 bc 7d ba cf bc
       -0.04902921 -0.04860546 -0.029510887 -0.02535748
000290 c4 1c c4 bc 5a f4 b1 3c 4a 30 07 3e 7f 67 5d bd
       -0.023939498 0.021722961 0.13202015 -0.05405378
0002a0 ca 80 8c bd d9 07 fc 3d 2d 61 ee bb 2e bb 9f bd
       -0.06860502 0.12306184 -0.007274768 -0.077993736
0002b0 e4 75 56 bd ca 85 f3 3a d7 3e cd 3d 8f af ba bd
       -0.052358523 0.0018579301 0.100217514 -0.091155164
0002c0 56 7e cc bd 54 db 19 be 77 72 4c 3d 47 e3 f2 bc
       -0.09985034 -0.15025073 0.04991385 -0.02964939
0002d0 9c d9 61 3e 75 ca 3c 3e 7d ee 11 3d 10 f0 a0 bd
       0.22055668 0.18436606 0.03562783 -0.07858288
0002e0 d1 dc 97 bd 16 fb 1b 3e 01 3e 20 3d 70 92 e3 bd
       -0.07415164 0.152325 0.03912163 -0.11111915
0002f0 57 e5 90 bc 91 13 8e be 80 59 2f 3e bc 5e b4 3c
       -0.017687483 -0.27749303 0.17123985 0.02201783
000300 e0 c5 49 3e bd 25 b9 bd 33 71 09 be 85 d6 5f 3c
       0.1970439 -0.09040401 -0.13422088 0.013661985
000310 18 06 00 bb 89 b4 63 3d e1 60 06 be 51 f7 49 3e
       -0.0019534882 0.055592094 -0.13122894 0.1972325
000320 c7 f1 1c 3e e2 3d 08 bc 29 f3 0d 3c 79 17 47 be
       0.15326606 -0.008315535 0.008663931 -0.19442548
000330 56 11 36 bd db 4d e0 3d c3 57 d1 3c 52 57 ce bd
       -0.044450127 0.1095235 0.025554543 -0.10075249
000340 47 8f a6 bd dd e5 e4 bc 12 9c df bd a8 6e c1 bd
       -0.08132797 -0.027941639 -0.1091844 -0.09444934
000350 6d 34 29 3e 6c 0e 0f be 77 a3 75 be 20 3b 2d 3d
       0.16523905 -0.13970345 -0.23988138 0.042292714
000360 21 f8 61 3c fe b2 9a 3d 5d ed 21 3e 98 dc 9f 3c
       0.013792069 0.07553671 0.15813203 0.019514367
000370 ac 36 ce 39 20 b7 31 bd 91 94 1c 3d bf 79 fc bd
       0.00039332116 -0.043387532 0.03822762 -0.12327909
000380 85 cd 3a bd f7 10 22 bd 48 c7 e6 bb 64 bd ab bc
       -0.045606155 -0.03956696 -0.007042799 -0.020964332
000390 5b 85 69 bb 94 97 70 3e 0f 94 8c 3d 2f eb 92 3d
       -0.0035632465 0.23495322 0.068641774 0.07173764
0003a0 94 9d bb bd d4 67 47 bb f9 d8 0e 3e 34 65 af bd
       -0.09160915 -0.0030426877 0.13949956 -0.08564225
0003b0 5f c5 47 bd 96 3d c3 bd e2 35 39 3e 0c ee 69 bb
       -0.048772212 -0.09533231 0.18086961 -0.0035694866
0003c0 48 ed 2c bd d7 ea 5f 3d d4 17 af 3d b8 5d 65 3c
       -0.042218477 0.05466732 0.08549467 0.013999395
0003d0 78 ad 66 bc 64 e7 29 bd f5 aa ea bc ba 34 0a 3d
       -0.014079444 -0.041480437 -0.028645972 0.03374169
0003e0 69 4a b1 3d 20 0c 7c 3d 41 eb 2c 3d 9e 28 64 3d
       0.08656771 0.061535 0.042216543 0.055702798
0003f0 40 0e 8f 3d d9 f1 81 3d 48 36 0f 3b b4 7c 16 3e
       0.0698514 0.06344957 0.0021852423 0.14696008

network_body._body_endoder.seq_layers.2.bias f4 [128]
000000 8a a5 fd 3a e7 82 40 bc 8a d6 69 ba db 2f ae bc
       0.0019351703 -0.01174996 -0.00089202134 -0.021263054
000010 6d 45 08 bd 17 9b 52 bd 37 b0 13 3c 5b 72 9d bd
       -0.033269335 -0.051417436 0.009014181 -0.07687827
000020 59 8b b7 bd e1 c1 92 bd 0c 81 ec bc 16 9f 1c bd
       -0.08962125 -0.07165886 -0.028870128 -0.038237654
000030 b9 c3 ad bd 51 df 5f 3b e6 fa 5b bc 98 36 4a bc
       -0.08484597 0.0034160207 -0.013426518 -0.012342118
000040 10 2e 16 bd 1f 76 fd bc 1d 04 1b bd 9a 2d 15 bd
       -0.036665022 -0.030940114 -0.03784572 -0.036420442
000050 8e bb 27 bc 3d 7a 13 bd 7d e9 4f bd 94 54 d1 bd
       -0.010237588 -0.036005247 -0.05075978 -0.1022121
000060 52 21 a0 bc 15 ca 8b ba c8 82 d0 bd c1 e9 d3 bd
       -0.019547138 -0.0010665084 -0.101811945 -0.103473194
000070 49 a2 37 bd b2 0a 7d bb 49 fd cf bc 98 f5 f0 bd
       -0.0448325 -0.0038611111 -0.02538933 -0.11765593
000080 8d 32 9a bc 2e 7f 2f 3c a8 7e 02 be fd 3c 59 bd
       -0.018822933 0.010711474 -0.12743628 -0.05303668
000090 b6 14 97 bd a5 89 8f bc f3 8f 46 bc b5 03 45 bc
       -0.07376997 -0.017521689 -0.012119281 -0.01202481
0000a0 73 2b bc 3c a9 49 30 bd e0 d7 96 3b 64 01 cf bc
       0.022969937 -0.043038998 0.004603371 -0.025269218
0000b0 4f 5a e7 ba 16 ab 3f bc dc 8d 3a bd 19 35 22 bc
       -0.0017650815 -0.011698505 -0.045545444 -0.009900355
0000c0 86 57 a4 bd 7c 49 99 bd c7 69 36 bd 88 5c bb bd
       -0.08024506 -0.07484719 -0.04453447 -0.09148508
0000d0 e6 cf 6f bd c2 bb 0c be c4 46 b3 bc 9d e7 ad bc
       -0.058547877 -0.13743499 -0.02188433 -0.021228606
0000e0 3a 9e b3 bc 82 30 0c 3d f8 fa cf bc b7 1a b7 bc
       -0.021926034 0.03422595 -0.025388226 -0.022351606
0000f0 23 24 17 39 dd d1 1b bd ab a1 6d bd 82 6c a4 bd
       0.00014413944 -0.038041938 -0.058015507 -0.08028509
000100 8e df 0c bd 4a d5 e2 bd e2 ce b7 3c 1f 5c 37 bd
       -0.034392886 -0.11075838 0.022437517 -0.044765588
000110 10 28 70 bd 1e 37 66 bc a6 17 ee bc 4d 1e f7 3b
       -0.058631957 -0.014051227 -0.02906401 0.007541454
000120 5b 21 b6 bc 14 9b 3f bd 9f eb 9f bb df c4 ae bc
       -0.022232702 -0.046778753 -0.004880383 -0.02133411
000130 43 1a 3a bd 08 37 a1 bd 75 12 8b bd af d5 49 bd
       -0.0454352 -0.078718245 -0.0679063 -0.04927605
000140 c4 f7 bb 3c be 54 2b bd 79 ad a3 bc b2 2c eb 3b
       0.022945292 -0.041828863 -0.01998018 0.007176959
000150 96 03 5d bc 1b 60 4c bd 95 4a e0 bd ce bb 02 bd
       -0.0134896245 -0.04989634 -0.109517254 -0.031917386
000160 b2 c9 00 be eb 3a 83 3c 89 ff 4c bc 91 3b f5 bc
       -0.1257694 0.016019305 -0.012512096 -0.02993563
000170 21 4b aa 3c 22 3f fd bb b8 fc 9f 3c 23 5a c8 bc
       0.020787777 -0.0077284733 0.019529685 -0.024457043
000180 ef 09 05 3d a8 da 5c bc 62 a6 5d 3b 54 8b 52 bd
       0.032480177 -0.013479866 0.0033821096 -0.051402405
000190 a1 0f 53 bd 9f bb 23 3c 70 f0 a5 bd da 0a 35 bb
       -0.051528577 0.009993463 -0.081025004 -0.0027624876
0001a0 77 ff 5a bc e7 ef 02 bd de f6 80 bd 5b 74 50 bd
       -0.013366572 -0.03196707 -0.06297086 -0.050892215
0001b0 aa 45 0e be 91 38 b1 bd 34 99 82 bb b5 ea 34 bd
       -0.13893762 -0.08653367 -0.0039855484 -0.044169147
0001c0 2e 34 c6 bc 86 b4 bd bd 16 81 94 3a b5 b0 89 bd
       -0.024194803 -0.09262948 0.0011329975 -0.06723157
0001d0 4d 27 97 bd cb 9b 0f 3a d7 df ca bd 75 1a 32 3c
       -0.07380543 0.0005478232 -0.09905975 0.010870566
0001e0 be e3 ae 3b ff bb a7 3a a3 f0 5c bd cc 93 aa bc
       0.0053372076 0.0012797116 -0.053940427 -0.020822428
0001f0 bf 64 77 bd 1a 6e 35 bd b3 46 f1 bc 31 0f 20 bd
       -0.060398813 -0.044294454 -0.029452657 -0.039076988

action_model._continuous_distribution.log_sigma f4 [1, 2]
000000 0f ef a4 3e bc f2 ac 3e
       0.32213637 0.33778942

action_model._continuous_distribution.mu.weight f4 [2, 128]
000000 35 fb 77 3c 8c 57 2f 3d 5f 57 2f 3d d5 f2 fb 3c
       0.015135576 0.0428081 0.042807933 0.03075544
000010 17 31 7f 3c a7 ce a7 3c 35 63 3a bd 9b f8 16 3d
       0.015575669 0.020484282 -0.045504767 0.036858182
000020 49 a4 9e 3c 14 f3 1c 3d 91 fc 56 3d 2b 42 53 ba
       0.019365447 0.038317755 0.05248696 -0.0008058871
000030 82 8a 06 3d ea 93 79 3d 3e 91 b1 39 5c 2b 03 3d
       0.032846935 0.060932077 0.00033868285 0.032023773
000040 74 e2 60 3d 18 05 28 3d 37 dc dc ba 7e 2a 85 3d
       0.054903463 0.041020483 -0.0016850297 0.06502245
000050 6b 4c 76 3c 43 8a 1d 3d 9a b2 16 3d 94 b7 8f 3c
       0.015032868 0.038461935 0.03679142 0.017543592
000060 f4 3d 4f 3c f9 5b 46 3d 78 63 fa 3b 33 db 33 3c
       0.012649048 0.048427556 0.007641252 0.010977554
000070 c8 65 ef 3c 2c 7d c5 bb 34 ce 01 3d 2d 6b b5 ba
       0.029223338 -0.0060268845 0.03169079 -0.0013841145
000080 40 33 1b ba f1 fd d8 3d 80 21 c8 3c 85 5f e8 3c
       -0.00059204176 0.105953105 0.024430037 0.02836586
000090 ac 2a 8e 3c f3 f9 79 3d 71 a2 02 3d 66 32 39 bc
       0.017354332 0.061029386 0.031893197 -0.01130352
0000a0 72 6d d7 bc 21 38 f8 3c 8e f6 84 bc dd 47 df 3b
       -0.026297305 0.030300202 -0.016230848 0.0068139867
0000b0 93 6e ec 3d 50 55 93 3d 75 f8 35 3d b1 6f f9 3c
       0.11544528 0.071940064 0.0444264 0.030448766
0000c0 3c 38 54 3c 6b f9 fe 3c 56 47 5b 3d b4 86 d6 3c
       0.01295286 0.031124791 0.053534828 0.026187278
0000d0 69 0b 06 3d a2 2a 8b 3c 5f 5e 5d bd d3 fe 0f 3d
       0.032725725 0.016988102 -0.054045077 0.03515513
0000e0 e9 56 8e 3d 6d 45 d4 3d fd 8b 23 3d e3 2f a0 3c
       0.069501705 0.103648044 0.039928425 0.019554084
0000f0 d6 8e 0d 3d 07 e1 bb bb 1e 8b 7e ba 5d a0 26 3d
       0.034560047 -0.0057336125 -0.0009710061 0.040680278
000100 0c 3d 26 3d ba bc 16 3d fd 95 51 3d b4 d5 40 3d
       0.040585563 0.036801077 0.05116843 0.047078803
000110 66 b5 df 3b 5c e9 0b 3c c0 a5 b7 3c 73 73 11 3c
       0.0068270443 0.008539524 0.022417903 0.008877623
000120 94 fb 2a 3c f4 cb 92 3c 7f 78 b9 3d 04 21 23 bc
       0.010435957 0.017919518 0.09056186 -0.009956602
000130 6f de 1a 3c 9a 05 13 3d fa 48 f1 3c f4 4a 03 3c
       0.009452446 0.035894014 0.029453743 0.008013476
000140 39 d9 94 3b a8 71 54 3d 60 b5 71 3d 87 c7 98 3c
       0.0045424965 0.051866204 0.059010863 0.01864983
000150 82 12 07 3a f3 f9 96 3c 67 eb 12 3c 9a 08 11 3d
       0.0005152599 0.018429732 0.008967257 0.035408594
000160 9b 5a 49 3c 95 e0 ed bc 28 00 ef ba 91 82 b3 3c
       0.012289668 -0.029037753 -0.00182343 0.021912845
000170 06 24 ec bc 98 90 68 3d d0 51 7c bc 8c da d7 3d
       -0.028825771 0.05677852 -0.015400365 0.105397314
000180 02 4f 95 ba c0 95 32 bc 8a 38 0a 3b 00 b2 85 3c
       -0.0011391344 -0.010899961 0.0021090829 0.016320229
000190 dd 80 a9 3c 0c 76 2e 3c 63 b7 b8 3c b8 16 71 3d
       0.02069133 0.010648262 0.022548383 0.058859557
0001a0 4d 64 d3 bb 4a a9 2c bb bd 0b ce 3b 52 f0 ff 3c
       -0.006451166 -0.0026346021 0.0062880204 0.031242523
0001b0 a9 5f db 3a 8e a1 c2 3c 0b 56 e8 bc be 33 66 bb
       0.0016736883 0.023758676 -0.028361341 -0.0035126056
0001c0 b1 71 da bb 27 33 85 3c b3 86 9c bb 5f c6 dd 3c
       -0.006666385 0.016259743 -0.0047767996 0.02707213
0001d0 37 e0 7a 3c c2 71 f9 3c ce c3 a1 3c c6 13 a7 3d
       0.015312246 0.030449752 0.019746687 0.08158068
0001e0 84 4d ae 3c ea 03 0d bb 6c 71 43 3c 47 9d 1b bc
       0.021277197 -0.0021517226 0.011928897 -0.009497947
0001f0 6f 2e 0b 3d c3 02 83 3b 49 09 16 bb 89 24 2d 3c
       0.03397983 0.003998132 -0.0022893718 0.010567793
000200 6b d9 87 3c 5e 80 35 3d 41 2a 08 bd 1e 1b 02 3d
       0.016583165 0.044311874 -0.03324342 0.031764142
000210 dc 1c 12 3d ab 10 92 bd cc 6d 20 3c 58 94 0a bc
       0.035672054 -0.071320854 0.009791803 -0.0084582195
000220 2e ff fe 3a 30 5a 16 bc db c0 8d 3b 76 f3 93 bc
       0.0019454712 -0.009176776 0.0043259687 -0.018060427
000230 e9 c2 31 bd e7 a8 8b 3b 34 d4 33 3c 8b 40 b8 bd
       -0.04339877 0.004262078 0.010975886 -0.089966856
000240 e4 00 3d bd e7 56 ab 3c db 40 00 bc 36 c6 6f bb
       -0.046143427 0.020915462 -0.007827963 -0.0036586649
000250 c5 d8 30 3c af 06 05 bb 96 b5 44 bc 88 2e 9d b9
       0.010793869 -0.0020298173 -0.012006184 -0.00029980042
000260 d8 90 3d 3d 3a 92 b2 3c bf f8 61 3b 84 5d 80 bb
       0.046280712 0.021798242 0.003448054 -0.003917398
000270 69 37 88 bc 81 9a 8a bc a2 0f d8 bb a7 bf 04 bc
       -0.016627984 -0.016919376 -0.0065936605 -0.008102334
000280 64 3e a0 bc 63 6a 10 3d a4 66 00 bb dd 93 38 bd
       -0.019561 0.03525771 -0.0019592429 -0.04506289
000290 33 8f 28 bc d8 e7 e0 bc 8c 17 bd 3a d5 db c6 3c
       -0.010288048 -0.027454302 0.0014426573 0.024274746
0002a0 b4 5b 18 bd dd 3e e8 3c 38 3c a0 3c 89 e5 42 bc
       -0.03719683 0.028350288 0.019559965 -0.011895546
0002b0 ff 28 8b ba 32 27 15 bc 50 40 dd 3c c8 c9 6e bd
       -0.0010617076 -0.009103583 0.027008206 -0.058297902
0002c0 65 e9 cb bc 8e 3a 3c bd bd f1 41 3d 62 79 85 bc
       -0.024891565 -0.04595428 0.04734968 -0.016293231
0002d0 3a a5 b6 bc 4e ed 14 3c 90 c7 87 3d 4f db f7 bb
       -0.022295583 0.009089781 0.066298604 -0.0075639854
0002e0 c4 33 12 bd da d0 92 bd 98 42 4f bc c0 fa 81 bb
       -0.0356939 -0.071687415 -0.0126501545 -0.0039666593
0002f0 dd 8d 7b bb fa b6 56 bc cf 23 ed bb c7 f7 cd bb
       -0.0038384118 -0.013105148 -0.0072369347 -0.006285641
000300 7f c8 0d bd 56 c2 66 bc 3d 64 3b bc 96 c1 5d bd
       -0.034615036 -0.014084419 -0.011437473 -0.054139696
000310 b6 bc d2 3b 4b fd a6 bd 8a 0a f0 3c d7 10 ab 3d
       0.0064311875 -0.081537805 0.0293019 0.08352821
000320 80 d1 38 bc 6b 21 8e bd 81 b0 44 bd a8 d3 0f 3d
       -0.011280417 -0.06939968 -0.04801989 0.03511396
000330 63 85 91 3a da b4 77 bc 57 3a 11 bd e3 19 79 3b
       0.0011102374 -0.015118802 -0.035456028 0.0038009814
000340 12 55 8d bd 46 da c2 bc 32 42 87 3b 98 ac 1d 3d
       -0.069009915 -0.023785722 0.004127764 0.038494676
000350 16 3f 89 bc 6b 7a 1d 3d 9f d7 ca bb 4e 6b cb 3c
       -0.016753715 0.038446825 -0.006190255 0.02483144
000360 cb fc 9d 3a 48 5e 77 bd 56 4e 83 bd 6e 35 ca bc
       0.0012053488 -0.060392648 -0.06411426 -0.02468368
000370 69 32 af bc b6 fa 18 bd 52 52 62 bd 9f d0 3e 3c
       -0.021386342 -0.03734847 -0.055254288 0.011646419
000380 77 57 61 bd 86 66 99 bb a0 2b 6c bd 34 27 f9 3c
       -0.055015054 -0.004681411 -0.05765879 0.030414201
000390 14 6f 63 3c fa 5b 51 3c c5 00 3a 3c fe 59 99 bc
       0.013881464 0.012778277 0.0113527225 -0.01871967
0003a0 9b af a7 bd 08 52 7e bb 79 9e f6 3b a7 1a a4 bd
       -0.08187791 -0.0038806219 0.0075262156 -0.08012896
0003b0 bc 90 dc 3b aa ac 68 bb 39 78 41 3d 79 62 cb 39
       0.006731121 -0.0035503306 0.047233794 0.00038792545
0003c0 7f a2 25 bc 4c e4 19 bd 98 77 0f bd ae 71 93 bc
       -0.010109543 -0.037571236 -0.035026163 -0.017998543
0003d0 f8 fd f4 bd 3e 65 bd 3d 2f bb a4 3c 8a ac 32 bc
       -0.11962503 0.09247826 0.020108787 -0.010905394
0003e0 ec 42 4b 3c df 94 e5 bc 15 3b 0b bd f6 51 e0 3c
       0.012406092 -0.028025089 -0.033991892 0.027382832
0003f0 d6 b7 14 bd 7f b3 57 bc f6 cc 2a bc 7c 60 8d b9
       -0.036308132 -0.013165354 -0.010424843 -0.00026965502

action_model._continuous_distribution.mu.bias f4 [2]
000000 9a 75 ea bb 40 d8 bd 3c
       -0.0071551325 0.023174405

action_model._discrete_distribution.branches.0.weight f4 [1, 128]
000000 6e 4b c6 ba 3e 82 bf bb 72 d3 44 3b 22 7d 3b 3c
       -0.0015128681 -0.0058443835 0.0030033258 0.011443408
000010 00 88 55 bc c4 d1 c2 ba de b5 26 3a 7b 18 11 3c
       -0.013032913 -0.001486354 0.0006359498 0.008855934
000020 a0 1a a1 3b 22 5d 5b bc d3 7b fc 3a 48 03 d9 bb
       0.004916504 -0.013388904 0.0019262977 -0.0066227056
000030 a3 33 b2 ba 3e e7 07 3c b1 a1 24 3c 87 76 24 bb
       -0.0013595711 0.0082948785 0.010048316 -0.0025095062
000040 1d 28 13 bc 5a 58 7b 3c d2 93 cd bb 6a 12 44 3c
       -0.008981732 0.015340889 -0.006273725 0.011967281
000050 17 fc 88 3a 13 c3 3b 3c d6 a5 a3 3b 8f a5 70 3b
       0.0010451105 0.011460084 0.0049941344 0.0036719774
000060 8f 1b d0 3b 20 fb 80 3b 5a 0c 64 3b ba 7e f4 bb
       0.0063509415 0.0039361864 0.0034797401 -0.007461396
000070 6b 85 d3 3b d7 5f ad bb d7 11 08 3c 0a 83 ea bb
       0.0064551136 -0.005290966 0.008305035 -0.0071567344
000080 f0 3d 53 3c f3 78 04 ba 0e 2a 87 bb 35 ee d4 3b
       0.012893185 -0.0005053423 -0.0041248864 0.006498123
000090 aa 14 ef 3b 2b 80 fa bb aa f1 ed 3b 0b 3d a0 3b
       0.0072961645 -0.0076446733 0.0072614746 0.0048900894
0000a0 a4 ec a1 ba 0b 67 a4 3b b3 bd 2b bb 10 2d 6d bc
       -0.001235385 0.0050171665 -0.00262056 -0.014476076
0000b0 89 c9 b0 bb cb 60 c7 3b d3 da cd 3a ce 54 91 ba
       -0.0053951186 0.0060845367 0.0015705473 -0.0011087896
0000c0 f6 14 13 3c 2d c5 75 3c 82 7b bd 3b 07 30 b1 3b
       0.008977165 0.015000624 0.0057825455 0.0054073366
0000d0 67 c1 4f 3b 78 73 7f 3a db b2 1a bc 1c cd 8e bc
       0.003170097 0.0009744684 -0.0094420565 -0.017431788
0000e0 b7 d0 db ba e3 47 f6 bb 37 83 d6 3b 8f 6a 0c bb
       -0.0016770576 -0.007515894 0.0065464037 -0.0021425819
0000f0 a8 27 68 3b 38 11 80 3c 39 51 81 ba 43 80 de ba
       0.0035424028 0.01563321 -0.0009866125 -0.0016975481
000100 26 75 b2 3c 2f e2 63 3c e3 bc 16 bc d8 8e 04 3c
       0.021784376 0.013908907 -0.009200308 0.008090697
000110 47 2f f8 3b 60 af c9 39 d2 ca 80 3b e3 0e 34 bb
       0.0075739953 0.00038468372 0.003930428 -0.0027474693
000120 90 7f 59 b9 ef 66 9b 3b 52 a5 ef ba bb 89 9e bc
       -0.00020742253 0.0047424952 -0.0018283522 -0.019352784
000130 00 c3 9e 3b 5f ec 39 bb 7b 2c 81 bb c7 bd 1b bb
       0.004845023 -0.0028369648 -0.00394207 -0.002376424
000140 0b 59 b5 bb 1b f4 52 3b 2a d1 ce 3b 03 14 90 3b
       -0.0055342964 0.0032188955 0.0063115554 0.004396917
000150 7b 6f 92 3b 25 0e 83 bc 34 cd 0b 3b dc 5b 0c 3b
       0.004468856 -0.015997956 0.0021332027 0.0021417057
000160 07 a4 32 bb 2d dc 62 3c b2 c6 75 3b 73 4b e4 bb
       -0.0027258412 0.013846439 0.0037502465 -0.006967002
000170 23 a5 c8 3a 6f 04 7d 3b fa be e4 3b d9 0f 2b 3b
       0.0015308004 0.003860738 0.006980774 0.0026101975
000180 ff df 8c bb d9 f7 2d 3c 2f 44 d1 bb e7 da 4f bb
       -0.0042991634 0.0106181735 -0.006386302 -0.003171617
000190 b7 0f 1b 3c 42 fe 07 bc 5d 2f 4b 3b 55 69 6b ba
       0.009464196 -0.008300366 0.0031003573 -0.0008980234
0001a0 2f a6 21 3c ff d5 e1 3b 0a 5e ce ba 97 44 48 bc
       0.009866281 0.0068919654 -0.0015744579 -0.012223384
0001b0 d1 e9 91 3b 2a cb cf 3b 73 2a 45 bc cb db 30 3c
       0.004452922 0.0063413577 -0.012034046 0.01079459
0001c0 4c 54 28 3b f3 06 36 bc 47 96 71 bb ff 38 49 3c
       0.002568501 -0.011110055 -0.0036863254 0.012281655
0001d0 53 b5 ed 3b 3d b2 f4 bb 0e 57 02 3c 2f fd bf 3c
       0.0072542815 -0.0074675367 0.007955326 0.023436157
0001e0 13 57 85 3c e3 95 f5 3b 1d 4b 8e bc f9 49 3b 3c
       0.016276872 0.0074946745 -0.017369801 0.011431211
0001f0 8c b5 c8 3b e3 66 67 bc ae dd af ba 63 41 38 3b
       0.0061251577 -0.014123651 -0.0013417506 0.0028115145
