Assets/52_1.onnx (onnx, 130006 bytes, 8 tensors)

network_body._body_endoder.seq_layers.0.weight f4 [128, 107]
0	0x3de56f6b	0.11202892
1	0xbd03fae4	-0.03222169
2	0xbd2611d6	-0.040544353
3	0x3e1f4c1a	0.15556374
4	0x3d1bd04b	0.03804044
5	0x3ddd2555	0.10798136
6	0xbdc397f2	-0.09550466
7	0x3d8cf040	0.068817616
8	0xbca560aa	-0.020187695
9	0x3d93fec1	0.07226325
10	0xbd383cfa	-0.044980027
11	0xbd99e0aa	-0.075135544
12	0x3e3d0850	0.18460202
13	0xbd801df4	-0.06255713
14	0xbd5b4fb1	-0.053542797
15	0x3e186432	0.14881971
16	0x3db1e01e	0.08685325
17	0x3dfaf9f8	0.12254709
18	0xbd8c8031	-0.06860388
19	0x3c8d0455	0.01721398
20	0x3d57a9b3	0.052652072
21	0xbd4d9fc7	-0.050201204
22	0x3c0805f0	0.008302197
23	0xbe53fdb6	-0.20702252
24	0xbe086f09	-0.13323607
25	0x3d17cc24	0.037059918
26	0x3cab8099	0.020935344
27	0xbd4e25cd	-0.05032902
28	0x3d361756	0.04445585
29	0x3cc6965a	0.024241615
30	0xbc56feb0	-0.013122246
31	0xbdac8687	-0.084240966
32	0x3d24b5fb	0.040212613
33	0x3d6131f7	0.05497929
34	0xbc97f13a	-0.018547643
35	0x3d5539c8	0.052057058
36	0xbe182144	-0.1485644
37	0xbc47a2da	-0.012184823
38	0xbd927054	-0.07150331
39	0x3e8a7b3a	0.2704714
40	0x3df60549	0.12012727
41	0x3ca27ad8	0.019833967
42	0xbb2c723d	-0.0026313209
43	0x3dd713c2	0.105018154
44	0xbe019ae8	-0.12656748
45	0xbc3ad0df	-0.011402338
46	0xbdeaf05e	-0.11471628
47	0xbe0fedb1	-0.14055516
48	0x3ced8033	0.028991794
49	0x3d1b6dff	0.037946697
50	0xbc86fbb5	-0.016477445
51	0xbd0d03a4	-0.0344273
52	0x3e61afa8	0.22039664
53	0x3c1071ab	0.008816163
54	0x3dab4dd2	0.083644524
55	0xbe562e64	-0.20916134
56	0x3cab9084	0.020942934
57	0x3ea46f62	0.32116228
58	0x3e24981c	0.1607365
59	0x3dfa13b6	0.12210791
60	0xbd9f9740	-0.077925205
61	0x3d12c3d5	0.03583129
62	0x3e68d18b	0.22736184
63	0xb9e91b46	-0.00044461543
64	0xbdb29523	-0.08719852
65	0x3e55d77a	0.20882979
66	0x3e89e9d6	0.26936215
67	0x3d9e3a8c	0.07726011
68	0xbe5f14fe	-0.21785352
69	0x3df2061f	0.11817574
70	0x3c1ebf84	0.009689216
71	0xbc9dc45d	-0.019258672
72	0xbd56957b	-0.05238865
73	0xbd9078ab	-0.070542656
74	0x3c249900	0.010046244
75	0x3c9647e3	0.018344825
76	0xbdf6fa6b	-0.12059482
77	0x3b07f7d4	0.0020747082
78	0x3ada469c	0.0016653123
79	0xbda40079	-0.08007903
80	0x3d1a286f	0.037636217
81	0x3d8b5cb8	0.06804794
82	0xbc0f4842	-0.008745255
83	0xbd8f1f6e	-0.069884166
84	0x3cfe217a	0.031021822
85	0xbd226c6d	-0.039654184
86	0x3d968976	0.07350437
87	0xbd0ebc5c	-0.034847602
88	0x3e2f217e	0.1710262
89	0xbdbe2059	-0.092835136
90	0x3ce6f13f	0.028191207
91	0x3b92ebd5	0.00448368
92	0xbe0de95b	-0.1385855
93	0xbd13de0f	-0.036100443
94	0xbd0ed90b	-0.034874957
95	0xbdb77935	-0.08958665
96	0x3cfbedaa	0.030752975
97	0xbe0345e3	-0.12819628
98	0xbe097a4d	-0.1342556
99	0x3daf92c1	0.08572913
100	0xbe6c5bd3	-0.23081903
101	0xbda72fd8	-0.08163422
102	0x3e149427	0.1450964
103	0x3bf48cb4	0.007463062
104	0xbcb9143c	-0.022592656
105	0x3db41f2a	0.087950066
106	0xbc7f344c	-0.015576433
107	0xbd763b9a	-0.060115434
108	0x3deba288	0.1150561
109	0x3c548aec	0.012972575
110	0xbc6cd653	-0.014455396
111	0xbdbf615c	-0.09344742
112	0xbe47da93	-0.19516973
113	0x3e97b755	0.2963206
114	0x3cb9afce	0.022666838
115	0xbd4cf350	-0.05003673
116	0xbc166e1e	-0.009181527
117	0xbc6ff9b5	-0.014646937
118	0xbdd68f60	-0.10476565
119	0x3d31f6dc	0.043448314
120	0x3dd28a55	0.10280291
121	0xbde3a7a9	-0.11115963
122	0xbc06e9df	-0.00823447
123	0xbdb3dd7b	-0.087824784
124	0xbddfbba2	-0.1092446
125	0xbd5ea6f9	-0.054358456
126	0xbd9c20ed	-0.076234676
127	0x3dee2dd0	0.11629832
128	0xbb88517d	-0.004160105
129	0x3d5c7acd	0.05382805
130	0xbcefee68	-0.029288486
131	0x3db47543	0.088114284
132	0x39b6bec0	0.00034855865
133	0x3d6acf1c	0.05732642
134	0x3db340c8	0.087525904
135	0x3d263f9b	0.040588003
136	0x3cd4a0e1	0.02595562
137	0xbc1740b0	-0.009231731
138	0xbc386e02	-0.011256697
139	0x3e0a17e1	0.13485672
140	0xbe1f00eb	-0.15527694
141	0xbccebaf8	-0.025235638
142	0x3e6285ba	0.22121325
143	0xbd95b270	-0.07309425
144	0x3cfb3c4c	0.0306684
145	0x3db46a3c	0.08809325
146	0x3cac0dc5	0.02100266
147	0xbdeb3b6a	-0.11485942
148	0xbe0b7b31	-0.13621213
149	0x3bd10a7b	0.006379423
150	0xbd541f9e	-0.051787965
151	0xbe126e6c	-0.14299935
152	0x3e080ec8	0.13286889
153	0xbdde2b0a	-0.10848053
154	0xbd96a403	-0.073555015
155	0xbe1d942d	-0.15388556
156	0xbcbf3fd8	-0.023345873
157	0x3d7e4fa9	0.06208769
158	0x3e0b0459	0.13575877
159	0xbd3d3e79	-0.046202157
160	0x3c7375cc	0.014859628
161	0xbdf245b4	-0.11829701
162	0x3c9970c5	0.01873053
163	0xbc9c2ad8	-0.019063398
164	0xbd86515c	-0.06558487
165	0x3e128a7b	0.14310639
166	0xbdc16bb3	-0.0944437
167	0x3beb14d9	0.007174116
168	0xbc86cd20	-0.016455233
169	0xbc9c32d7	-0.019067211
170	0xbd805efa	-0.06268115
171	0x3e2c25b2	0.16811255
172	0x3db38e98	0.08767432
173	0xbd80bf0c	-0.06286439
174	0xbd3a68cc	-0.0455101
175	0x3c615f31	0.013755606
176	0xbd27e7ed	-0.040992666
177	0x3dc5c615	0.09656922
178	0x3d817243	0.06320622
179	0xbd815567	-0.06315117
180	0xbcf42f9b	-0.029807856
181	0xbd6d056c	-0.0578665
182	0x3d6fa1de	0.058503978
183	0xbdb883ab	-0.09009489
184	0x3dcc10c2	0.09964134
185	0xbe0d566d	-0.138025
186	0xbe1bea68	-0.15226138
187	0x3e213ede	0.15746638
188	0x3df41c76	0.11919491
189	0xbd6c3376	-0.057666264
190	0x3b188df8	0.002327798
191	0x3dc41d02	0.09575845
192	0x3dbb9440	0.09159136
193	0xbda448b8	-0.080216825
194	0x3d23e786	0.04001572
195	0x3d84c7d3	0.06483426
196	0xbd0ba1ed	-0.03408997
197	0x3d73b45f	0.059498187
198	0xbe1272ed	-0.14301653
199	0x3d59228f	0.053011473
200	0x3d99e39a	0.07514115
201	0xbe1ee205	-0.15515907
202	0x3da11550	0.07865393
203	0x3d998081	0.07495213
204	0xbddc64f1	-0.107614405
205	0xbe8786b5	-0.2646996
206	0x3e3120a6	0.1729761
207	0x3e2c7acc	0.16843718
208	0x3d708131	0.058716957
209	0xbd6c1871	-0.057640497
210	0x3d0173e7	0.031604674
211	0xbd42c26a	-0.04754869
212	0xbcb9b861	-0.022670927
213	0x3d9a1d42	0.07525112
214	0xbd95bf6a	-0.073119
215	0xbd2359b3	-0.039880466
216	0x3e0e219d	0.1388001
217	0xbc8c863e	-0.017153855
218	0x3da1d259	0.07901449
219	0xbb9e5ae7	-0.0048326137
220	0xbd572ded	-0.052534033
221	0x3de16496	0.11005513
222	0xbd19349e	-0.037403695
223	0x3dade9ae	0.084918365
224	0xbd952347	-0.07282119
225	0x3c362c98	0.01111903
226	0xbdeba267	-0.11505585
227	0xbdb99fab	-0.090636574
228	0xbd321a46	-0.043482088
229	0xbd925187	-0.07144456
230	0x3d26511c	0.040604696
231	0x3e2cee81	0.16887857
232	0x3df2e472	0.11859979
233	0xbd1df2d5	-0.03856166
234	0xbdac3392	-0.08408274
235	0x3c932747	0.017963065
236	0x3d8fec41	0.07027484
237	0xbd9ec865	-0.07753066
238	0xbe2c212f	-0.16809534
239	0x3d81b766	0.063338086
240	0x3e154526	0.1457716
241	0xbc93def5	-0.01805065
242	0xbd08611b	-0.033295732
243	0x3d884ad4	0.06654897
244	0x3c612370	0.013741359
245	0xbe878c03	-0.26474008
246	0xbd3402fb	-0.043948155
247	0xbd4153bb	-0.047198992
248	0x3e072d37	0.13200842
249	0x3d3640ee	0.044495516
250	0x3bc9ff67	0.0061644795
251	0xbd915d45	-0.07097868
252	0xbc253d49	-0.010085412
253	0x3b794ea9	0.003804127
254	0xbcb5bfec	-0.022186242
255	0x3df1733d	0.11789558

network_body._body_endoder.seq_layers.0.bias f4 [128]
0	0x3c1c4c26	0.00953964
1	0xbba5056a	-0.005036046
2	0xbc48454c	-0.012223553
3	0xbb85bf5b	-0.0040816492
4	0xbad847a7	-0.0016500846
5	0xbc407cc3	-0.0117484955
6	0xbbd483ef	-0.0064854543
7	0x3aec3e87	0.0018024006
8	0x3c684fca	0.014179179
9	0x3c1abc5a	0.009444321
10	0x3c30260e	0.01075126
11	0xbc6b5b49	-0.014365026
12	0x3c25e8f1	0.010126338
13	0xbb823387	-0.0039734277
14	0xbb92b7ac	-0.004477462
15	0xbc836f9a	-0.016044427
16	0x3aa2105c	0.0012364495
17	0xba98e914	-0.0011666142
18	0x3ab376e3	0.0013692047
19	0xbb1f6d14	-0.002432649
20	0xbbc0de9b	-0.0058859116
21	0xbc11e2aa	-0.008904139
22	0x3c00285f	0.007822125
23	0xbc43b707	-0.011945493
24	0xb8ff926b	-0.0001218662
25	0xbbe47cd6	-0.0069728894
26	0x3c749ad1	0.014929489
27	0x3c290cc4	0.010317985
28	0xbbde6dc6	-0.0067879884
29	0x3c1f4f16	0.009723445
30	0xbc99b901	-0.018764975
31	0x3ad114c6	0.0015951626
32	0xba0c1756	-0.00053440535
33	0x3bc0c54c	0.0058828946
34	0xbad82a85	-0.0016492164
35	0xbc8e568c	-0.017375253
36	0x3afebb76	0.001943453
37	0x3b55b4cb	0.0032608982
38	0xb8ed0dc6	-0.00011303606
39	0xbc05c299	-0.0081640715
40	0xbc29e553	-0.010369617
41	0x3b99b166	0.004690337
42	0x3d250610	0.040288985
43	0xbbdf290d	-0.0068103136
44	0xbc0fb0ed	-0.00877021
45	0xbc8b6319	-0.017015027
46	0xbc5cddcc	-0.013480615
47	0xbb84b1b4	-0.004049504
48	0xbc07ac2d	-0.008280796
49	0x3c06e903	0.008234265
50	0x3cc0976c	0.023509704
51	0xba90eaf5	-0.0011056351
52	0xbbcba344	-0.006214531
53	0xbab850a3	-0.0014062118
54	0x3c24f909	0.01006914
55	0xbc2e4dce	-0.010638667
56	0xbc8e0551	-0.01733652
57	0x3bdb6051	0.0066948314
58	0x3c3e1fd9	0.011604273
59	0x3b7bb354	0.0038406448
60	0x3a8894c2	0.001042031
61	0xbbfd5589	-0.007731144
62	0x3b8a94c7	0.0042291614
63	0xbc5b3451	-0.013379172
64	0x3a4cf948	0.0007819128
65	0xbbeed277	-0.007288273
66	0x3c2e7ac5	0.010649388
67	0xbbdfc611	-0.0068290313
68	0x3c775d9f	0.015098005
69	0xbc2436ee	-0.010022862
70	0x3c06a13d	0.008217153
71	0x3bba8e88	0.0056932606
72	0xbbf6cbc1	-0.0075316136
73	0xbb79e559	-0.0038131087
74	0xbcc57ff7	-0.02410887
75	0x3b472ead	0.0030392811
76	0xbb16e514	-0.0023024725
77	0xbb215474	-0.0024616988
78	0xbcaf40a3	-0.021393126
79	0x39d57dd3	0.00040720272
80	0xbc248f35	-0.010043909
81	0xbc51e379	-0.012810581
82	0xbd21795c	-0.039422378
83	0x3ac0dbfb	0.0014713997
84	0x3bf39f2b	0.007434746
85	0xbb993199	-0.004675102
86	0xbca451fa	-0.02005862
87	0x3bf71663	0.0075405105
88	0xbc7dd561	-0.015492768
89	0xbc39b374	-0.011334289
90	0x3c357c54	0.011077005
91	0xbbadf8a7	-0.0053091827
92	0x3b8dca6e	0.00432711
93	0x3bb15f2c	0.0054129567
94	0xbb8d9cb3	-0.0043216585
95	0x3ab6351c	0.0013901326
96	0xbbd0e571	-0.006375008
97	0xbc419f1a	-0.011817718
98	0x3c0d1b32	0.008612441
99	0x3be214d3	0.006899455
100	0xbd06b2fe	-0.032885544
101	0xb9c0ecc5	-0.000367975
102	0xbc3f1c26	-0.011664426
103	0xbbcfbb6b	-0.0063394806
104	0x3cb1c4df	0.02170032
105	0xbc56cc27	-0.013110197
106	0xbc278f69	-0.010227063
107	0xbb8af7b0	-0.0042409524
108	0xbac1d8cc	-0.0014789342
109	0xbbe598b7	-0.0070067304
110	0xbbdfcfa5	-0.006830173
111	0xbc574052	-0.013137894
112	0xbbd17856	-0.006392519
113	0x3baddbf9	0.005305764
114	0xbc73fa75	-0.014891257
115	0xbb64ef1b	-0.0034932557
116	0xbb9f33e0	-0.004858479
117	0xbb725cf5	-0.0036981676
118	0x3b31b452	0.0027115536
119	0xbbc11f96	-0.005893658
120	0xbb7850eb	-0.0037890028
121	0xbc038fd3	-0.008029896
122	0x3cb292f8	0.021798596
123	0x3c284e65	0.010272597
124	0xbc8594ba	-0.01630627
125	0x3bb8f7e8	0.005644787
126	0xbc63a874	-0.013895143
127	0xbc1d93df	-0.009617775

network_body._body_endoder.seq_layers.2.weight f4 [128, 128]
0	0xbc4feade	-0.012690274
1	0x3d98367d	0.07432268
2	0xbe8f07d0	-0.27935648
3	0xbd8a43f4	-0.06751242
4	0x3ca34163	0.01992864
5	0xbd06b4ac	-0.032887146
6	0xbe025f27	-0.1273161
7	0x3c3a142d	0.011357349
8	0x3c91249e	0.017717656
9	0x3c955697	0.018229766
10	0xbdd8b550	-0.105814576
11	0xbd45bf00	-0.048277855
12	0xbe36429a	-0.17798844
13	0xbd16e350	-0.036837876
14	0x3d7fef2d	0.062483955
15	0x3d5f1cf1	0.05447096
16	0xbe232972	-0.15933779
17	0x3dddf910	0.108385205
18	0xbd9e7ee3	-0.077390455
19	0xbe2cf209	-0.16889204
20	0x3e530ac3	0.20609574
21	0xbc6660be	-0.014061151
22	0x3e1ba16e	0.151983
23	0x3d406eb3	0.04698057
24	0xbdb7e12d	-0.08978496
25	0xbcf3ecf2	-0.02977607
26	0x3dee090e	0.11622821
27	0x3da53a14	0.08067718
28	0x3d64e0cd	0.05587845
29	0xbdb44325	-0.08801869
30	0xbd9b5556	-0.07584636
31	0x3cefece5	0.029287765
32	0x3d5bf9a6	0.05370488
33	0x3df30e42	0.11867954
34	0xbd7701d8	-0.060304493
35	0x3d583aa7	0.05279031
36	0x3e19c3b6	0.15016064
37	0x3cec1b1e	0.028821524
38	0xbdb9cc30	-0.09072149
39	0x3dccea90	0.10005677
40	0xbe4ff4f5	-0.20308287
41	0xbb2acba8	-0.002606133
42	0x3ccb57e2	0.02482218
43	0xbd2427ca	-0.04007701
44	0xbd14297e	-0.036172383
45	0x3c8fda0d	0.01756003
46	0x3d9e7788	0.077376425
47	0x3c5547a5	0.01301757
48	0xbcf41fe8	-0.02980037
49	0xbd3f2a33	-0.046671104
50	0x3e64ba30	0.2233665
51	0xbcb1121f	-0.021615086
52	0x3d5dc78d	0.054145385
53	0x3b9902ad	0.0046695084
54	0xbd2ae1a1	-0.041719083
55	0xbd907516	-0.07053582
56	0x3dbb89b0	0.09157121
57	0x3e46f0b7	0.19427763
58	0x3dcb1846	0.09916739
59	0x3dbdd2cc	0.09268722
60	0xbd974448	-0.073860705
61	0xbe45f446	-0.19331464
62	0x3d584f01	0.05280972
63	0x3d873a5c	0.06602928
64	0xbd9cba7e	-0.07652758
65	0x3d7120b6	0.058869086
66	0x3d82f846	0.06395011
67	0x3b3fb64b	0.0029252942
68	0x3e87a813	0.26495418
69	0xbe1af13a	-0.15131083
70	0x3bf11def	0.0073583047
71	0xbdce8a5d	-0.100849845
72	0x3e3d3104	0.18475729
73	0x3b662a53	0.0035120442
74	0x3e320614	0.17385131
75	0x3bbea26a	0.005817701
76	0xbd2a9816	-0.041648947
77	0xbbfbb7c4	-0.0076818187
78	0xbd36ec48	-0.04465893
79	0xbd0397fb	-0.03212736
80	0xbd0a0de9	-0.033704672
81	0xbd53ca29	-0.051706467
82	0x3d528aa7	0.05140176
83	0xbdc6109b	-0.09671136
84	0xbd2ea694	-0.04263933
85	0xbd092b53	-0.033488583
86	0xbd7ce036	-0.06173726
87	0xbd308ce5	-0.043103117
88	0x3bef968d	0.007311648
89	0xbd09a2c1	-0.03360248
90	0x3da0193d	0.07817314
91	0x3cde1ec8	0.027114287
92	0xbd10388b	-0.035210174
93	0x3cd8269f	0.026385603
94	0xbe15a030	-0.14611888
95	0x3dd6fc23	0.1049731
96	0xbcdb7fd9	-0.026794361
97	0x3d8f904a	0.07009943
98	0x3c0eeeba	0.008723909
99	0x3dc237f8	0.094833314
100	0x3dc9d52f	0.09855115
101	0xbd59fc08	-0.05321887
102	0x3c1b9c5b	0.009497727
103	0xba2a1939	-0.0006488744
104	0x3da4b696	0.08042638
105	0x3d8f133d	0.06986091
106	0xbd4313cc	-0.0476263
107	0x3da424da	0.080148414
108	0xbd2c4fa1	-0.042068128
109	0xbe21e76b	-0.15810935
110	0x3dd11039	0.10208172
111	0x3d0c84ac	0.034306213
112	0xbda9ceb3	-0.08291378
113	0xb9918a2e	-0.00027759507
114	0x3dd4acee	0.10384546
115	0xbdf090ef	-0.11746394
116	0xbcf0db65	-0.02940149
117	0x3d9372cf	0.071996324
118	0xbbfd54b9	-0.007731047
119	0x3d63e14d	0.055634785
120	0xbd70c0eb	-0.05877773
121	0x3b699208	0.003564002
122	0x3e2a75c8	0.16646492
123	0xbb8be37f	-0.004269063
124	0x3cf722d3	0.030167973
125	0xbd546627	-0.051855233
126	0x3c82136d	0.015878404
127	0xbdd9b7ec	-0.106307834
128	0x3c9f3100	0.019432545
129	0x3e151d77	0.14562021
130	0x3cc0b69d	0.023524577
131	0xbdfb5edb	-0.122739516
132	0x3d7d1ec1	0.061796907
133	0x3da434d5	0.080178894
134	0xbd28a493	-0.041172575
135	0x3df8a7d4	0.12141386
136	0x3e2e7ad7	0.17039047
137	0xbd1a6ed4	-0.03770335
138	0x3d83c0c3	0.06433251
139	0x3da5e856	0.08100955
140	0x3d9c5eda	0.07635279
141	0x3d91afad	0.071135856
142	0x3df73204	0.120700866
143	0xbc0e477a	-0.0086840335
144	0x3dce7eb1	0.10082758
145	0xbc7baf16	-0.015361568
146	0xbd73d550	-0.059529603
147	0x3ca47398	0.02007465
148	0x3df10f33	0.11770477
149	0x3c8ffa63	0.017575448
150	0xbe4f1d36	-0.20225987
151	0xbde6073b	-0.11231848
152	0xbdaa2a11	-0.08308805
153	0x3db2f71b	0.08738538
154	0x3d77d08f	0.06050163
155	0x3d839858	0.06425542
156	0xbe0b5fcf	-0.13610767
157	0x3d09c731	0.03363723
158	0x3dd0dda4	0.101985246
159	0x3d7b2c2f	0.061321434
160	0x3d9526ff	0.072828285
161	0xbe49d8fb	-0.19711678
162	0x3d5be62c	0.053686306
163	0xbe2ad698	-0.16683424
164	0xba8175ed	-0.0009877064
165	0xbc4a2973	-0.012338984
166	0x3deca7de	0.115554556
167	0x3de7146c	0.11283192
168	0xbda26199	-0.079287715
169	0x3e246edc	0.16057914
170	0x3db7f1fa	0.089817
171	0xbdc992b9	-0.09842438
172	0xbda02e94	-0.07821384
173	0x3d820828	0.06349212
174	0xbdb09a71	-0.08623207
175	0x3e07cd55	0.13261922
176	0xbd35250c	-0.044224784
177	0xbdbcc0fa	-0.09216495
178	0x3da7b65d	0.0818908
179	0x3d2a6c74	0.041607335
180	0xbd3e86ad	-0.046515156
181	0xbdbb3cc5	-0.0914245
182	0x3db45eb9	0.088071294
183	0x3d5a48be	0.05329203
184	0xbda180a7	-0.078858666
185	0xbd200141	-0.039063696
186	0x3cb3db07	0.021955026
187	0xbe19f3ad	-0.15034361
188	0x3e058687	0.130396
189	0xbd5f2162	-0.054475196
190	0xbddd068b	-0.107922636
191	0xbd75f9f8	-0.060052842
192	0xbdfc340f	-0.12314617
193	0xbe0d827e	-0.1381931
194	0xbddd3c85	-0.10802559
195	0x3b238926	0.0024953573
196	0x3da19300	0.07889366
197	0x3dbeb08f	0.0931102
198	0x3e00162f	0.12508462
199	0xbc23b85e	-0.009992687
200	0xbda86fcd	-0.08224449
201	0x3caad00a	0.020851154
202	0x3d6877fe	0.05675506
203	0xbc5a7a7c	-0.013334867
204	0x3d914a03	0.07094195
205	0x3d96111e	0.073274836
206	0x3c997e7e	0.018737074
207	0xbd7c0072	-0.061523862
208	0xbd83a06a	-0.06427081
209	0xbdb4c2cb	-0.08826216
210	0xbd0eb7d0	-0.034843266
211	0x3d9a3e6f	0.075314395
212	0xbcaac2a8	-0.020844772
213	0xbbe16254	-0.0068781767
214	0xbcbdb9b6	-0.023159843
215	0x3e3db294	0.18525153
216	0xbbde4351	-0.006782927
217	0xbcfb8465	-0.03070278
218	0xbd7d960c	-0.061910674
219	0x3c58caf8	0.013231985
220	0xbe8cf71c	-0.2753228
221	0xbc59a27e	-0.01328337
222	0xbdc74180	-0.0972929
223	0x3e04abd4	0.12956172
224	0xbd72876a	-0.059211172
225	0x3c8fa916	0.017536681
226	0x3d857e40	0.06518221
227	0x3deaa7c1	0.11457778
228	0xbdb05455	-0.08609835
229	0xbdf16255	-0.117863335
230	0x3dc5326f	0.0962876
231	0xbc9182f8	-0.017762646
232	0xbb618906	-0.0034413948
233	0x3cb975ed	0.02263924
234	0x3d4a82b6	0.049441062
235	0x3d929d46	0.07158904
236	0x3e37e9df	0.17960308
237	0xbcc28bb8	-0.023748264
238	0xbe01de08	-0.12682354
239	0xbdc1a78d	-0.09455786
240	0xbca788eb	-0.02045103
241	0x3c16810e	0.0091860425
242	0x3babff36	0.0052489294
243	0xbd8897fb	-0.06669613
244	0x3d3785fe	0.04480552
245	0xbdfa56e0	-0.12223601
246	0xbdb1a91e	-0.08674835
247	0x3d26f613	0.04076202
248	0x3d4891d4	0.048967198
249	0x3d96c871	0.0736245
250	0x3cea387f	0.028591393
251	0x3e4445dd	0.19167276
252	0x3e0d157c	0.13777727
253	0xbcb189ff	-0.021672247
254	0xbd75642b	-0.05990998
255	0xbdcd5094	-0.10025135

network_body._body_endoder.seq_layers.2.bias f4 [128]
0	0xbb96f7fb	-0.0046071983
1	0x3bf69f86	0.007526341
2	0x3b1fd170	0.002438631
3	0xbc98b05a	-0.018638778
4	0xbc2e8f8b	-0.0106543405
5	0xbbd0945b	-0.0063653416
6	0x3b09d378	0.0021030586
7	0x3b91a75f	0.004445001
8	0xbbdbb39f	-0.006704762
9	0x3bd6e28b	0.0065577677
10	0x39de139f	0.00042357759
11	0xbb9850ca	-0.0046483027
12	0xbbf71e5c	-0.007541461
13	0xbc1261fc	-0.008934494
14	0xbbd122dd	-0.00638233
15	0xbc2cecf9	-0.010554546
16	0xbc523252	-0.01282938
17	0x3c8bc985	0.017063865
18	0x3c5ee351	0.013604001
19	0xbc396fc4	-0.011318151
20	0xbb2ca6b1	-0.0026344473
21	0xbc59418b	-0.013260256
22	0xbc92f30b	-0.017938158
23	0xbb98380e	-0.004645354
24	0xbcaa8036	-0.020813089
25	0x3c264f6e	0.010150773
26	0xbbc721cd	-0.0060770274
27	0x3a51c76b	0.0008002433
28	0x39fc9336	0.00048174866
29	0x3c11f889	0.008909353
30	0xbb39d23f	-0.0028354076
31	0x3c578c55	0.013156016
32	0xbbea2a05	-0.0071461224
33	0xbbe81cff	-0.0070835347
34	0xbbcad18d	-0.006189531
35	0xbbfdf602	-0.0077502737
36	0xbba93490	-0.0051637366
37	0xbbd68982	-0.006547154
38	0xbb9f120e	-0.004854447
39	0xbbe7f218	-0.0070784204
40	0x3b87a081	0.0041390066
41	0xbbf9834d	-0.007614529
42	0xbbed87a1	-0.0072488342
43	0x3c9a8fcb	0.018867394
44	0x3b42ca20	0.0029722527
45	0xbc30cd3c	-0.010791119
46	0x3b0ea8cc	0.0021768091
47	0x3b240c01	0.002503157
48	0xbb55606b	-0.003255869
49	0xbb8eda98	-0.0043595545
50	0xbb908cf4	-0.004411334
51	0x3ba8d21a	0.005151999
52	0xbc4783bd	-0.012177405
53	0xbb95bae4	-0.0045693982
54	0xbbf8b07b	-0.0075893975
55	0xbbf554ed	-0.0074869306
56	0x3c5bd46f	0.013417347
57	0x3c7e7035	0.015529682
58	0xbc2c8fe6	-0.010532355
59	0xbbceac8d	-0.0063071907
60	0xbc034197	-0.008011243
61	0xbc04ebcb	-0.008112858
62	0xbb85abe5	-0.0040793293
63	0xbc85f6ce	-0.016353037
64	0xbba7de10	-0.0051229075
65	0xbaa12192	-0.001229333
66	0xbb65ea1a	-0.0035082162
67	0xbbe13a76	-0.006873424
68	0xbc00ac4d	-0.00785358
69	0xbbede1df	-0.007259592
70	0xbc06be5b	-0.008224095
71	0xb9e02661	-0.00042753204
72	0x3b4b43d2	0.0031015766
73	0xb9a02000	-0.0003054142
74	0x3cb3053e	0.021853086
75	0xbc33fdbb	-0.010985787
76	0xbb9c3c32	-0.004767918
77	0xbc0ac31c	-0.008469369
78	0xba8ac19b	-0.0010586263
79	0x3a897066	0.0010485768
80	0xbc4d2cea	-0.012522915
81	0xbbffb83a	-0.007803944
82	0xbbb3cbf7	-0.005486961
83	0x3b52e9a9	0.003218273
84	0x3b3cdba0	0.002881743
85	0xbbcf7c6c	-0.006331971
86	0x3a3e7641	0.0007265546
87	0xbba22194	-0.0049478505
88	0x3b45f6a9	0.0030206835
89	0xbc23869a	-0.009980822
90	0xbafde348	-0.0019370103
91	0xbc9347ad	-0.017978514
92	0xbad7c8d6	-0.0016463052
93	0xbb0e23f4	-0.002168891
94	0xbbc7966d	-0.00609093
95	0x3b61d2c7	0.0034457908
96	0xbc964ea5	-0.018348048
97	0x3c6222ec	0.013802271
98	0xbc8a8373	-0.016908383
99	0xbc46d97d	-0.012136814
100	0xbc4aa5cb	-0.01236863
101	0x3be1a8d3	0.0068865805
102	0xbbc4ee37	-0.0060098427
103	0xbc1b35d4	-0.009473283
104	0xb9f5394e	-0.00046772737
105	0x3b87362d	0.0041263313
106	0x3d1ac91b	0.037789445
107	0xbb48f3b5	-0.0030662839
108	0xbab7ba56	-0.0014017324
109	0xb9cfdf1b	-0.00039648343
110	0xbb96a05e	-0.004596754
111	0x3b62932b	0.0034572582
112	0x3ac9796f	0.0015371273
113	0x3b7b9226	0.0038386672
114	0xbaf94637	-0.0019018118
115	0xbca74891	-0.020420345
116	0xbc212ff0	-0.009838089
117	0x3a89d593	0.0010515921
118	0xbbca2092	-0.0061684335
119	0x3bd41c0e	0.006473071
120	0xbbb7b0c7	-0.0056057903
121	0x3ac64cd1	0.0015129094
122	0xba85f299	-0.0010219394
123	0xbbd24960	-0.0064174384
124	0xba3c8fb5	-0.0007193045
125	0xbbf98b13	-0.007615456
126	0xbc79ef4e	-0.015254809
127	0xbba9a563	-0.0051771863

action_model._continuous_distribution.log_sigma f4 [1, 2]
0	0xbc42145f	-0.011845677
1	0x3d7458cc	0.059654996

action_model._continuous_distribution.mu.weight f4 [2, 128]
0	0xbcee198d	-0.029064918
1	0xbc7837f3	-0.015150058
2	0xbb865b21	-0.004100219
3	0x3aba0e2a	0.0014194895
4	0xbc6f8ff7	-0.014621726
5	0xbc6b76b2	-0.014371561
6	0x3a26c5ea	0.0006361889
7	0xbc0072bb	-0.007839854
8	0x3aada705	0.0013248628
9	0x3c4d647f	0.012536167
10	0x3caa329a	0.020776082
11	0x3d079c78	0.033108205
12	0x3bd16590	0.006390281
13	0x3c362b4e	0.011118723
14	0x3c8906c0	0.016726851
15	0xbc2fd04d	-0.010730815
16	0x3b1860ef	0.0023251136
17	0x3ca18660	0.019717395
18	0xbc255735	-0.010091593
19	0xbbd11d55	-0.0063816705
20	0xba991a85	-0.0011680877
21	0xbbcb062a	-0.006195803
22	0xbc3ca88e	-0.011514796
23	0xbbe46f9d	-0.006971313
24	0xbb9ff04e	-0.0048809415
25	0x3d191d9c	0.037381753
26	0xbcae90a3	-0.021309203
27	0x3ca78222	0.020447794
28	0x3b7b256e	0.003832187
29	0x3c15810c	0.009125005
30	0xbcb9bd23	-0.022673195
31	0x3cd5611a	0.026047278
32	0xbb3884d1	-0.0028155337
33	0x3cab78af	0.02093157
34	0xbccc9db8	-0.02497755
35	0xbadfb245	-0.0017066678
36	0xbcbfd4f5	-0.023416976
37	0x39b6893b	0.0003481599
38	0xbc8f755c	-0.017512016
39	0x3bb04e54	0.005380431
40	0x3cbdeffb	0.02318572
41	0xbb9c3bad	-0.004767856
42	0xba8bf18c	-0.0010676845
43	0xbbdc1e1e	-0.0067174574
44	0x3d015fdd	0.031585563
45	0x3c4c5a89	0.012472757
46	0xbacbe9a9	-0.0015557307
47	0xbcc74094	-0.024322785
48	0xbc1385a2	-0.0090040285
49	0xb9d824a8	-0.00041226042
50	0xba95b555	-0.0011421839
51	0xbccdf32e	-0.025140371
52	0x3bc74499	0.0060811755
53	0x3c5425bc	0.01294845
54	0x3c438649	0.011933872
55	0xbbd9a52c	-0.0066420045
56	0xbb3cd0ed	-0.0028811053
57	0x3d2dd873	0.04244275
58	0xbb26dae8	-0.0025460068
59	0x3c6cbbd5	0.0144490795
60	0xbc4403fb	-0.01196384
61	0xbcae5018	-0.021278426
62	0xbafb22de	-0.0019160172
63	0xbb087457	-0.0020821297
64	0x3c46950c	0.0121204965
65	0x3c3a3ec6	0.011367505
66	0x3c075b0b	0.008261452
67	0xbc9170d9	-0.017754005
68	0xba65f91e	-0.0008772778
69	0xbcb9deca	-0.022689242
70	0xb9afd245	-0.00033535264
71	0x3cb22058	0.021743938
72	0xbbedfd17	-0.0072628367
73	0x3bd9a415	0.0066418746
74	0xbb9db684	-0.0048130173
75	0xbcb6a4f4	-0.022295453
76	0x3b5c4d3a	0.0033615367
77	0xbcc3802f	-0.023864834
78	0x3c55e83b	0.013055856
79	0x3bec3a9d	0.0072091357
80	0x3ba7833f	0.0051120813
81	0xbb2df661	-0.0026544558
82	0xbc118d62	-0.008883806
83	0x3c3eb960	0.0116408765
84	0x3b6d4e0a	0.0036209845
85	0x3bdb963f	0.0067012603
86	0xbc3b09f9	-0.011415952
87	0xbc87f5d7	-0.016596718
88	0xbc04c6d9	-0.00810405
89	0xba1bf8bf	-0.0005949847
90	0x3b9f1921	0.0048552905
91	0xbd01156d	-0.031514574
92	0xbc7bfa9f	-0.015379577
93	0x3bb4047a	0.0054936977
94	0x3c7457ae	0.014913483
95	0x3ba369db	0.004986984
96	0x3be66e40	0.007032186
97	0xbcd7bbbf	-0.026334642
98	0xbb65d4b0	-0.0035069399
99	0x3abad440	0.0014253929
100	0xbac5c0ef	-0.0015087406
101	0xbc4604c3	-0.012086096
102	0x3be96380	0.007122457
103	0x3c2fee19	0.010737919
104	0x3cac4b4b	0.021031996
105	0xbccba777	-0.024860127
106	0xbc0a68b7	-0.0084478175
107	0x3bb87935	0.0056296834
108	0xbccef43c	-0.025262944
109	0xbbc95871	-0.0061445762
110	0x3bdce362	0.0067409733
111	0x3c1ea287	0.009682304
112	0x3ca34614	0.019930877
113	0xb989ec56	-0.0002630676
114	0x3c928e53	0.017890131
115	0xbb3ddf66	-0.0028972267
116	0x3b47eb87	0.0030505375
117	0x3cb17dc6	0.021666419
118	0xbb4fdb28	-0.003171632
119	0x3c73ab85	0.014872436
120	0x3b463f35	0.0030250077
121	0xbc8e5a64	-0.017377086
122	0xbc7eeaa0	-0.015558869
123	0x3a9ea7bf	0.0012104436
124	0x3cb2e8c2	0.021839503
125	0xbd054d56	-0.032544456
126	0xbc50d0a0	-0.012745053
127	0xbb48a975	-0.0030618582
128	0x3c8f8471	0.017519208
129	0x3d6ea4fb	0.058262806
130	0x3c9745b3	0.018465852
131	0xba2f5a80	-0.0006689206
132	0xbbd5f517	-0.006529461
133	0x3aef59ac	0.0018260977
134	0x3c28f716	0.010312816
135	0x3b19d618	0.0023473557
136	0x3c3577ef	0.011075958
137	0x3b997d33	0.0046841144
138	0x3b73fe8a	0.0037230575
139	0x3c8c0d4e	0.017096188
140	0xbaf19e9c	-0.001843411
141	0x3a07a536	0.00051744597
142	0x3c627ea9	0.013824143
143	0xbc5fa565	-0.013650273
144	0xbba7c740	-0.005120188
145	0xbc913c66	-0.017728996
146	0xbc545d4e	-0.012961699
147	0x3c0e16e8	0.008672453
148	0xbc3fd7b3	-0.011709142
149	0xba3d4cf6	-0.0007221246
150	0x3b6a27ed	0.0035729364
151	0x3c970b1e	0.018437918
152	0xbb97b4b1	-0.0046296944
153	0xbb6a7164	-0.0035773152
154	0xbab3ea5c	-0.0013726461
155	0xbc44b9ff	-0.012007236
156	0x3d2cb1ac	0.04216163
157	0x3d47c077	0.048767533
158	0xbca4ac0f	-0.020101575
159	0xbc611f04	-0.013740305
160	0xbbba423d	-0.0056841657
161	0x3bd98a71	0.006638818
162	0x3d3ad6a1	0.045614842
163	0x3cb62228	0.022233084
164	0x3bae995a	0.0053283395
165	0xbc26670e	-0.010156406
166	0x3c5c47b6	0.013444832
167	0x3b06ffe2	0.0020599295
168	0xbcd73898	-0.026272103
169	0xbabcc315	-0.0014401401
170	0x3ca6a327	0.020341469
171	0x3d6a5418	0.057209104
172	0xbd10a576	-0.035314046
173	0xbbee1a7e	-0.0072663417
174	0x3cd5fd71	0.026121827
175	0xbbda23df	-0.006657108
176	0x3bc8855e	0.006119414
177	0x3d2e74dc	0.042591915
178	0x3b645744	0.0034842053
179	0xbc77c325	-0.01512221
180	0x3cd73b44	0.026273377
181	0xbd0e8364	-0.034793273
182	0x3be3f6b4	0.0069568995
183	0xbaee0ac6	-0.001816117
184	0x3d55c870	0.052193105
185	0xbc02d46f	-0.007985218
186	0x3c5d00bd	0.013488946
187	0x3d1ad5bd	0.037801493
188	0x3bbdd168	0.0057927854
189	0x3cb4043f	0.021974681
190	0xbc841ad5	-0.016126076
191	0x3bd0febc	0.006378023
192	0x3caa6101	0.020798208
193	0xbc699bf2	-0.014258372
194	0x3a6cd00b	0.00090336864
195	0x3c611b19	0.013739371
196	0x3ca6638c	0.02031114
197	0xbd523980	-0.051324368
198	0x3b96f4db	0.0046068258
199	0xbc9d39cc	-0.019192599
200	0xbcc49bd4	-0.024000086
201	0x3c9ff2d5	0.019524971
202	0xbd099e4e	-0.033598237
203	0x3c19c7c8	0.0093860105
204	0xbc6e0208	-0.0145268515
205	0xbbc21f02	-0.0059241066
206	0x3b9b8e50	0.0047471896
207	0x3d81212d	0.06305156
208	0x3c304e44	0.0107608475
209	0xbbd4b6ac	-0.0064915027
210	0xbc8de5dc	-0.01732152
211	0xbc99ebd4	-0.01878921
212	0x3d3139d5	0.043268044
213	0x3bdd2e50	0.0067499056
214	0x3cc5d0b9	0.024147378
215	0x3cf0d05b	0.029396227
216	0xbcd87fab	-0.026428064
217	0xbc352842	-0.0110569615
218	0x3cc89c9c	0.02448874
219	0xbc2301d3	-0.009949165
220	0x3d2509e7	0.040292647
221	0xbc14d6dc	-0.00908443
222	0x3a64d7bf	0.00087296584
223	0xbc2c4e43	-0.010516706
224	0xbc151118	-0.009098314
225	0x3d9032af	0.07040917
226	0x3b330667	0.0027317049
227	0x3be2ea0e	0.006924874
228	0x3c36e0ec	0.011162024
229	0x3d499f1b	0.049224
230	0x3c9ee856	0.019397896
231	0x3d15cb7d	0.036571015
232	0xbcad2a82	-0.021138433
233	0x3c960591	0.018313201
234	0x3d70e003	0.058807384
235	0x3c0800fa	0.008301014
236	0xbb7bdbcc	-0.003843057
237	0x3cb768b3	0.022388792
238	0x3a6861f8	0.0008864696
239	0x3d79d07d	0.060989846
240	0x3cd19439	0.025583373
241	0xbcc89638	-0.024485692
242	0xbb846d7b	-0.0040413714
243	0x3ae85e1e	0.0017728244
244	0x3c40faa4	0.011778507
245	0x3befadb1	0.007314407
246	0x3bd2b530	0.0064302906
247	0x3d6a9774	0.057273343
248	0xbc29daa5	-0.01036707
249	0xbbd400f0	-0.0064698383
250	0x3c47975d	0.012182084
251	0x3c997958	0.018734619
252	0x3cf27d3c	0.029600732
253	0x3c71e598	0.014764212
254	0xba85a465	-0.0010196088
255	0x3d3fdc6d	0.046841074

action_model._continuous_distribution.mu.bias f4 [2]
0	0x3b77d8e5	0.0037818488
1	0xbb0133af	-0.0019714644

action_model._discrete_distribution.branches.0.weight f4 [1, 128]
0	0xbbbaa5c1	-0.005696029
1	0x3b218e03	0.0024651296
2	0xb9c50e4b	-0.00037585417
3	0x3a4e2ea5	0.0007865227
4	0x3c1e8a2d	0.009676498
5	0x3b29666e	0.0025848406
6	0xbbdf283f	-0.0068102176
7	0x3bf0ee08	0.0073525943
8	0x3c5c3717	0.013440869
9	0xba7d543b	-0.00096637354
10	0x3c8038fb	0.01565217
11	0x3b198a33	0.002342832
12	0xbbe4d06f	-0.006982855
13	0xbb536ce0	-0.003226094
14	0x3b076be2	0.0020663668
15	0xbbc2e2db	-0.0059474534
16	0x3b987d11	0.004653581
17	0x3a989e60	0.0011643879
18	0x3b9bb108	0.0047513284
19	0xbc7cc24d	-0.015427184
20	0x3c480be4	0.012209866
21	0xbae19788	-0.0017211298
22	0x3bb91933	0.005648756
23	0x3b2d2b0d	0.0026423365
24	0xbb10c1e5	-0.0022088226
25	0xbb88fcd1	-0.0041805287
26	0x3ae30778	0.0017320951
27	0xbb7a2383	-0.003816814
28	0x3b0a5518	0.0021107849
29	0x3c2418ff	0.010015725
30	0xbb90cbe4	-0.004418837
31	0xbba29935	-0.0049621114
32	0xbbe52755	-0.006993214
33	0xbac1631a	-0.0014754266
34	0xbb4533af	-0.003009062
35	0x38c98d67	9.610765e-05
36	0xb9ac0276	-0.0003280823
37	0xbb086cff	-0.002081692
38	0xbc015aa7	-0.007895148
39	0xb98a5707	-0.00026386252
40	0x3c50312d	0.012707037
41	0xbbc4b980	-0.0060035586
42	0x3c0b8d3d	0.008517561
43	0xbc540d0b	-0.012942563
44	0x3bdb0e25	0.006685036
45	0x3c33bb3a	0.010969931
46	0xbc584cd3	-0.01320191
47	0xbba52383	-0.0050396337
48	0xbb23b994	-0.002498244
49	0x3c34ad03	0.011027577
50	0xbb175a2b	-0.0023094516
51	0x3a5aa745	0.0008340965
52	0x3ba2fd93	0.004974076
53	0x396675d5	0.00021978405
54	0xbc485286	-0.012226706
55	0xbbe16875	-0.0068789073
56	0x3c956049	0.018234389
57	0xbc9180f2	-0.017761681
58	0xbc74221f	-0.014900713
59	0x3b6c817b	0.0036087919
60	0xbbeddac3	-0.0072587444
61	0xbc18ef23	-0.009334358
62	0x3b619515	0.0034421135
63	0x3c05b8f3	0.008161771
64	0xbbf4d197	-0.007471274
65	0xbb34319a	-0.0027495385
66	0x3b883ab7	0.00415739
67	0xbb687fd3	-0.003547658
68	0xbba78a0c	-0.005112892
69	0xbb0d548e	-0.002156529
70	0xbc1d686b	-0.009607415
71	0xbbfcfdf2	-0.0077207023
72	0x39899dd3	0.00026248264
73	0x3b9154f4	0.004435176
74	0xbc9dd6e7	-0.019267512
75	0xbc11de52	-0.008903103
76	0x3bbf632f	0.005840681
77	0x3bfa5907	0.0076400074
78	0xbc66f683	-0.014096859
79	0xbab12de8	-0.001351771
80	0x3b62235b	0.0034505937
81	0xbc386a4b	-0.011255811
82	0x3c8b0a65	0.01697273
83	0xbb9e7b85	-0.004836502
84	0x3b4e0f37	0.0031442174
85	0xba296161	-0.0006461349
86	0xbb062b9e	-0.0020472775
87	0xbc4fa3ef	-0.012673362
88	0xbc085ed0	-0.008323386
89	0x3b852466	0.004063177
90	0xbc0e8967	-0.008699751
91	0x3ad7b96d	0.001645846
92	0x3b9c5ff1	0.0047721793
93	0xbc2a53d3	-0.010395962
94	0x3b0507bc	0.00202988
95	0x3c329130	0.010898873
96	0xbc3b76b0	-0.0114418715
97	0x3b997075	0.0046825954
98	0xbc22f764	-0.009946678
99	0xbbaa0408	-0.005188469
100	0x3c29d5b7	0.010365895
101	0xbb630732	-0.003464174
102	0xbc07e48f	-0.008294239
103	0xbbd4d13b	-0.006494669
104	0xbca8aed1	-0.020591171
105	0x3b6db8db	0.0036273513
106	0x3ca9b1a0	0.020714581
107	0x3b5ba45a	0.003351471
108	0xbacd0407	-0.0015641459
109	0xb92a5dd6	-0.0001624742
110	0x3b4e2a0f	0.0031458174
111	0xbc303deb	-0.01075695
112	0x3bc4fd97	0.0060116756
113	0xbc1749ef	-0.009233936
114	0xbbfc5925	-0.0077010565
115	0x391b903c	0.00014835683
116	0x3c14eae0	0.009089202
117	0xbc1c8d29	-0.00955514
118	0x3b166733	0.0022949695
119	0xbc34dd39	-0.011039072
120	0xbb682235	-0.003542078
121	0x3c6019d7	0.013678036
122	0xbc445b08	-0.011984594
123	0xbb041c31	-0.0020158405
124	0xbb79d07f	-0.0038118658
125	0x3b36329b	0.002780116
126	0x3c3fe964	0.0117133595
127	0xbb5f658a	-0.0034087622
