Assets/52_2.onnx (onnx, 130006 bytes, 8 tensors)

network_body._body_endoder.seq_layers.0.weight f4 [128, 107]
0.11202892 -0.04455411 -0.02211039 0.15031984 0.03804044 0.0934938 -0.10102355 0.06821201
-0.020187695 0.067442656 -0.056628484 -0.07584885 0.18460202 -0.071039684 -5.2626743e-05 0.15363863
0.08685325 0.10993027 -0.04401529 0.010829958 0.052652072 -0.055958938 0.045574136 -0.2074149
-0.13323607 0.030223647 -0.0065882993 -0.06340054 0.04445585 0.018926907 -0.030746799 -0.08864128
0.040212613 0.04453264 -0.015839135 0.033815023 -0.1485644 -0.027946506 -0.062685505 0.26615033
0.12012727 0.011215745 0.009392065 0.08535904 -0.12656748 -0.022721184 -0.11666899 -0.14357354
0.028991794 0.028970947 -0.016477445 -0.0485403 0.22039664 -0.0043013464 0.081292 -0.22568798
0.020942934 0.31145316 0.1607365 0.104339674 -0.077925205 0.02826577 0.22902927 -0.030295093
-0.08719852 0.19966882 0.28140038 0.053310264 -0.21785352 0.10954462 0.0108859 -0.051327236
-0.05238865 -0.0802222 0.010094023 -0.013351527 -0.12059482 -0.0066370247 0.01395704 -0.10156908
0.037636217 0.058231704 -0.00865959 -0.10158674 0.031021822 -0.04887726 0.07880553 -0.052452173
0.1710262 -0.10220859 0.02816684 -0.02359842 -0.1385855 -0.045292 -0.034994487 -0.10979048
0.030752975 -0.1373881 -0.13437518 0.065525286 -0.26994056 -0.08562237 0.13598609 0.014394876
-0.03203356 0.07998188 -0.021185482 -0.060115434 0.11630907 0.017802194 -0.020439265 -0.09344742
-0.18307987 0.26812747 0.017902946 -0.05003673 -0.011827397 -0.024139773 -0.11006272 0.043448314
0.10448888 -0.1323974 -0.015531064 -0.087824784 -0.10876342 -0.03321066 -0.077378355 0.11629832
-0.009972324 0.053467326 -0.03622428 0.088114284 -0.00041606385 0.023346668 0.08406821 0.040588003
0.021381324 -0.008013809 -0.012413499 0.13485672 -0.15116474 -0.02065348 0.22450809 -0.07309425
0.03246983 0.08729983 0.020916024 -0.11485942 -0.13166498 -0.018564455 -0.045136232 -0.14299935
0.13610369 -0.10795256 -0.07296666 -0.15388556 -0.031791277 0.06208769 0.13788378 -0.046202157
0.016930828 -0.11661427 0.022459006 -0.019063398 -0.06662241 0.14310639 -0.09082661 0.007174116
-0.015125771 -0.019809917 -0.055141866 0.16811255 0.081059664 -0.08645071 -0.041950624 0.013755606
-0.040621866 0.09555936 0.07103111 -0.06315117 -0.022204213 -0.05787639 0.07420734 -0.09009489
0.1009058 -0.14077374 -0.14325683 0.15746638 0.119804725 -0.057769228 0.01285959 0.09575845
0.09315586 -0.076796666 0.042939946 0.06483426 -0.03144338 0.05954063 -0.13330832 0.053011473
0.07746582 -0.15502891 0.08006799 0.07495213 -0.105289735 -0.26456946 0.17439057 0.19133793
0.069031745 -0.051575337 0.032585934 -0.046312273 -0.020815479 0.08427759 -0.073119 -0.05489161
0.15579452 -0.020936958 0.07901449 -0.01861676 -0.10285557 0.10305371 -0.037403695 0.06813617
-0.077501476 0.008411762 -0.11505585 -0.0992551 -0.122704275 -0.08243953 0.040604696 0.16406022
0.11636441 -0.032075945 -0.08408274 0.0007258017 0.043386947 -0.09636232 -0.16809534 0.048197288
0.17176485 -0.0078799995 -0.033295732 0.05710919 0.03206177 -0.28370574 -0.043948155 -0.06384465
0.18104436 0.047684934 0.0061644795 -0.08090962 -0.006930871 -0.016797611 -0.022186242 0.102987766
00000000: 6b6f e53d 5f7e 36bd d920 b5bc 72ed 193e
00000010: 4bd0 1b3d ad79 bf3d 6fe5 cebd bdb2 8b3d
00000020: aa60 a5bc 601f 8a3d 45f3 67bd a456 9bbd
00000030: 5008 3d3e 417d 91bd 89bb 5cb8 7253 1d3e
00000040: 1ee0 b13d 1f23 e13d 6049 34bd 2370 313c
00000050: b3a9 573d 3335 65bd f2ab 3a3d 9264 54be
00000060: 096f 08be 9597 f73c a9e2 d7bb 24d8 81bd
00000070: 5617 363d 9a0c 9b3c b6e0 fbbc 8f89 b5bd
00000080: fbb5 243d dc67 363d 13c1 81bc 9f81 0a3d
00000090: 4421 18be 12f0 e4bc 4261 80bd db44 883e
000000a0: 4905 f63d 3ec2 373c 2de1 193c b8d0 ae3d
000000b0: e89a 01be c721 babc 27f0 eebd f104 13be
000000c0: 3380 ed3c 7b54 ed3c b5fb 86bc 32d2 46bd
000000d0: a8af 613e 4ff2 8cbb 6c7c a63d c01a 67be
000000e0: 8490 ab3c ca76 9f3e 1c98 243e 0ab0 d53d
000000f0: 4097 9fbd 9e8d e73c a686 6a3e 6a2d f8bc
00000100: 2395 b2bd fc75 4c3e b613 903e dd5b 5a3d
00000110: fe14 5fbe ee58 e03d c65a 323c 823c 52bd
00000120: 7b95 56bd 894b a4bd 6761 253c 5dc0 5abc
00000130: 6bfa f6bd 667b d9bb 12ac 643c 7303 d0bd
00000140: 6f28 1a3d 5e84 6e3d f4e0 0dbc b50c d0bd
00000150: 7a21 fe3c 8633 48bd cb64 a13d 17d8 56bd
00000160: 7e21 2f3e bd52 d1bd 25be e63c 7951 c1bc
00000170: 5be9 0dbe 1b84 39bd 6156 0fbd d5d9 e0bd
00000180: aaed fb3c 77af 0cbe a699 09be 1f32 863d
00000190: a635 8abe c85a afbd f03f 0b3e 7cd8 6b3c
000001a0: 9f35 03bd 8acd a33d 2d8d adbc 9a3b 76bd
000001b0: 7333 ee3d e8d5 913c 3f70 a7bc 5c61 bfbd
000001c0: 4a79 3bbe 0148 893e 33a9 923c 50f3 4cbd
000001d0: b3c7 41bc c6c0 c5bc 9068 e1bd dcf6 313d
000001e0: 44fe d53d 2f93 07be 0176 7ebc 7bdd b3bd
000001f0: 5bbf debd e707 08bd 8b78 9ebd d02d ee3d
00000200: f562 23bc 8e00 5b3d e95f 14bd 4375 b43d
00000210: 2523 dab9 8341 bf3c f42b ac3d 9b3f 263d
00000220: e327 af3c 5a4c 03bc fd61 4bbc e117 0a3e
00000230: eeca 1abe 7d31 a9bc 73e5 653e 70b2 95bd
00000240: 16ff 043d 41ca b23d 1558 ab3c 6a3b ebbd
00000250: 2fd3 06be 7c14 98bc c5e0 38bd 6c6e 12be
00000260: c45e 0b3e 3b16 ddbd 8b6f 95bd 2d94 1dbe
00000270: 9237 02bd a94f 7e3d 6831 0d3e 793e 3dbd
00000280: 85b2 8a3c 76d3 eebd f3fb b73c d82a 9cbc
00000290: 5571 88bd 7b8a 123e 4d03 babd d914 eb3b
000002a0: 15d2 77bc 6848 a2bc 70dc 61bd b225 2c3e
000002b0: 9c02 a63d 120d b1bd 6bd4 2bbd 315f 613c
000002c0: 1d63 26bd a0b4 c33d c278 913d 6755 81bd
000002d0: 9ce5 b5bc cb0f 6dbd 05fa 973d ab83 b8bd
000002e0: b3a7 ce3d fe26 10be ebb1 12be de3e 213e
000002f0: 2e5c f53d 6d9f 6cbd 08b1 523c 021d c43d
00000300: 80c8 be3d 9247 9dbd cce1 2f3d d3c7 843d
00000310: c6ca 00bd e0e0 733d fa81 08be 8f22 593d
00000320: 66a6 9e3d e6bf 1ebe b0fa a33d 8180 993d
00000330: 25a2 d7bd a675 87be 7193 323e 17ee 433e
00000340: 8460 8d3d a940 53bd d478 053d f0b1 3dbd
00000350: 3985 aabc bb99 ac3d 6abf 95bd 06d6 60bd
00000360: 9988 1f3e fc83 abbc 59d2 a13d 2d82 98bc
00000370: f1a5 d2bd d30d d33d 9e34 19bd fa8a 8b3d
00000380: 18b9 9ebd 7dd1 093c 67a2 ebbd 4246 cbbd
00000390: 614c fbbd 0ed6 a8bd 1c51 263d 67ff 273e
000003a0: 7750 ee3d 1162 03bd 9233 acbd ba43 3e3a
000003b0: 83b6 313d 9c59 c5bd 2f21 2cbe 856a 453d
000003c0: 20e3 2f3e 1d1b 01bc 1b61 08bd 53eb 693d
000003d0: 3453 033d e141 91be fb02 34bd fcc0 82bd
000003e0: b163 393e 4751 433d 67ff c93b f1b3 a5bd
000003f0: 5c1c e3bb 259b 89bc ecbf b5bc 40eb d23d

network_body._body_endoder.seq_layers.0.bias f4 [128]
9.9310266e-05 -0.0037995628 -0.025712017 -0.009812338 -0.008887859 -0.013679909 -0.011021712 9.833586e-05
0.012833767 0.021278692 -0.0029279352 -0.01725352 0.009013687 -0.010131765 -0.021328777 -0.019576706
-0.003104808 -0.0030775322 -0.0022133135 -0.008867646 -0.019197328 -0.032720357 0.003469792 -0.016785793
0.0016223632 -0.00016318381 0.007188474 0.010298796 5.1670624e-05 -0.008842978 -0.041546274 0.0048327437
-0.0005902473 0.02493651 -0.009914543 -0.0233573 -0.014611707 0.0079420535 -0.010936463 -0.010339144
-0.026904793 0.009743005 0.03503216 -0.017454227 -0.004952878 -0.028204583 -0.010436858 -0.009637736
-0.011226139 7.54935e-05 0.021687636 -0.01682999 -0.002860939 -0.0004128939 0.013628005 0.0019753228
-0.023213794 0.03542434 -0.00724273 0.017950632 -0.0077338265 -0.0038724327 0.0034856969 -0.030818406
-0.016227044 -1.2969332e-05 0.014960502 -0.020154977 0.019409258 0.0017173344 0.005023864 0.01953241
-0.017299037 -0.011567169 -0.019354759 -0.0056316974 -0.013047033 -0.0034491743 -0.043331236 -0.0021776927
-0.0090231905 -0.02805397 -0.023337474 0.00805539 -0.01321022 -0.0070117577 -0.02192163 0.0045385766
-0.004824574 -0.018255765 0.010687716 -0.012900185 0.010765653 -0.0025597508 0.035631083 0.014605601
0.00016624093 -0.018501893 0.0052806414 -0.010039082 -0.020653252 -0.015615042 -0.028259229 0.0058150063
0.028625032 -0.015866324 -0.01947791 -0.0018902518 -0.022204122 0.009223173 -0.009767889 -0.0058534103
-0.015090844 0.00027382272 -0.018919934 -0.017846249 -0.00033451588 -0.0044519464 -0.006681302 -0.020313364
-0.0026038876 -0.029162602 0.033321835 0.0006783084 -0.022425694 0.013188201 0.0024336013 -0.03367046
00000000: cb44 d038 1602 79bb 02a2 d2bc eec3 20bc
00000010: 629e 11bc b221 60bc 6994 34bc aa39 ce38
00000020: b844 523c a750 ae3c 9ae2 3fbb 4157 8dbc
00000030: 25ae 133c b4ff 25bc b0b9 aebc 545f a0bc
00000040: 097a 4bbb 6cb0 49bb 3d0d 11bb 9a49 11bc
00000050: b743 9dbc c805 06bd 7365 633b 5c82 89bc
00000060: 7aa5 d43a 521c 2bb9 4a8d eb3b 48bc 283c
00000070: e9b8 5838 23e2 10bc 6d2c 2abd fe5b 9e3b
00000080: d3ba 1aba a747 cc3c 9b70 22bc cf57 bfbc
00000090: f165 6fbc 631f 023c da2e 33bc 8365 29bc
000000a0: 7167 dcbc 20a1 1f3c e27d 0f3d 2bfc 8ebc
000000b0: c14b a2bb 4c0d e7bc 5bff 2abc 98e7 1dbc
000000c0: d7ed 37bc 4452 9e38 45aa b13c 0cdf 89bc
000000d0: 977e 3bbb ae79 d8b9 ff47 5f3c 6b74 013b
000000e0: db2a bebc 1d19 113d 6c54 edbb 340d 933c
000000f0: 0a6c fdbb a4c8 7dbb 4a70 643b e276 fcbc
00000100: 94ee 84bc db96 59b7 e51c 753c 0d1c a5bc
00000110: 2a00 9f3c 2e18 e13a 3a9f a43b 6f02 a03c
00000120: b6b6 8dbc 3984 3dbc df8d 9ebc 1a8a b8bb
00000130: 39c3 55bc 8b0b 62bb 187c 31bd 9fb7 0ebb
00000140: 01d6 13bc 70d1 e5bc 3b2e bfbc c1fa 033c
00000150: ae6f 58bc e3c2 e5bb fd94 b3bc 57b8 943b
00000160: 7617 9ebb 1d8d 95bc 881b 2f3c 4c5b 53bc
00000170: 6c62 303c 7ec1 27bb e6f1 113d 554c 6f3c
00000180: f650 2e39 4891 97bc 3b09 ad3b f67a 24bc
00000190: 0231 a9bc 3cd6 7fbc e67f e7bc cf8b be3b
000001a0: 0b7f ea3c 18fa 81bc 2390 9fbc 53c2 f7ba
000001b0: 6be5 b5bc cb1c 173c 7f09 20bc f7cd bfbb
000001c0: 963f 77bc dd8f 8f39 fafd 9abc 4c32 92bc
000001d0: f661 afb9 a2e1 91bb d3ee dabb 3668 a6bc
000001e0: fca5 2abb 69e6 eebc 7a7c 083d 82d0 313a
000001f0: 17b6 b7bc 5313 583c 0e7d 1f3b 09ea 09bd

network_body._body_endoder.seq_layers.2.weight f4 [128, 128]
0.0037353812 0.066816196 -0.28558487 -0.06348597 0.012604278 -0.038699888 -0.13012548 0.023672657
0.03792024 0.008633913 -0.08169907 -0.050131712 -0.16137677 -0.04436318 0.054144852 0.04096336
-0.16130899 0.12962353 -0.074742705 -0.16913235 0.19475675 -0.012628262 0.14785749 0.0151362
-0.07796784 -0.03724812 0.14233889 0.10514959 0.0455599 -0.058728106 -0.08566953 0.054410167
0.05005308 0.13580379 -0.050315373 0.043677405 0.1535374 0.04248084 -0.09970539 0.09197793
-0.20139976 0.026972191 0.067410044 -0.05140013 -0.022419503 0.014124273 0.07060724 0.03182846
-0.0319222 -0.023326734 0.23357777 -0.010705157 0.042883158 -0.001280668 -0.026828319 -0.10857633
0.08707431 0.19133502 0.090588115 0.12363366 -0.07106003 -0.21133596 0.04013435 0.06467128
-0.07806055 0.0816287 0.051027626 0.0076973615 0.2498906 -0.16350219 0.0035744323 -0.14353862
0.1773387 0.030395366 0.18089834 0.01732072 -0.015538554 -0.0137658045 -0.04835142 -0.040782604
-0.013656767 -0.05728044 0.04251402 -0.11142283 -0.03635714 -0.019366544 -0.06953163 -0.0229726
0.020071408 -0.038348936 0.028357264 0.02811673 -0.041630875 0.0335561 -0.13740553 0.110522725
-0.0053273938 0.07396601 0.03129064 0.09876062 0.12592769 -0.052697003 -0.00025946027 0.014943306
0.059911706 0.07010795 -0.05224329 0.07506324 -0.03408634 -0.17940594 0.10106425 0.03604802
-0.07286796 -0.010655875 0.09497462 -0.0980618 -0.021320734 0.061139204 -0.0252393 0.060113583
-0.033465948 0.018183831 0.19609869 0.008381339 0.024785534 -0.057599507 0.043307718 -0.120704405
0.021098493 0.14491785 0.023774015 -0.11576533 0.042462595 0.07621668 -0.038801473 0.115354404
0.1768573 -0.046398666 0.06745972 0.08382005 0.07198516 0.07695909 0.11119218 -0.012793954
0.101854146 -0.0009213144 -0.059068717 0.023651244 0.11195269 0.021791236 -0.21661896 -0.117277645
-0.08025999 0.09091812 0.06495565 0.054013327 -0.15308045 0.044759125 0.0958852 0.060904536
0.07702202 -0.17213011 0.05403721 -0.17222181 -0.0002424375 0.001666981 0.11272816 0.11284851
-0.0782682 0.17104386 0.09734552 -0.09515736 -0.07851701 0.06174208 -0.09163124 0.14031196
-0.0362294 -0.08947522 0.091879286 0.05748094 -0.0341904 -0.089614674 0.08690497 0.008574669
-0.07764662 -0.062252175 0.02515192 -0.15296975 0.13147879 -0.07176463 -0.13417481 -0.05599025
-0.12359961 -0.13585089 -0.11883317 0.0040844227 0.077403575 0.0953838 0.12637965 -0.012146765
-0.082871966 0.024164693 0.07307604 -0.024937052 0.08521109 0.07063418 0.020122135 -0.057222635
-0.060585707 -0.086937495 -0.049086813 0.07042628 -0.028424932 0.0006146192 -0.026340991 0.18798274
0.009627923 -0.029485174 -0.06924929 0.014282529 -0.27605578 -0.013706234 -0.102852166 0.12194332
-0.04138233 0.015437876 0.07522064 0.11730221 -0.07652208 -0.124258265 0.0942607 -0.049508587
-0.008181604 0.023022315 0.04508452 0.07109095 0.18050778 -0.057069626 -0.11969873 -0.09336163
-0.019454509 0.005399169 -0.023940783 -0.062013347 0.05632172 -0.13663977 -0.10144801 0.041648638
0.056303747 0.073982164 0.02781076 0.19670606 0.12880781 -0.03125901 -0.04069172 -0.121229306
00000000: 4ccd 743b eed6 883d 2e38 92be ef04 82bd
00000010: 2c82 4e3c c683 1ebd 9d3f 05be 29ed c13c
00000020: 4152 1b3d 4175 0d3c d851 a7bd e956 4dbd
00000030: f43f 25be 2ab6 35bd fec6 5d3d 32c9 273d
00000040: 2f2e 25be 08bc 043e b412 99bd 0831 2dbe
00000050: 506e 473e c5e6 4ebc f467 173e d3fd 773c
00000060: 9aad 9fbd 7c91 18bd 49c1 113e ab58 d73d
00000070: 059d 3a3d e28c 70bd 8273 afbd 32dd 5e3d
00000080: 7504 4d3d 2610 0b3e 7e17 4ebd 14e7 323d
00000090: e838 1d3e 6400 2e3d 5732 ccbd ed5e bc3d
000000a0: bd3b 4ebe c9f4 dc3c 470e 8a3d f188 52bd
000000b0: 1ba9 b7bc 7f69 673c 879a 903d 8f5e 023d
000000c0: dac0 02bd b517 bfbc 032f 6f3e af64 2fbc
000000d0: 40a6 2f3d 16dc a7ba 10c7 dbbc 445d debd
000000e0: 0454 b23d 54ed 433e 4386 b93d a533 fd3d
000000f0: ec87 91bd 7468 58be eb63 243d 6072 843d
00000100: 36de 9fbd f32c a73d 5802 513d 263a fc3b
00000110: 52e3 7f3e 1e6d 27be 0641 6a3b cafb 12be
00000120: 4798 353e b4ff f83c 6a3d 393e 2fe4 8d3c
00000130: 6b95 7ebc f889 61bc 230c 46bd a90b 27bd
00000140: a2c0 5fbc e59e 6abd 2e23 2e3d a731 e4bd
00000150: 39eb 14bd 96a6 9ebc 9966 8ebd 0931 bcbc
00000160: cb6c a43c c613 1dbd 7e4d e83c 0e55 e63c
00000170: 2385 2abd 1f72 093d 09b4 0cbe bd59 e23d
00000180: 6b91 aebb 7e7b 973d 9d2a 003d 0243 ca3d
00000190: 30f3 003e d0d8 57bd 2b08 88b9 c5d4 743c
000001a0: fa65 753d c294 8f3d 0ffd 55bd c2ba 993d
000001b0: 1e9e 0bbd 31b6 37be c6fa ce3d 17a7 133d
000001c0: cc3b 95bd fb95 2ebc 0e82 c23d a0d4 c8bd
000001d0: d2a8 aebc 1a6d 7a3d a6c2 cebc a939 763d
000001e0: 9713 09bd 42f6 943c 18ce 483e e251 093c
000001f0: 080b cb3c 76ed 6bbd 6f63 313d df33 f7bd
00000200: bfd6 ac3c 5865 143e b9c1 c23c 6016 edbd
00000210: 42ed 2d3d 7e17 9c3d 4bee 1ebd ee3e ec3d
00000220: 141a 353e 870c 3ebd 5228 8a3d d9a9 ab3d
00000230: f56c 933d ba9c 9d3d bab8 e33d bc9d 51bc
00000240: e898 d03d 5d84 71ba 0af2 71bd 41c0 c13c
00000250: 7447 e53d 8983 b23c 5cd1 5dbe 432f f0bd
00000260: 5a5f a4bd 4833 ba3d 7807 853d 143d 5d3d
00000270: 1fc1 1cbe 5855 373d 765f c43d 0977 793d
00000280: b9bd 9d3d e042 30be 1f56 5d3d ea5a 30be
00000290: d236 7eb9 9a7e da3a 06de e63d 1f1d e73d
000002a0: 144b a0bd 1f26 2f3e 175d c73d dde1 c2bd
000002b0: 87cd a0bd 43e5 7c3d 29a9 bbbd f0ad 0f3e
000002c0: 4865 14bd c93e b7bd 352b bc3d 2271 6b3d
000002d0: 3c0b 0cbd e687 b7bd 3cfb b13d c57c 0c3c
000002e0: 3105 9fbd 23fc 7ebd 660b ce3c 1aa4 1cbe
000002f0: 60a2 063e 56f9 92bd 1f65 09be 0856 65bd
00000300: cb21 fdbd 7f1c 0bbe ce5e f3bd 9fd6 853b
00000310: c485 9e3d 9558 c33d ab69 013e 3a03 47bc
00000320: c7b8 a9bd 09f5 c53c e4a8 953d ca48 ccbc
00000330: 2783 ae3d a7a8 903d 2dd7 a43c 4862 6abd
00000340: b828 78bd 490c b2bd 410f 49bd a73b 903d
00000350: 67db e8bc 651e 213a 10c9 d7bc 8c7e 403e
00000360: 70be 1d3c e48a f1bc 92d2 8dbd 4501 6a3c
00000370: 2f57 8dbe 1d90 60bc 28a4 d2bd 6bbd f93d
00000380: 8580 29bd 25ef 7c3c 470d 9a3d 243c f03d
00000390: 9cb7 9cbd 1e7b febd c10b c13d 84c9 4abd
000003a0: 220c 06bc 4b99 bc3c 8caa 383d 2298 913d
000003b0: 08d7 383e d7c1 69bd 9c24 f5bd 6234 bfbd
000003c0: 105f 9fbc 83eb b03b 761f c4bc b501 7ebd
000003d0: 9bb1 663d 4ceb 0bbe f9c3 cfbd c397 2a3d
000003e0: c29e 663d f683 973d 64d3 e33c 506d 493e
000003f0: 32e6 033e 7309 00bd 5cac 26bd 1247 f8bd

network_body._body_endoder.seq_layers.2.bias f4 [128]
-0.00036054 0.009530116 0.0002503565 -0.026857406 0.0020198852 -0.0075879907 0.018242257 -0.0040144282
-0.01960241 -0.01231535 -0.012901785 -0.019087788 0.017286107 -0.011857227 -0.01938991 -0.013245905
-0.020722056 0.00939045 0.023427265 -0.0065888613 -0.007784975 -0.013878497 -0.019363964 0.016239937
-0.024306843 0.0008521156 -0.005189232 -0.014219269 -0.0071178074 0.0006404414 -0.001411652 0.0010366408
-0.022525944 -0.029954996 -0.015314253 -0.011009117 -0.004388163 -0.012854783 -0.012090724 -0.019017683
-0.0017202826 -0.0065305424 -0.02119632 0.015582725 -0.0010708455 -0.01750492 0.024915488 -0.0065466613
0.0012384686 -0.0064527113 -0.009380309 0.011009065 -0.01737579 0.0031539937 -0.020820478 0.010787155
0.01062028 0.0026603683 -0.014250073 -0.019569848 -0.0042223427 -0.005085724 -0.004417637 -0.008431873
-0.024860363 -0.012984457 -0.020681627 5.1412822e-05 -0.015744802 -0.015266598 -0.024284745 0.009659141
0.008567136 -0.016455406 0.027636148 0.0019417338 -0.006949171 0.024528686 0.002226254 -0.0028392926
0.017657854 -0.0034250554 -0.0072795707 0.0028835547 -0.0047697737 -0.014768139 -0.0034200882 0.031883717
0.0066833794 -0.0120222 -0.007245481 0.023270613 0.0027429273 -0.00061306584 -0.015046981 -0.0048208092
0.0058145854 0.014011435 -0.01603427 -0.018048644 -0.028161041 0.0055601965 -0.0179115 -0.008022721
-0.0014006664 0.041377205 0.04100824 -0.012955666 0.014045238 -0.00920048 -0.017308837 -0.0115829585
-0.00044705265 -0.0017425651 -0.014277477 -0.006308795 -0.008851897 -0.016319297 -0.014834615 -0.0037678392
-0.018593157 0.007831815 0.019716764 -0.017855803 -0.017498026 0.01582551 -0.013276343 -0.009464883
00000000: dc06 bdb9 3424 1c3c 4842 8339 1004 dcbc
00000010: 0d60 043b aea4 f8bb c970 953c 778b 83bb
00000020: 3c95 a0bc 52c6 49bc 0262 53bc fe5d 9cbc
00000030: 989b 8d3c d144 42bc 97d7 9ebc 5a05 59bc
00000040: 4dc1 a9bc 67da 193c 89ea bf3c 60e7 d7bb
00000050: 1b19 ffbb a362 63bc 2da1 9ebc 9e09 853c
00000060: 251f c7bc 8360 5f3a 6f0a aabb f0f7 68bc
00000070: 7f3c e9bb 4be3 273a 2e07 b9ba e5df 873a
00000080: 5488 b8bc 2e64 f5bc a2e8 7abc 955f 34bc
00000090: 94ca 8fbb de9c 52bc 2c18 46bc f9ca 9bbc
000000a0: 1b7b e1ba 29fe d5bb e8a3 adbc b04e 7f3c
000000b0: 9d5b 8cba 7a66 8fbc 911b cc3c 6085 d6bb
000000c0: 1c54 a23a 4471 d3bb deaf 19bc 5e5f 343c
000000d0: ac57 8ebc 3cb3 4e3b b58f aabc 9bbc 303c
000000e0: af00 2e3c 9359 2e3b 2379 69bc f250 a0bc
000000f0: 945b 8abb 25a6 a6bb d3c1 90bb d725 0abc
00000100: f6a7 cbbc c3bc 54bc 846c a9bc 19a4 5738
00000110: 3efb 80bc c120 7abc cdf0 c6bc 6041 1e3c
00000120: 2c5d 0c3c 7dcd 86bc 3465 e23c c681 fe3a
00000130: dfb5 e3bb 62f0 c83c 58e6 113b 6d13 3abb
00000140: 34a7 903c e576 60bb 7789 eebb 05fa 3c3b
00000150: c34b 9cbb 11f6 71bc 8f23 60bb 8098 023d
00000160: 4000 db3b c3f8 44bc 806b edbb 03a2 be3c
00000170: afc2 333b 27b6 20ba 9d87 76bc e1f7 9dbb
00000180: 4788 be3b 3890 653c 4d5a 83bc c0da 93bc
00000190: fcb1 e6bc 4f32 b63b 23bb 92bc bb71 03bc
000001a0: 9196 b7ba 257b 293d 42f8 273d 0044 54bc
000001b0: ff1d 663c 9cbd 16bc 43cb 8dbc 73c6 3dbc
000001c0: 6462 eab9 c866 e4ba 14ec 69bc 02ba cebb
000001d0: 8c07 11bc 0cb0 85bc e30c 73bc daed 76bb
000001e0: ad50 98bc 0351 003c 0d85 a13c 5546 92bc
000001f0: 0558 8fbc 80a4 813c 0585 59bc 9912 1bbc

action_model._continuous_distribution.log_sigma f4 [1, 2]
0.0050150687 0.08540088
00000000: 7255 a43b a8e6 ae3d

action_model._continuous_distribution.mu.weight f4 [2, 128]
-0.0233055 -0.0063129235 -0.013101328 -0.0045056343 -0.015615635 -0.0065709883 0.020016966 0.014357778
0.0034472214 0.0074325055 0.009687423 0.046966087 0.02752315 0.036775116 0.019970264 0.025189033
0.011121611 0.009860063 -0.021557922 -0.004348791 0.032001995 -0.003391666 -0.00941478 -0.01634331
0.01871009 0.044297125 -0.019429183 0.019535184 0.034956757 0.022262622 -0.019195039 0.011379919
0.0054192743 0.026049215 -0.00064090756 -0.022018356 -0.013520942 0.0026888463 -0.008983016 0.0057842243
0.012826188 -0.00085063744 0.0022516637 -0.008211693 0.045298904 0.018581001 0.003473419 -0.015530897
-0.010565837 -0.0071567493 0.034473766 -0.031080412 0.035171304 0.0035582152 0.015986312 -0.023036674
-0.017336033 0.05989408 0.005792997 0.030920962 -0.014951196 -0.011073642 0.004131822 0.03500261
0.010281504 0.013725883 0.01134672 -0.01730359 -0.0025292258 -0.0038420425 0.0034513848 0.044975307
-0.011895145 0.031417556 -0.0013171005 0.00053933007 -0.0028103301 -0.050574835 0.022916444 0.0122883255
0.02569558 0.00026374878 -0.00094581564 0.023859788 0.0024768878 0.006488441 -0.0070311413 -0.017639466
-0.010854593 0.027987046 0.014185239 -0.047781095 0.011164486 -0.008209606 0.024483278 0.031766564
0.04953056 -0.025150932 -0.0034451538 0.00016645594 0.007594458 -0.00812178 0.020257873 -0.0077389465
0.02366649 -0.06972442 -0.008887772 0.004172891 -0.045730587 0.0034149615 0.0079377275 0.025192503
0.036222715 0.0016415716 0.011432629 -0.010606725 0.015856152 0.015093541 0.010800369 0.043327782
0.006199165 -0.02309247 -0.019453663 0.004209944 0.020370178 -0.06782183 -0.011613368 0.0018590615
0.010758222 0.06574795 0.01768139 -0.011734605 -0.024782108 0.011801707 0.023601228 0.014804949
0.0012336705 0.008286463 -0.008519365 0.019106101 0.017655235 -0.043475047 0.0026642014 -0.0034455445
-0.0022983004 -0.03496151 -0.02150948 0.006315653 -0.002656259 -0.0035767683 -0.0045445114 0.018618038
0.008848417 -0.007668763 -0.010862114 -0.00402444 0.03535128 0.055774316 -0.025014674 -0.032378968
-0.0017455424 0.010755535 0.045942005 0.03565461 0.010505571 -0.0032912365 0.019097969 0.0019227372
-0.058489706 -0.0030249632 0.013250474 0.053262215 -0.040596224 -0.008576879 0.056325134 0.0006242792
0.002803149 0.050598465 0.015445313 -0.014063132 0.050307907 -0.057453096 -0.0012085642 -0.0037292645
0.052920822 -0.012401708 0.0135264965 0.035173006 -0.004366937 0.032614462 -0.02006659 0.028962383
0.012356528 -0.017962355 -0.002360903 0.030488666 0.009279618 -0.052712206 0.0026716464 -0.013891169
-0.022197045 0.024920667 -0.045557633 0.029095385 -0.007715733 -0.0027653284 0.027247235 0.059505593
0.03110325 -0.02246179 -0.014227007 -0.028569886 0.037763875 0.003271321 0.018651398 0.074070625
-0.04799268 -0.004933295 0.026026255 0.0427075 0.057137936 -0.0009546503 -0.015084014 -0.003377842
0.0044009974 0.07434891 0.00029963805 0.010098046 0.0035031983 0.096568465 0.01929486 0.051593393
-0.037921015 0.020979496 0.068878844 0.013639848 -0.0019666355 0.030051824 0.003231154 0.088245705
0.0393076 -0.014045777 -0.006932925 0.0035371494 0.015116084 -0.00568507 0.013570439 0.04507513
-0.0091272555 0.00087411376 0.029775977 0.015388282 0.020401025 0.04278535 -0.00827376 0.040275566
00000000: 2deb bebc a4dc cebb f4a6 56bc 00a4 93bb
00000010: b8d8 7fbc 7251 d7bb 9ffa a33c e33c 6b3c
00000020: c7ea 613b 608c f33b ffb7 1e3c 835f 403d
00000030: 3b78 e13c 81a1 163d ae98 a33c 3b59 ce3c
00000040: 6b37 363c 1a8c 213c 3d9a b0bc 4e80 8ebb
00000050: 8614 033d b746 5ebb 7340 1abc 68e2 85bc
00000060: e745 993c e770 353d f329 9fbc 4008 a03c
00000070: d12e 0f3d 1a60 b63c ea3e 9dbc d772 3a3c
00000080: 2b94 b13b 2a65 d53c 9402 28ba d75f b4bc
00000090: f186 5dbc 5b37 303b 802d 13bc 9789 bd3b
000000a0: ee24 523c 50fd 5eba a690 133b 568a 06bc
000000b0: 588b 393d 2f37 983c 4da2 633b 4e75 7ebc
000000c0: 551c 2dbc 2a83 eabb 5d34 0d3d 599c febc
000000d0: c90f 103d f230 693b baf5 823c 68b7 bcbc
000000e0: 4c04 8ebc 7f53 753d 2ed3 bd3b f54d fd3c
000000f0: dcf5 74bc 396e 35bc 3c64 873b e65e 0f3d
00000100: c173 283c 87e2 603c 98e7 393c 42c0 8dbc
00000110: 5ec1 25bb c7ca 7bbb a130 623b 0738 383d
00000120: dbe3 42bc b2af 003d 8fa2 acba d461 0d3a
00000130: 842d 38bb 8f27 4fbd 44bb bb3c f954 493c
00000140: 897f d23c c347 8a39 9df0 77ba 9a75 c33c
00000150: 4853 223b fd9c d43b 7d65 e6bb a480 90bc
00000160: 76d7 31bc 1745 e53c 3469 683c 1cb6 43bd
00000170: 40eb 363c 9581 06bc 2891 c83c a81d 023d
00000180: 8ee0 4a3d 5409 cebc 17c8 61bb ad8a 2e39
00000190: eeda f83b 3711 05bc d7f3 a53c fd96 fdbb
000001a0: 3ae0 c13c adcb 8ebd 059e 11bc bfbc 883b
000001b0: ff4f 3bbd 8ccd 5f3b 3e0d 023c 8260 ce3c
000001c0: 455e 143d 012a d73a ec4f 3b3c d4c7 2dbc
000001d0: c3e4 813c e64a 773c 08f4 303c 7978 313d
000001e0: 5d22 cb3b 6b2c bdbc 4a5d 9fbc 92f3 893b
000001f0: 5cdf a63c 2ce6 8abd ff45 3ebc c1ab f33a
00000200: 4143 303c dca6 863d 90d8 903c 8042 40bc
00000210: d903 cbbc f25b 413c 5d57 c13c 7590 723c
00000220: 1db3 a13a f2c3 073c cf94 0bbc 6684 9c3c
00000230: b6a1 903c e412 32bd e299 2e3b a5ce 61bb
00000240: 159f 16bb cd33 0fbd a634 b0bc 8af3 ce3b
00000250: a214 2ebb 3768 6abb 20ea 94bb db84 983c
00000260: f3f8 103c 3f4a fbbb 02f7 31bc 73df 83bb
00000270: 81cc 103d 9c73 643d 93eb ccbc cf9f 04bd
00000280: afca e4ba fc37 303c af2d 3c3d 910a 123d
00000290: 8f1f 2c3c c9b1 57bb 5873 9c3c 5b04 fc3a
000002a0: e792 6fbd 763e 46bb 8418 593c 7b29 5a3d
000002b0: 3a48 26bd 0a86 0cbc 2fb5 663d aba6 233a
000002c0: 09b5 373b 5640 4f3d 570e 7d3c 0d69 66bc
000002d0: aa0f 4e3d f053 6bbd af68 9eba ad66 74bb
000002e0: 81c3 583d 8930 4bbc 3d9e 5d3c 9211 103d
000002f0: 8618 8fbb be96 053d b062 a4bc 8542 ed3c
00000300: 0973 4a3c ca25 93bc 61b9 1abb 5ec3 f93c
00000310: 8a09 183c c1e8 57bd ca16 2f3b c997 63bc
00000320: 94d6 b5bc 6d26 cc3c a49a 3abd 7259 ee3c
00000330: 42d4 fcbb 833a 35bb 9835 df3c 23bc 733d
00000340: 3ecc fe3c ca01 b8bc 6418 69bc 650b eabc
00000350: 4bae 1a3d a963 563b d1ca 983c 57b2 973d
00000360: f993 44bd 7aa7 a1bb 0335 d53c 0fee 2e3d
00000370: 7809 6a3d 7f41 7aba f122 77bc c95e 5dbb
00000380: 3e36 903b 3e44 983d bd18 9d39 4672 253c
00000390: ea95 653b b0c5 c53d 4110 9e3c 9853 533d
000003a0: 1153 1bbd 31dd ab3c 5a10 8d3d ab79 5f3c
000003b0: abe2 00bb 3e2f f63c c5c1 533b 2aba b43d
000003c0: 0201 213d 4220 66bc 972d e3bb 85cf 673b
000003d0: 74a9 773c d349 babb 8c56 5e3c b3a0 383d
000003e0: 7c8a 15bc c824 653a c0ec f33c 221f 7c3c
000003f0: 0d20 a73c b13f 2f3d aa8e 07bc fef7 243d

action_model._continuous_distribution.mu.bias f4 [2]
-0.0065442184 -0.010549912
00000000: e270 d6bb 8ad9 2cbc

action_model._discrete_distribution.branches.0.weight f4 [1, 128]
-0.005696029 0.0024651296 -0.00037585417 0.0007865227 0.009676498 0.0025848406 -0.0068102176 0.0073525943
0.013440869 -0.00096637354 0.01565217 0.002342832 -0.006982855 -0.003226094 0.0020663668 -0.0059474534
0.004653581 0.0011643879 0.0047513284 -0.015427184 0.012209866 -0.0017211298 0.005648756 0.0026423365
-0.0022088226 -0.0041805287 0.0017320951 -0.003816814 0.0021107849 0.010015725 -0.004418837 -0.0049621114
-0.006993214 -0.0014754266 -0.003009062 9.610765e-05 -0.0003280823 -0.002081692 -0.007895148 -0.00026386252
0.012707037 -0.0060035586 0.008517561 -0.012942563 0.006685036 0.010969931 -0.01320191 -0.0050396337
-0.002498244 0.011027577 -0.0023094516 0.0008340965 0.004974076 0.00021978405 -0.012226706 -0.0068789073
0.018234389 -0.017761681 -0.014900713 0.0036087919 -0.0072587444 -0.009334358 0.0034421135 0.008161771
-0.007471274 -0.0027495385 0.00415739 -0.003547658 -0.005112892 -0.002156529 -0.009607415 -0.0077207023
0.00026248264 0.004435176 -0.019267512 -0.008903103 0.005840681 0.0076400074 -0.014096859 -0.001351771
0.0034505937 -0.011255811 0.01697273 -0.004836502 0.0031442174 -0.0006461349 -0.0020472775 -0.012673362
-0.008323386 0.004063177 -0.008699751 0.001645846 0.0047721793 -0.010395962 0.00202988 0.010898873
-0.0114418715 0.0046825954 -0.009946678 -0.005188469 0.010365895 -0.003464174 -0.008294239 -0.006494669
-0.020591171 0.0036273513 0.020714581 0.003351471 -0.0015641459 -0.0001624742 0.0031458174 -0.01075695
0.0060116756 -0.009233936 -0.0077010565 0.00014835683 0.009089202 -0.00955514 0.0022949695 -0.011039072
-0.003542078 0.013678036 -0.011984594 -0.0020158405 -0.0038118658 0.002780116 0.0117133595 -0.0034087622
00000000: c1a5 babb 038e 213b 4b0e c5b9 a52e 4e3a
00000010: 2d8a 1e3c 6e66 293b 3f28 dfbb 08ee f03b
00000020: 1737 5c3c 3b54 7dba fb38 803c 338a 193b
00000030: 6fd0 e4bb e06c 53bb e26b 073b dbe2 c2bb
00000040: 117d 983b 609e 983a 08b1 9b3b 4dc2 7cbc
00000050: e40b 483c 8897 e1ba 3319 b93b 0d2b 2d3b
00000060: e5c1 10bb d1fc 88bb 7807 e33a 8323 7abb
00000070: 1855 0a3b ff18 243c e4cb 90bb 3599 a2bb
00000080: 5527 e5bb 1a63 c1ba af33 45bb 678d c938
00000090: 7602 acb9 ff6c 08bb a75a 01bc 0757 8ab9
000000a0: 2d31 503c 80b9 c4bb 3d8d 0b3c 0b0d 54bc
000000b0: 250e db3b 3abb 333c d34c 58bc 8323 a5bb
000000c0: 94b9 23bb 03ad 343c 2b5a 17bb 45a7 5a3a
000000d0: 93fd a23b d575 6639 8652 48bc 7568 e1bb
000000e0: 4960 953c f280 91bc 1f22 74bc 7b81 6c3b
000000f0: c3da edbb 23ef 18bc 1595 613b f3b8 053c
00000100: 97d1 f4bb 9a31 34bb b73a 883b d37f 68bb
00000110: 0c8a a7bb 8e54 0dbb 6b68 1dbc f2fd fcbb
00000120: d39d 8939 f454 913b e7d6 9dbc 52de 11bc
00000130: 2f63 bf3b 0759 fa3b 83f6 66bc e82d b1ba
00000140: 5b23 623b 4b6a 38bc 650a 8b3c 857b 9ebb
00000150: 370f 4e3b 6161 29ba 9e2b 06bb efa3 4fbc
00000160: d05e 08bc 6624 853b 6789 0ebc 6db9 d73a
00000170: f15f 9c3b d353 2abc bc07 053b 3091 323c
00000180: b076 3bbc 7570 993b 64f7 22bc 0804 aabb
00000190: b7d5 293c 3207 63bb 8fe4 07bc 3bd1 d4bb
000001a0: d1ae a8bc dbb8 6d3b a0b1 a93c 5aa4 5b3b
000001b0: 0704 cdba d65d 2ab9 0f2a 4e3b eb3d 30bc
000001c0: 97fd c43b ef49 17bc 2559 fcbb 3c90 1b39
000001d0: e0ea 143c 298d 1cbc 3367 163b 39dd 34bc
000001e0: 3522 68bb d719 603c 085b 44bc 311c 04bb
000001f0: 7fd0 79bb 9b32 363b 64e9 3f3c 8a65 5fbb
