Assets/53_1.onnx (onnx, 648067 bytes, 10 tensors)

network_body._body_endoder.seq_layers.0.weight f4 [256, 107]
00000000: 093b 0c3e cac4 83bd 61dd 8d3d c257 c5be
00000010: fc7d a2bd 70c8 6abe 9ddc 843e a260 9ebe
00000020: a6b7 d9bd 34c5 c0bd 767f 88be 608e 08bf
00000030: 0464 52bd d133 3ebe 9a7e 8d3e 9d88 87be
00000040: cf78 78bd 0693 4ebd c739 b0be 95b5 d6be
00000050: f364 d93c 4bcc ae3c 6b51 eebe b9ac d8bd
00000060: 84f5 44bd 9fbd edbd 5819 cd3e f004 16bf
00000070: ad37 783b 0978 f4bd 462f 053f 6983 1c3e
00000080: 4d86 e2bb a2be 08be 6276 c3be c3a8 0dbf
00000090: 80e5 3b3d 7386 01be c16b beb9 3f36 0c3e
000000a0: 40dd 47be f3fb 003d c50a e7be 0f64 03bf
000000b0: 64f0 6cbd e50e a4bc ff36 38be c355 e83d
000000c0: 883b 483e 5664 22bd a84d 033d a6ec 08bf
000000d0: 47dc 21be e4a1 e6bc 8c14 eb3d 1679 b23e
000000e0: 7b61 d1bb 62d0 b0be e24a 85bd f93c 23bf
000000f0: 03ca 393e 0af4 0bbe 9a77 123e c828 3e3e
00000100: 3fff 27bc d691 02be a9b1 c1be 9122 febe
00000110: 2748 b5bd 0707 ccbe 939a 43bc 672a c0bb
00000120: 40aa 963d 7a40 053d 99de 2dbd 61ab 90be
00000130: a6d3 58bd 5772 adbe 09eb b13e 748c 723e
00000140: 9e52 b4bd 3681 12be d6e3 8e3e 709b 02be
00000150: 4c0a c2bd 7dbc a2bb f55d d23e 8c06 303e
00000160: 88a3 9bbd d6ad 223e 82dd 873e 668f a93d
00000170: 92b1 d5bd f8ba 0bbe 47cd b3bc 87e0 3abd
00000180: 5614 c4bd 9f57 8abc 48dc 6b3e 6e7b 3f3d
00000190: 0a74 6fbe 719d 013e 071b 8ebd ab2e b8bd
000001a0: 032f 34be b2e6 65be 95c7 813d 711c debd
000001b0: c2ad 64bd b413 f7be 8507 9e3e 98bf 81bd
000001c0: 3b65 a5be 9509 22bf e70a cc3e 16a3 3c3c
000001d0: 65a3 6dbd e50f 8abe 5644 5b3e 6186 833c
000001e0: 1e3d 583d 05aa 99bd 428d 3d3e 5bca 693d
000001f0: 2053 9ebd 5e03 923e abe7 663e 172a b53d
00000200: 78db 013e 76b3 87be 5398 273e 7172 6f3e
00000210: 9a40 e9be 92b8 f03d 9492 ccbb c3ba 3e3d
00000220: eff3 293e c5a5 d93d 637e 703e 78bc 913d
00000230: 0897 20be 350e 7ebf 4b3b 2dbe 0b88 ca3d
00000240: 502a b83d 61f7 56be 754c 0f3b 7769 053e
00000250: 27ed f9bd 427a 4bbe 68cc a03d caad 3bbc
00000260: 8ae2 83be 9876 173f 33b8 8ebe 5299 a13c
00000270: ec7f 14be 8d15 e1be 4714 a03d d922 753d
00000280: f7ea f43e 64b4 0abf 0f19 8bbe 9b64 293e
00000290: e472 77be a824 7bbe 4573 fb3d 79e0 463e
000002a0: deff 5f3e 73be 5c3c e4a6 09bc f109 f4bd
000002b0: d4dd 51be 81ea bd3e 0fe4 1bbe 1a5a 35be
000002c0: 9477 9bbe ce3e 62bb 3318 90be 047e 9b3d
000002d0: 6026 3a3e 2b0a ecbc 1fb2 1b3d 2963 9cbd
000002e0: 5b2f 8e3e bdbb 5dbe 63cb e4bd f66d 95bd
000002f0: 846e c93d f59c d1be d294 9f3d 5bf3 5eb9
00000300: afd6 cd3d 19bd ccbe 3ed4 06bd c0e0 65bd
00000310: 30b5 2e3b a2bb e63e 0822 a2bb a77e 1abe
00000320: 7706 2fbb 3747 823e 4e56 8fbe d2d7 2a3d
00000330: cb45 28be 8d46 083e b21b b1bd 2a3f 87bd
00000340: 1d27 8d3e f75c 9cbf 424d 663e 73b6 cbbc
00000350: 73a2 08bf 7767 94bd 712c 15be 47b3 94be
00000360: 1230 75be 0c1c 17be c2ff b5bd 6c47 3d3e
00000370: d111 b03d 49c7 ff3c f5c8 bbbd 371c 2cbe
00000380: b924 78be 9156 f33c 36e7 eb3c 64e1 ee3e
00000390: 2669 863e 5eee 683e aa6c c6bd 2ca4 7a3d
000003a0: c510 fc3e ffa0 0a3e 83a7 a1bd 4185 213e
000003b0: 7f7b 8ebd 1832 4d3e ea2b 903d c210 313e
000003c0: fe8f f9bd 1a6e 98bc ca8e 94bd c563 893d
000003d0: f0c9 1cbe 39b3 213e c287 46be c118 be3d
000003e0: 4c74 78be b21a fabd c17a ed3d 49bc ec3d
000003f0: fe8f 0ebe b2ea 7f3c bb86 b43c 32ed d53c
0.13694395 -0.06434019 0.0692699 -0.38543516 -0.07934186 -0.22928023 0.25949565 -0.309331
-0.10630731 -0.094126135 -0.26659745 -0.53342247 -0.051364914 -0.18574454 0.27635652 -0.26471415
-0.060662087 -0.05043318 -0.3441908 -0.4193541 0.026537394 0.021337649 -0.46546492 -0.10579819
-0.048085704 -0.11608433 0.40058398 -0.58601284 0.0037874982 -0.119369574 0.5202526 0.15284504
-0.0069129826 -0.1335397 -0.38176256 -0.55335635 0.045873165 -0.12648945 -0.00036319907 0.13692568
-0.19517994 0.031490277 -0.45125404 -0.5132455 -0.057846442 -0.020026634 -0.1798973 0.11344483
0.1955396 -0.03964647 0.03205648 -0.53486097 -0.15806685 -0.028153367 0.114785284 0.34858006
-0.0063897944 -0.34533983 -0.065084234 -0.6376491 0.18143468 -0.13667312 0.14303437 0.18570244
-0.0102537265 -0.12750944 -0.37830856 -0.49635747 -0.088516526 -0.3984911 -0.011938709 -0.0058644298
0.07356691 0.032532193 -0.042448614 -0.28255752 -0.05293622 -0.33876297 0.3474963 0.23686391
-0.088048205 -0.14307103 0.279082 -0.12754607 -0.0947462 -0.004966317 0.4108731 0.17189997
-0.075995505 0.15886626 0.26536185 0.08279304 -0.104342595 -0.13645542 -0.02194847 -0.045624282
-0.09574191 -0.016887484 0.2303325 0.04674857 -0.23384109 0.12657715 -0.06938749 -0.08993276
-0.17596059 -0.22451285 0.063368954 -0.108452685 -0.05582977 -0.4825722 0.30865112 -0.06335372
-0.32303795 -0.6329587 0.39852068 0.011513492 -0.058017153 -0.26965252 0.21412787 0.016055288
0.05279266 -0.07503132 0.18510917 0.057077747 -0.077306986 0.28518194 0.22549312 0.088459186
0.12681377 -0.26504105 0.16366701 0.233835 -0.455571 0.11753954 -0.0062430594 0.04656483
0.1659696 0.10627321 0.23485713 0.07116026 -0.15682614 -0.9924043 -0.1691715 0.098892294
0.089924455 -0.20992805 0.002186564 0.13028513 -0.12203436 -0.19870856 0.078514874 -0.011455009
-0.25758773 0.59165335 -0.27874908 0.01972643 -0.14501923 -0.43961754 0.078163676 0.059847686
0.47835514 -0.54181504 -0.27167556 0.16542284 -0.24164921 -0.24525702 0.12277845 0.19421567
0.2187495 0.013473141 -0.008401606 -0.11915959 -0.20494777 0.37092975 -0.15223716 -0.17710152
-0.30364668 -0.0034522298 -0.28143463 0.07592395 0.18178701 -0.028813442 0.038011666 -0.07636101
0.27770504 -0.21653648 -0.111716054 -0.07296364 0.09835532 -0.4094006 0.07792057 -0.00021262227
0.10050713 -0.3998802 -0.032917254 -0.05612254 0.002665829 0.45065027 -0.0049479045 -0.15087377
-0.0026706734 0.25444958 -0.27995533 0.04170973 -0.16432874 0.13308163 -0.086478606 -0.066038445
0.27568904 -1.2215871 0.22490409 -0.024867272 -0.5337288 -0.07246297 -0.14567734 -0.29043028
-0.23944119 -0.14756793 -0.088866726 0.18484277 0.08597148 0.031222956 -0.09169189 -0.16807638
-0.24232759 0.029704364 0.028796773 0.46656334 0.26252097 0.2274718 -0.09688695 0.061191723
0.49231544 0.13537978 -0.078932784 0.15773489 -0.06957149 0.2003864 0.07039626 0.17291549
-0.121856675 -0.018607188 -0.07253797 0.06708483 -0.15311408 0.15791024 -0.19387725 0.09282065
-0.24263114 -0.12212123 0.11595679 0.1155935 -0.13922116 0.015619921 0.0220369 0.02611408

network_body._body_endoder.seq_layers.0.bias f4 [256]
00000000: 3ab8 05be 5e96 48bd 5b0a d23c ee48 0dbd
00000010: c98c 2aba f0c6 6fbd 97f8 b73c 2f22 a13c
00000020: 49ab c0bd ab59 19bd e395 8dbd 4381 7fbd
00000030: ef15 90bd ea5d 8ebd 210d 52bd 8ddb 2abe
00000040: 6aae 73bd 4d45 9ebd c8b0 caba 7528 6bbd
00000050: 5460 1abd fc66 5abd c587 bebc a365 a9bc
00000060: 88d9 a63d 8a38 413b f296 0dbc 37fb bbbb
00000070: db1e 67bd e257 8abd 4363 25bd fe64 7bbd
00000080: 7a7f 0ebd b6c5 6e3d e869 043e dbb7 bf3d
00000090: be3e f5bd f04b 36bd d749 8abd ff03 13ba
000000a0: 3f02 88bd 96a9 19bd bd3c 8abd 5fd3 d9bd
000000b0: 3e33 093d c2dd 00bd 8fa1 0cbd b5bd 2f3d
000000c0: 01d2 1a3e da5f 77bc 5801 3d3e 0270 423d
000000d0: 5264 fdbd 0c26 4dbe 92df 8abd dab0 c2bc
000000e0: 148c 9bbc 832a d83c 690b 8abe 8763 5cbc
000000f0: e36d 45bd ec5f 73bd edd3 9bbd 71f7 7ebe
00000100: 6fd9 933c d55d 383e 13d0 9f3b efdf efbd
00000110: 77b0 d13c 5a6f 4c3d b6db 87bd 3984 ebbc
00000120: e86e bf3c de4f 6cbd d8c8 d73d 6458 71bd
00000130: 7c3a 1d3d 49c2 be3d 5e49 97bd b1e1 82bd
00000140: 4041 49bd 6859 783d 2679 acbb 6d44 8cbd
00000150: db84 7dbd ea51 313c dd8c c13d 12ef 18bd
00000160: 9f28 613d bfef 843d 3e22 b8bd 91e1 20bd
00000170: f4e0 94bd 3949 903c 079e ea3a b469 67bd
00000180: 7835 8cbd 3e6a fdbc 6967 89bd 4360 f8bd
00000190: 8453 0b3d 153a aa3d 3c04 e33c 686c e33d
000001a0: f5f6 d2bc 42bb d5bd 95ad b2bd 5731 fe3b
000001b0: 94af b63d 7d80 39bd a23c 96bd b103 18bd
000001c0: 52a6 f73c 2664 b5bd 587b d1bc ba88 92bd
000001d0: a80a 113d ac52 8fbd 6be2 35be 223e 883d
000001e0: 5b35 9ebd afee 11bd e4b1 2dbd efa7 a6bd
000001f0: da3f 32bd 70f3 773b 4e74 73bd b923 9f3d
00000200: 9cec c3bd 377b 833d 8d23 00be 1f82 25be
00000210: 3580 99bd c219 b23c e18f 22be a78d cabd
00000220: 606c dd3c f144 1abe d684 16bd bc2d 563d
00000230: 8664 5f3d 9a4f b13c 1919 67bd afe3 76bb
00000240: 67ed 5dbd c319 ffbd b9d5 83bd 8887 47bd
00000250: 072f e4bb ec4a dabd b073 abbd c475 c0bb
00000260: a1b2 62bd f25a 793b 3144 fd3c a330 b6bd
00000270: 8427 d5bd 2b47 20bd d7aa aa3d 44e3 6bbd
00000280: 6eeb 573b 5d6b 01be 8b37 843c d53b 5b3c
00000290: 0483 d4bb 1ca4 c2bd 5de6 883d 74f9 1fbd
000002a0: c963 03bd 8f55 aebd b995 61bd 3b7a 2dbe
000002b0: cf20 bebb 529a 97bd 34be dcbc f4d6 d9bd
000002c0: 8285 1abe fb24 4f3d 0be6 5abd e3d1 f33b
000002d0: 0cf5 58bc 2241 983d df10 ddbd 8104 313d
000002e0: d3b5 aebb 75ef 9cbd cb13 a43b 9292 47be
000002f0: 5f37 44bd 9443 ccbd f620 fbbd 70e6 e9bd
00000300: eb06 92bd 2eb1 8e3d 3e0a 30bd ab5d eebd
00000310: 6e22 47bc f1f0 0a3d b71f 0d3d 126c 6abd
00000320: 9678 2bbb 1fb2 babd 7b0e fdbd 7ea3 fb3c
00000330: 2847 c6bd e2d3 e8bd 44e3 a0bd 663c afbc
00000340: a476 0abe 54cc 58bd d037 1d3d 9bc0 e4bd
00000350: 39a7 eabd c44b 94bd a7df 02be 0b85 78bd
00000360: bef3 40bd 729b 443b 6a24 06bd a0da b4bc
00000370: 7753 c8bc 3df2 ac3d e9bf 33be 630a 1bbe
00000380: 2a14 febd db52 0cbe 406e 34be 1cfa d9ba
00000390: 66e7 8abd 8f61 e7bd 4121 f7bc c72c 5e3b
000003a0: 5e4e ebbd 95dd b4bd 0ad1 f3bd e7d7 8fbd
000003b0: df9c 41bd 6e4c 933d eaab 373d 4bf2 24bc
000003c0: e8be aebd a715 00be 0330 16bd c277 3bbd
000003d0: 4974 cbbd f853 a33d e3d7 01be c77a f93b
000003e0: 4880 e4bd 76e9 93bd 51e2 83bc c9fe 24be
000003f0: 943f 61bd 0b4d 1fbe 925a c03c 436d 223d
-0.13058558 -0.048971526 0.025639703 -0.03449338 -0.0006505964 -0.05853933 0.022457404 0.01966962
-0.0940767 -0.03743903 -0.06913354 -0.062379133 -0.070354335 -0.069515064 -0.051282052 -0.16685314
-0.059492506 -0.07728062 -0.0015464062 -0.05741163 -0.037689522 -0.05332087 -0.0232581 -0.020678347
0.081469595 0.0029483163 -0.008641945 -0.0057367343 -0.05642591 -0.067550436 -0.040377866 -0.06137561
-0.03478954 0.05829402 0.12931025 0.093612395 -0.11974858 -0.044506013 -0.06752365 -0.00056082004
-0.066410534 -0.037515245 -0.06749866 -0.10636019 0.033496134 -0.031461485 -0.03433376 0.042905528
0.15119173 -0.015098536 0.18457544 0.0474701 -0.1237265 -0.20034045 -0.06780924 -0.02376597
-0.018987693 0.026387459 -0.2696183 -0.013451464 -0.0482005 -0.05941765 -0.07608781 -0.24899079
0.018048016 0.18004544 0.0048770993 -0.11712634 0.02559684 0.04991088 -0.066337034 -0.028749572
0.023368314 -0.057693355 0.10536355 -0.058922186 0.038385853 0.09314401 -0.073870406 -0.063907035
-0.049134493 0.06063214 -0.0052634655 -0.06848989 -0.06189428 0.0108227525 0.09450696 -0.03733737
0.05497038 0.064910404 -0.08990906 -0.039277617 -0.07269469 0.01761304 0.0017899879 -0.05649729
-0.06846136 -0.03093445 -0.06709177 -0.121277355 0.034015194 0.083118595 0.02771198 0.11104661
-0.025752524 -0.10436107 -0.087245144 0.0077573466 0.089202076 -0.04528855 -0.073357835 -0.037112895
0.030230675 -0.088569924 -0.02557151 -0.07154985 0.035410553 -0.0699819 -0.17762153 0.06652476
-0.077250205 -0.035628017 -0.042405978 -0.081374995 -0.043517925 0.003783431 -0.05943709 0.077704854
-0.09566614 0.06419986 -0.12513562 -0.16162919 -0.07495157 0.021740798 -0.15875198 -0.09890299
0.027029216 -0.15065362 -0.036747776 0.05228971 0.054539226 0.021644402 -0.05642042 -0.003767233
-0.054181483 -0.124560855 -0.06437249 -0.048713237 -0.006963614 -0.106588215 -0.08371675 -0.0058734138
-0.055346135 0.0038048592 0.030916305 -0.088959955 -0.10407928 -0.03913037 0.08333366 -0.057589784
0.0032946724 -0.12638612 0.016139766 0.013380964 -0.006485345 -0.09503958 0.06684563 -0.039056256
-0.032077584 -0.08512413 -0.055074427 -0.16941158 -0.005802251 -0.07402481 -0.026946165 -0.10636702
-0.15089992 0.050572377 -0.053442042 0.007440792 -0.0132420175 0.07434298 -0.107942335 0.043217186
-0.0053317337 -0.0766286 0.0050072423 -0.19489506 -0.04790437 -0.09973827 -0.12262146 -0.114209056
-0.07130226 0.06967388 -0.042978518 -0.116389595 -0.012154205 0.033921186 0.034454074 -0.05723197
-0.0026164404 -0.09116005 -0.123562776 0.030717608 -0.09681541 -0.113685384 -0.078558475 -0.021391105
-0.1352182 -0.052929237 0.038383305 -0.11169549 -0.114576764 -0.07241014 -0.12780629 -0.060673755
-0.04710745 0.002999988 -0.03274957 -0.022076905 -0.024453862 0.08444641 -0.17553677 -0.15140681
-0.1240619 -0.13703482 -0.17620182 -0.0016630325 -0.06782417 -0.11297905 -0.030167224 0.00339012
-0.11489557 -0.08831326 -0.119051054 -0.07023602 -0.047268745 0.07192312 0.044841684 -0.010067533
-0.08532506 -0.1250826 -0.03666688 -0.045768507 -0.09934289 0.07975 -0.1268001 0.007613513
-0.1115728 -0.072222635 -0.016099127 -0.16112818 -0.054992273 -0.15556733 0.023480687 0.03965498

network_body._body_endoder.seq_layers.2.weight f4 [256, 256]
00000000: 693f b1ba 6091 283d 8397 78bf a2be f3be
00000010: 4bb8 20be 2c54 ebbe aa13 d1be 57bc 843e
00000020: b484 82be dcf6 a33e d8f0 c9bd 2b02 0b3d
00000030: 3ecb 76be 5d48 b53d 7821 a5be f2b0 113e
00000040: 5c2a df3d 8bbb 9ebc aef2 a8be c05b 82be
00000050: 9c6d 81be 6d81 4e3e 9ab4 82bd 96bd b83d
00000060: a36b 07bf 520b 97be defc 24bc 2eca 0f3e
00000070: 7fa8 873d 1eb9 50bd 18c3 b63d 7c6d a8be
00000080: 0a10 60be 3184 06bf 1544 48bf a62a e0be
00000090: 4448 ba3e a9e3 9d3d 7478 bdbd e16f 40be
000000a0: 83cf 6c3e c605 00be aac6 a93e 2822 84bd
000000b0: af4d 2dbe 1e75 62be 2b5d fa3c f22f 623e
000000c0: 8058 e1bd e2a2 0e3e 9e99 0dbf 161b 493d
000000d0: 715f d3be 1446 28be 361e 6cbe 8623 31be
000000e0: 941b 833e 2ed8 a83d 5bb8 fc3d 56ad 4fbe
000000f0: 8017 95be b4cd 2b3e b0bb 49be 77d6 adbd
00000100: efe5 ab3d a6d5 88be 4fbb 84be bb3b cfbd
00000110: 185a 33be 60cc c33d e851 f3be 4ef7 4ebf
00000120: 7d23 abbd 946c 953d 8e5b 6bbe 109d eb3d
00000130: 63d6 423e 31b7 bf3e c519 58be 1f38 eabc
00000140: c876 5ebe be27 fa3d 53be 873c c17f 88bd
00000150: 07fb 013e 7f3f 093a 764b 4f3e 092f 04bd
00000160: 9529 df3e 33ca b33e dd68 00bf b53c a3bc
00000170: 9a75 493e 1a83 34bf b320 78bd 204d 6ebe
00000180: cfc5 5a3d 1eaa cbbd a05b e83e 89eb 7bbe
00000190: 8cd0 5ebe 5bef 7abe f002 903e d95e c23d
000001a0: 3d0c c63d ec53 1d3e e422 433d 06bc 5e3e
000001b0: 0c5b c3be fc72 a63e 043b 88be 35ee 093e
000001c0: 5114 aabd a456 16be 3ea8 b9be d7de 9fbc
000001d0: 401d 113e 4f5c dabd 35cd 07be 3c1b 80be
000001e0: 4d95 97be 2274 59be 2de2 363e c5ee 3e3d
000001f0: 091c 26bd 3e1c 01bd f689 d7be 71b0 b4be
00000200: 0328 3abe 3493 243e 9c1a 99be 79d3 a5be
00000210: 0808 353e 7ced 9bbe dc6a c83d db8c 463a
00000220: 63d6 28be 7b34 d83d c4d0 12bd c349 343d
00000230: 9ce2 e7be fb4d 123e 2e6e d0bd fbae 6a3e
00000240: b582 73be 1227 f1bd a0fd 75be 85c6 48be
00000250: a6bc c73d 26f2 31be 9428 efbe 7846 783d
00000260: 3c2f 37be ad25 fdbe 6ba8 8cbe c5b4 04be
00000270: d5eb ffba 3913 15be 1e8a 50bd 1935 32be
00000280: 6508 643d 2ef7 843d 7159 99be fc9c 93bd
00000290: e9b8 69be 3fba f13e 779c 013e 9fc1 10bd
000002a0: ca0f 5dbd 2628 b5be 92f1 1c3b 0045 033e
000002b0: 0899 883d 49c1 c2be d027 13be 816d ad3e
000002c0: 6f23 dd3e 49ac 033c 9764 3c3d 64be 40be
000002d0: d995 c13c 0ded 32bd 8307 573e fb8f 02be
000002e0: 8e73 253c bc7f 69bd d832 c93c d476 0abf
000002f0: c215 423e 7bc8 0a3e 4e2b d43d 5ce2 bcbd
00000300: d77d 4cbe 478f a3be 3cf1 27bf 47a7 afbe
00000310: 6c6b 50be 40af 03bd a7d9 c43d 1d59 d63e
00000320: ff65 06bf 205d f73e ad51 aebe 0c2f c23e
00000330: 623d 33be 7b5e ee3d afe5 a0bc bf5b 7fbe
00000340: 26f2 1f3e 51bd 52bd e594 b73d c245 e0bd
00000350: bab8 0e3e ddd3 ae3c 5afe 493e 025b 573b
00000360: 8723 26bf 6d23 97bc 282a db3c ac62 383e
00000370: b635 28bd 9761 ea3c 0975 90be 135b 3bbd
00000380: 4cf1 013e b01c 0abc 4be5 9bbe be84 453e
00000390: 91ec e53e 2d1e 21bb ab6a a33d a9d9 8cbe
000003a0: 68e6 9ebc 85cc 32bc 53c1 4cbe 6076 213e
000003b0: 9501 42bd 474a c0bd 462c c73c e89b 4dbe
000003c0: a4c0 c73d 7cde 42be 7f38 433d eead 32be
000003d0: e1b2 99bd 5395 2c3d 65ce 1c3d f300 0bbe
000003e0: c799 d5bd 292f 123c e04e d7bd 7eba 953c
000003f0: b89c a63e a283 e23e b182 0c3d 6008 7b3d
-0.0013522926 0.041154265 -0.9710619 -0.4760638 -0.15695302 -0.45962656 -0.40835315 0.25924942
-0.2549187 0.32024276 -0.098603904 0.033937614 -0.24100968 0.08851693 -0.32252097 0.14227656
0.10896751 -0.019376537 -0.3299765 -0.25460625 -0.25278938 0.2016656 -0.06382103 0.09020536
-0.52898616 -0.29500824 -0.010070054 0.14041969 0.06623935 -0.05095779 0.0892393 -0.3289603
-0.21881118 -0.5254546 -0.78228885 -0.43782538 0.3638326 0.07709438 -0.0925149 -0.18792678
0.23126034 -0.12502202 0.3315938 -0.06451827 -0.16924165 -0.22114989 0.030562004 0.22088602
-0.11003208 0.13929322 -0.55312526 0.049098097 -0.41283754 -0.16432983 -0.230584 -0.17298707
0.25606978 0.08244358 0.123398505 -0.20280966 -0.29119492 0.16777688 -0.19700503 -0.084881715
0.08393466 -0.267255 -0.25924155 -0.101188146 -0.17514837 0.09560466 -0.47523427 -0.80846107
-0.08356378 0.072961 -0.22984144 0.11504567 0.19027095 0.3744445 -0.2110358 -0.028591214
-0.21724999 0.122146115 0.016570246 -0.06664992 0.12693416 0.0005235597 0.2024363 -0.03227142
0.43586412 0.35115203 -0.5016001 -0.019926408 0.19673768 -0.70512545 -0.06057806 -0.23271608
0.0534113 -0.09944557 0.45382404 -0.24601568 -0.21759242 -0.2450537 0.2812724 0.09490747
0.09670303 0.15364045 0.047640696 0.21751413 -0.381554 0.325096 -0.26607525 0.13469775
-0.08304656 -0.14681488 -0.3626117 -0.019515438 0.14171314 -0.10662138 -0.13261874 -0.25020778
-0.29606095 -0.21235707 0.17859717 0.046614427 -0.04055408 -0.031521074 -0.42097443 -0.35290864
-0.18179326 0.16071779 -0.29903114 -0.32387903 0.17678845 -0.30454624 0.09786007 0.00075740897
-0.16488032 0.10556885 -0.035843626 0.044015657 -0.45290077 0.1428756 -0.10177265 0.22918312
-0.2378033 -0.1177503 -0.24022532 -0.19606979 0.09752779 -0.17377529 -0.46710646 0.06061408
-0.17889112 -0.49442807 -0.27472243 -0.12959583 -0.001952524 -0.14558114 -0.05091297 -0.17403068
0.05567207 0.06492458 -0.2995105 -0.07207677 -0.22824444 0.47212407 0.12657343 -0.0353409
-0.053970136 -0.35382193 0.0023947698 0.1281929 0.066698134 -0.3803809 -0.14370656 0.33872607
0.43191096 0.008036681 0.045994367 -0.18822628 0.023631023 -0.0436831 0.20998959 -0.12750237
0.010098351 -0.057006583 0.024560377 -0.5408757 0.18953612 0.1355304 0.10359822 -0.09222862
-0.19969879 -0.3194525 -0.6560247 -0.3430731 -0.20353478 -0.032149553 0.096118264 0.41864863
-0.52499384 0.48313236 -0.3404669 0.3792652 -0.17503884 0.116391145 -0.019640772 -0.24937342
0.15619716 -0.051450077 0.08963946 -0.10950805 0.13937655 0.021341259 0.19725934 0.0032860641
-0.6489796 -0.01844951 0.0267535 0.1800639 -0.041066848 0.028610988 -0.2821429 -0.045741152
0.12689704 -0.008429691 -0.30448374 0.19288918 0.44907048 -0.0024584637 0.0797933 -0.27509812
-0.019396976 -0.010913019 -0.19995622 0.15767813 -0.04736479 -0.09389167 0.024313103 -0.20079005
0.0975354 -0.19030184 0.0476613 -0.17449161 -0.075048216 0.042134594 0.03828277 -0.13574581
-0.10429721 0.008922377 -0.10513091 0.018277403 0.32541442 0.44241053 0.034304325 0.061287284

network_body._body_endoder.seq_layers.2.bias f4 [256]
00000000: ef44 2b3d e621 a9bd 297a 153d e7a4 91ba
00000010: 700f 923e 46f6 0b3c 9853 69bd 64e5 31be
00000020: 6b69 e53d 659c 99bb 8389 4b3b b5db 9a3d
00000030: 22c0 4d3e 6bed e03d 9351 983b ed9a 3ebd
00000040: 4c96 1abe 94ab 94be f1e7 823d 2638 513e
00000050: 2b46 22bd d119 5b3e ff5a 613b c9cb f23d
00000060: 9660 1fbd 43b0 6cbe 1b3c c73d 87d0 c8ba
00000070: ade6 1f3e 9f5c 74bd 18f2 823e 9377 dfbd
00000080: 7a89 1b3e 728a 3e3d 85cd 0ebe 3d72 8a3d
00000090: 6741 4b3e d4ad 1bbd dbcb 963d 4c76 83bd
000000a0: 36d3 403e 1fbd 6ebd aaca 9ebd aa81 f93d
000000b0: a1b1 083e c2ed f7bd df12 133d a82a dc3b
000000c0: e6b2 043e bb24 66bd 84e5 ad3d 1963 c3bd
000000d0: 183e ce3d dee6 413e 31a9 9d3d 8820 273d
000000e0: dec2 4ebe 1e6c 5a3e f388 233e ad30 963d
000000f0: 31e9 b63c fac9 943e 6a7a 74bd 6dda 163c
00000100: 2bc1 a3bc 5648 203e 01d8 8d3d 59bc b0bc
00000110: 53f5 533d 31be 7a3d e586 aebd f312 57bd
00000120: e7c3 21be 7e88 893c e04f c4bc 05db c73d
00000130: fc13 093e 97e9 703e 47af 673e a5f2 52be
00000140: 69c2 3a3e ce84 3f3e 5398 dabd fae0 c13d
00000150: 598c 9ebc 8fe4 5a3d 42ee b93c 439f 28be
00000160: eb83 f23d 1293 883a ed59 be3d 1b44 833b
00000170: 3196 c33d bdbc bebd b884 49bd 038e dfbc
00000180: 1dc3 a93d 2551 c33c 194d ba3d bd97 ffbd
00000190: a5a0 d1bd 4430 283e d5e9 11be cacc e63c
000001a0: 685f f33c e2cf e2bd de07 d0bb 1f51 bf3d
000001b0: abe5 143e 0457 b1bc 1a75 38bd 4bee af3d
000001c0: 237a 303e 41a9 2abd 1f37 273d c875 953c
000001d0: 36a5 6b3d df32 303e 9ae5 ae3d 08db 6cbd
000001e0: 957c 2e3e 808e 71bd 48ba 2ebe b303 3fbe
000001f0: 1e98 33bd b92b b33d fb4c c33d 023b fe3c
00000200: 23d6 ba3c 27fd da3d 689e f73d b71c 3b3e
00000210: 5bc9 573d eb86 9bbc dfed f03d 465d fd3d
00000220: 8fae 59be 681c b9bc 68d5 bbbd c8a7 cd3d
00000230: 20e2 763e faec c8bc 7bbd 083e 97e9 a93d
00000240: f8fd 3cbd 645f 3f3e 694c 153d 901c 143e
00000250: 7a86 943c 538c 213e 6761 b13d 24fb 1f3e
00000260: 9c94 8abd cda9 45be cc34 0f3d ac58 70bd
00000270: ff02 573e c214 8cbd 1e60 e33d b08f 9abd
00000280: 1831 863e 1413 f03d de03 b73d d118 513d
00000290: 58b5 9bbd f2bd 83bd f5cb 883d 368b 1d3e
000002a0: 5e98 a7bd 344b 55be 11eb d93d 35d8 34bd
000002b0: 2810 3d3e c8d0 cd3d 157e 2b3d b5bf b3bb
000002c0: cf5d a8bd 5ca8 a43d 553e 8a3c 0499 db3a
000002d0: 42c5 bb3d ce3f cf3b 8f0e 393c 69c4 ce3c
000002e0: 6087 683c 5d5c 04be a935 df3c d9ca 113e
000002f0: 2d8e 5dbd 86dd 37be 3f3c 7a3d 7302 a03d
00000300: 6906 39bd 0c5d 553d 3493 943d 14c6 3bbe
00000310: df43 21be 5248 523e ae51 2b3c b00a 983e
00000320: f337 b73d c4d8 9b3d 94f4 e3bc 463a 26be
00000330: c087 e73a 5827 00be 26f3 84bd e7b7 1fbc
00000340: e4f7 f1bd 98b0 2f3e ad9f 443d 22d3 c3bc
00000350: 428b 57bc c196 6dbe 4062 45bd 1509 b93d
00000360: ee73 e53d 232e 6c3c c126 01be 91c9 30bd
00000370: 8ec2 363e af61 76bd 3a2b 1d3e 97a8 a13d
00000380: fd33 e6bc 5781 0c3e 8a46 f63c 40a3 343c
00000390: b6fa 233e 9abb 2c3e 6da0 8b3d d1e3 203e
000003a0: 5931 fc3d 8117 b2bc 577f e63d 9f1d f53d
000003b0: 35ef 633e 7efe 493e 301f 05be 97a0 b33b
000003c0: 77a7 c53d 007c a6bd 68c6 823e 607f bb3d
000003d0: 1b4f 273d ec26 5fbe 7647 79be 83a5 3c3e
000003e0: 4a0f 8a3d d367 6d3d f56f 37bd e634 153e
000003f0: 154e 063d bcaa 913d 4a95 133e 8b20 74be
0.041813787 -0.08258419 0.036493454 -0.0011111767 0.28527403 0.008542603 -0.056964487 -0.17372662
0.112017475 -0.004687833 0.0031057305 0.07561437 0.20092824 0.10982784 0.0046483963 -0.046534467
-0.15096396 -0.29037154 0.063918956 0.20431575 -0.0396177 0.21396567 0.0034386513 0.11855275
-0.03891047 -0.23114114 0.09728261 -0.0015320935 0.1561534 -0.059658643 0.25575328 -0.10911479
0.15189162 0.04651875 -0.13945587 0.067600705 0.19849168 -0.038007572 0.07363101 -0.06419048
0.1883057 -0.05828583 -0.07753499 0.121829346 0.1334901 -0.121058956 0.03590667 0.006718952
0.1295887 -0.056187373 0.08491042 -0.09540386 0.10070437 0.18935725 0.07698286 0.04080251
-0.20191523 0.21330306 0.1597021 0.07333503 0.022327991 0.29060346 -0.059687056 0.00920735
-0.01998957 0.15652594 0.06925965 -0.021574186 0.05174763 0.061216537 -0.08521823 -0.052508306
-0.15797387 0.016788717 -0.023963869 0.097585715 0.1338653 0.23526607 0.22625457 -0.20600374
0.18238224 0.18703005 -0.10673585 0.09466739 -0.019354032 0.053440627 0.022696618 -0.16467004
0.118415676 0.0010419807 0.09294496 0.0040059215 0.09550131 -0.09313343 -0.049198836 -0.027289396
0.08289168 0.023842404 0.090967365 -0.12480114 -0.10235719 0.16424662 -0.14249356 0.028173823
0.02970858 -0.11074807 -0.006348594 0.093416445 0.14540736 -0.021647938 -0.04503355 0.08590373
0.17234091 -0.04166532 0.040824052 0.018244639 0.057530604 0.17206906 0.08539887 -0.057826072
0.17039712 -0.05897379 -0.17063248 -0.18653755 -0.043846242 0.08748574 0.09536167 0.031033996
0.022807186 0.10692816 0.120907605 0.18272673 0.052682262 -0.018985232 0.1176412 0.12371306
-0.21257995 -0.022596553 -0.091715634 0.10041767 0.24109697 -0.024527062 0.13353531 0.08296507
-0.04614064 0.18688732 0.036449824 0.1446402 0.01813053 0.15776186 0.08661156 0.15623146
-0.06766626 -0.19303055 0.03496246 -0.058678314 0.20997237 -0.06839897 0.11102317 -0.075469375
0.2620933 0.11722389 0.089362845 0.051049057 -0.07602948 -0.064327136 0.06679527 0.15385136
-0.081833586 -0.20829469 0.106405385 -0.044151504 0.18463194 0.100495875 0.041868288 -0.0054854997
-0.082210176 0.080399245 0.016875425 0.0016753976 0.09168483 0.006324745 0.011294975 0.02524014
0.014192432 -0.12925859 0.027247267 0.14237536 -0.054090668 -0.17955598 0.06109261 0.07812967
-0.04517213 0.05209069 0.07254639 -0.1833728 -0.15748547 0.205354 0.010456486 0.29695654
0.08946218 0.07609704 -0.027826585 -0.16233167 0.0017664358 -0.12515008 -0.064916894 -0.009748436
-0.118148595 0.17157209 0.04800384 -0.023904387 -0.01315576 -0.2320204 -0.0481894 0.090349354
0.112037525 0.014415297 -0.1261244 -0.04316098 0.17847654 -0.060151752 0.15348521 0.07893484
-0.028100962 0.13721214 0.030062933 0.01102525 0.16013607 0.1686844 0.06817708 0.15711905
0.123141 -0.021739723 0.11254757 0.119685404 0.22259219 0.19725987 -0.13000178 0.0054817903
0.09651082 -0.0812912 0.25541997 0.09155154 0.040846925 -0.21792191 -0.24343666 0.18422513
0.067411974 0.057960343 -0.044784505 0.1457096 0.03278931 0.07112643 0.14412418 -0.23840539

network_body._body_endoder.seq_layers.4.weight f4 [256, 256]
00000000: cab2 3fbe 9fc0 30be 4560 67be 13f6 a7be
00000010: 9c95 8c3e 0c3e 2cbb 98ec 68be c92c db3d
00000020: 2bb3 393f 95a5 8cbe e5bf 89be 9818 6dbe
00000030: 2079 373e 3d04 97bd 31e6 dbbd b328 a5be
00000040: 4a8e 41bd 8bba 7cbe 2f3d 4ebe 7afb d9bd
00000050: 8d6b 253d 55ad 383e 5ecb 1e3e 66c5 17be
00000060: 50af 57bd e107 e8be 4e11 78be d382 b3be
00000070: 9185 c3be e978 01be 6903 f5bd f2d9 99bd
00000080: df0e 1a3e c2f6 f1bd f553 743d 6469 193e
00000090: f1c6 86bd f535 80bd fd87 7f3c 0961 523e
000000a0: 4d35 a43d 3f36 17bf e5c8 a23e 9703 63be
000000b0: 0c96 15be 1693 93be 9aa6 52bd 972f 3b3e
000000c0: 3981 263e 0d6f a9bd 5d8f c83e 092d 8d3d
000000d0: 3984 9ebe 3d08 113e 4dba 0dbd 37df 04bc
000000e0: 2922 aa3d ff41 af3d baf4 46be 9e9e e2be
000000f0: 16f9 873e 9dfe 35bd 726e c1bd 9e18 4dbe
00000100: 6e6f 863e 3e99 83be d5f8 143e 7b64 c7bd
00000110: a323 613c 7933 933d 2752 0e3e 9661 34be
00000120: f55c e4bd 968d aebd 973f 903d 3dfd 2f3e
00000130: 5f44 2ebd 40cd 773e 0cf8 6bbe 88b1 e5be
00000140: 4838 a73e bb59 9abd 3306 a6be daa3 86be
00000150: 1746 20be 3952 793e e1da 1fbe a5b4 1d3d
00000160: 9fd0 0fbe 85e3 e7bd c4b4 593d daef a0bd
00000170: 4bd7 95be b21b 61be 8fa0 eabd a921 06be
00000180: a668 7bbc 02f0 883e 0176 35be e3c8 373e
00000190: d751 133e f317 4bbd 630f 23bd b2ec 81bd
000001a0: 6575 b8be c3be a2bd 3c9b 42be d5d8 52be
000001b0: f048 f63c 70d0 9c3e b86f 093d 921c 7cbd
000001c0: e747 7bbe b439 e2bd 5774 393e 131b ae3e
000001d0: 6313 9cbc 8038 e73d fd80 063e fa48 973d
000001e0: e464 b2be a0b5 abbe e097 ec3c 51d5 9fbd
000001f0: 9465 c03d 951b ebbe e799 6ebe 4ef3 cfbd
00000200: 1e6b bb3e b166 9d3e 71c2 913e 0693 a03e
00000210: 0609 323d 2b39 9b3e 74b0 27bd 1304 cc3e
00000220: 3b55 14be de32 893e 982c a4be 3777 acbe
00000230: d97e 493e ef5b f93a c574 e6be 9501 80bd
00000240: d661 d0be 5307 e7bd 8d19 dabd c4bb 85bd
00000250: f0c0 cfbd 9067 223e 2d74 6b3e da6a 42be
00000260: a514 28be fb6d 8ebe 7dff 22be b601 d9bd
00000270: 9317 e43d 448c 493e 94c1 123e 43f5 203e
00000280: 4ce2 41bb 36c0 143e d1e4 683d 06a5 f73b
00000290: 168e f0be 76cf c1bd 58fe db3b 27ba 293e
000002a0: d6cb 93bc 794f bbbd 03e2 933e aa0b f3bd
000002b0: 33c9 5a3e d851 d73c 86ff 83bd a7e0 3bbe
000002c0: f105 80bd 74ca d73d 4cf3 97be 8d87 9bbe
000002d0: 9d98 273e 8547 dfbe 5f21 6bbe c940 69be
000002e0: 66e2 37be f706 1a3d 813a 593e df48 2e3e
000002f0: 0274 04be 27bb b73c a26f bebe 3738 7e3e
00000300: 7e83 a9be cc15 933e 6758 dfbd 0f0b 7fbd
00000310: 9723 d9bd 066d f53c 9d28 21be 0bae abbe
00000320: 9319 9d3d a1c4 c4bc 0bd6 ddbc 15ab e5bd
00000330: 2e24 183e b2a0 f0be 994f 96be c30b 873e
00000340: aa2e 89be 587f f1bc 1985 8ebe b4dc d53d
00000350: 5ea0 04bd affe 99be b9a9 073e c04e bf3d
00000360: b4b0 e7bd 739d 753e 6ce2 bbbd 0c51 1d3e
00000370: f2b2 15be 7d3f 1c3e c01a 073d 1004 443e
00000380: c9b1 7ebe b8b6 483e cbf5 9ebe 9b1e d0bd
00000390: 5fae 273e 463d 96be 5750 a53e 8cd9 9abe
000003a0: 746c b5bd 7d65 6abd d1a6 b73d 28e3 c2be
000003b0: 34f8 c23d 1d2d 40be 177b b23d cec2 863d
000003c0: 284c 503e ee80 323e 468c d73d 4e77 a63d
000003d0: d2bd 8a3d 241d 91be 5d79 eebd ebb1 4abb
000003e0: e1f3 80be 6477 893e fde2 05bd 690b 0fbe
000003f0: 9495 6dbe 7e2c bf3d 4e3f 673e 6560 1bbe
-0.18720546 -0.17260979 -0.22595318 -0.32804927 0.27457893 -0.00262821 -0.22746503 0.107019015
0.72539014 -0.2747008 -0.26904216 -0.23153913 0.179173 -0.07373855 -0.10737265 -0.32257614
-0.047254838 -0.24680535 -0.20140527 -0.106436685 0.04038577 0.18034871 0.15507266 -0.14821395
-0.052657425 -0.4531851 -0.24225351 -0.35060748 -0.3818784 -0.1264378 -0.11963541 -0.07512273
0.15044735 -0.118146434 0.05965038 0.1498161 -0.06580914 -0.062602915 0.015596387 0.20544828
0.08017979 -0.5906715 0.31793895 -0.22169338 -0.1460802 -0.28823155 -0.051428415 0.18279873
0.16260232 -0.082731344 0.39171878 0.068933554 -0.30960253 0.14163299 -0.0346015 -0.008109859
0.08307297 0.0855751 -0.19429293 -0.4426164 0.26557225 -0.04443227 -0.09444894 -0.20028922
0.2625689 -0.25702852 0.14548047 -0.09735962 0.013741407 0.07187552 0.13898526 -0.17615351
-0.11150543 -0.08523099 0.07043379 0.17186446 -0.042545673 0.2419939 -0.23043841 -0.44862008
0.32660127 -0.07536646 -0.32426605 -0.26296884 -0.15651737 0.24347772 -0.1561084 0.038502354
-0.14044426 -0.11322693 0.053150907 -0.07858248 -0.29265818 -0.21983221 -0.11456405 -0.13098778
-0.015344774 0.2674561 -0.17720796 0.17947726 0.14386688 -0.049583387 -0.039809596 -0.06343974
-0.36027065 -0.07946541 -0.1900453 -0.20590527 0.030064076 0.30627775 0.03355381 -0.061550684
-0.24539147 -0.11046162 0.18110786 0.3400503 -0.019052213 0.112900734 0.13135143 0.07386966
-0.34842598 -0.33537006 0.028881013 -0.07804359 0.093943745 -0.4591948 -0.23300897 -0.101538286
0.3660516 0.3074241 0.2846866 0.3136217 0.043465637 0.30317053 -0.040939763 0.39846858
-0.14485638 0.2679662 -0.32065272 -0.33684704 0.19677295 0.0019024591 -0.45010963 -0.06250302
-0.40699643 -0.11280694 -0.10649405 -0.06529954 -0.10144222 0.15859818 0.22993536 -0.18986073
-0.16414125 -0.27818283 -0.15917774 -0.105960295 0.11137309 0.19682413 0.14331657 0.1571856
-0.0029584346 0.14526448 0.05685884 0.007557514 -0.46983403 -0.09463398 0.0067136697 0.16574918
-0.018041532 -0.091460176 0.2888337 -0.11867459 0.21365814 0.026284143 -0.064452216 -0.18347417
-0.06251133 0.10536662 -0.29677808 -0.30376855 0.16366811 -0.43609253 -0.22961949 -0.2277862
-0.17957458 0.0376043 0.21213724 0.17019986 -0.12934878 0.022428108 -0.37194544 0.24826132
-0.33108133 0.28727567 -0.10905533 -0.062266406 -0.10602491 0.029959213 -0.15738149 -0.33531222
0.076708935 -0.024019541 -0.027079603 -0.11214272 0.14857551 -0.469976 -0.29357603 0.2637616
-0.26793414 -0.029479668 -0.2783592 0.104424864 -0.0323795 -0.3007712 0.13248338 0.09341192
-0.11313 0.23985843 -0.09174046 0.15362948 -0.14619043 0.15258594 0.032984495 0.19142175
-0.24872507 0.19600952 -0.310469 -0.101620875 0.16375111 -0.29343623 0.32287857 -0.302441
-0.088585764 -0.057225693 0.089673646 -0.3806393 0.09519997 -0.1876721 0.08714884 0.06580125
0.20341551 0.17431995 0.10524802 0.08128224 0.067744866 -0.28342545 -0.11644242 -0.0030928801
-0.25186065 0.268489 -0.032687176 -0.13969196 -0.23201591 0.09334658 0.22582743 -0.1517349

network_body._body_endoder.seq_layers.4.bias f4 [256]
00000000: dac7 d63d 23ef 0fbd bd83 af3c 0dcf a1bd
00000010: 1dcd d7bc 49ec 2bbe 89c7 5b3e 6b08 dabc
00000020: 1b98 4dbc 691a 07be 151d adbd a7d8 913c
00000030: ec6e 413e b67d 5d3d 9669 c73e 73a5 a83d
00000040: 3f85 e83d 629e 1c3e ae8d 5c3d 9cb5 8f3e
00000050: 8d1d 103d 3ad6 5abc b1fd 19bd 3aee d43d
00000060: e7d5 9d3d 89f8 71be ecb3 f03d c29c a6bd
00000070: 6877 0e3e 4c3d 373e c3f7 0a3e ce32 663e
00000080: e712 ae3e 06e7 203e 9d28 bb3c 5949 c43c
00000090: 0cb4 953e a53e 2abc d07b ddbd 5305 c1bd
000000a0: 8ae3 2c3e e7e8 c23e ca79 563e a02c a03d
000000b0: 9ba7 9cbd 5f98 9cbd 855c d63d ba57 1bbe
000000c0: b693 a33e abae 263e 6ab8 e23d 57fd b63d
000000d0: 2d5c 093e b544 863e 2b04 85bc 4368 1bbd
000000e0: f7a4 e1bc 97c5 e23c b205 35be dc0e 2e3e
000000f0: 6bca 9b3e 2edd 1b3d 5567 00be 66f0 323e
00000100: a580 e6bd 3444 3f3d ee18 cb3d dad0 513e
00000110: 363f 90bc bfac 8abc 4ea1 973c 9847 e33d
00000120: 3224 cdbc 32ea 353e b9c8 62bc d075 293e
00000130: 1c33 273e 60cb 4fbd 0d38 833e 3037 283d
00000140: a1fd 353e d3aa 83bd 8325 8a3d 6750 bd3e
00000150: 0363 15bd 602e 5f3e fd13 6c3e cb65 4eba
00000160: 6de4 ea3d fac4 aebd 6ee6 3cbc fe1f 483d
00000170: 2caa f4bc 768b 6e3e 4cd8 503e 746f b73d
00000180: 137e a5bd e9c1 db3d acf1 803d 483f 943d
00000190: f097 8f3e 36c1 8dbd 61d6 103e 5130 883d
000001a0: 7cbe 763e df5c 103e f897 083e ed24 a33e
000001b0: 8536 c43d 3368 0a3e 8c09 b73e e5f0 a33d
000001c0: a07b 363d a14d 703e c310 f1bc c05c a73d
000001d0: eac2 503a 78ed 853e c1f0 4ebe 9842 693d
000001e0: eb24 f63d fcb4 b73d 772a 9e3d 4eb9 63bd
000001f0: fc55 14be 4f38 9b3e 0e55 ecbd ff81 2e3b
00000200: 2765 b8bd ddae 95bd 0356 ce3d caa5 923e
00000210: fc3e e83c e1dc 473e c22c 293e ade2 133e
00000220: 897d aabd 60ac 973e 6268 47bd 1556 9d3d
00000230: e8e4 34be 1a68 933e efc8 013c dea0 f2bc
00000240: 6115 14be d64a b4bd b028 8bbd 035e e23d
00000250: 2e87 153e 8ed2 543e 1484 50bd 6f31 83bd
00000260: b7ad f9bd 45d6 d63e 3806 21bc 3131 c1bc
00000270: 56db 703e 0ad5 813d 6dfd 383c a13b 873c
00000280: 9da8 b03d 08bd 2c3d f0a1 d73d 0094 b33d
00000290: 2b98 e33d 7ecf 903e cbd1 e33d 43f9 16be
000002a0: 1d4e 8b3d 17c7 88bc f62c c23d f1d4 d13d
000002b0: 9e63 eabd adce 853e ebf8 a3bc 94e8 31bc
000002c0: 4291 8cbe 64aa 12bd ea78 b1bd d0fa 923e
000002d0: 905f 073d aa21 063e bc5a 763c 83b1 163e
000002e0: 8ad3 66bd c48c 653c cf32 3c3e 257d 183d
000002f0: e4fd 3c3e 91b5 593e 0a4c 0a3d 25b1 143d
00000300: d2e7 a23d 68d3 92bd 6712 8a3e 2a86 603e
00000310: 3fac 4b3e 0c0b b53d 8805 963b 565c 133e
00000320: ee46 113e ec8f 93bd c8d9 0c3e 7cc5 ac3d
00000330: 47c2 753e a83c d83d c0ef c43e 7261 793d
00000340: 7c53 0d3e a320 5dbd e9ef 743d eaf9 a03d
00000350: 2390 563e a624 013b 9bad f6bd 8ca3 443e
00000360: dabd fe3d 1aa6 dc3d aa34 03bd f5b2 30bd
00000370: 8869 1a3d 0fe4 b53e 8bba a93e bf09 ad3d
00000380: 17aa 98bd a221 b93c 183f 193e 8fc2 473e
00000390: 531b 5f3d 26b5 5a3e a818 973e 2bc2 723e
000003a0: d574 9cbd 16e8 8d3c 91fd db3a b206 0c3e
000003b0: 1f38 983d 7b15 483e 29e0 de3b 276a 323e
000003c0: 170c 873e 9d44 a23d 6c80 f6bc a670 bdbd
000003d0: 85c5 723d 7d10 823d a136 10bd e7a3 703e
000003e0: 59af 213e f87b b53b 0d50 89bc e188 8f3e
000003f0: 29a2 833e d75e 233d 32be f9bc 7ef9 033e
0.104873374 -0.035140168 0.021425122 -0.0790082 -0.026342923 -0.16789354 0.21462835 -0.026615342
-0.012548472 -0.13193668 -0.084528126 0.017803503 0.1888997 0.054074965 0.38947743 0.08234682
0.1135354 0.15294793 0.053846054 0.28068244 0.03518443 -0.01335674 -0.037595455 0.103970006
0.07706814 -0.23629965 0.117530674 -0.08135368 0.13912737 0.17894477 0.13571076 0.22480318
0.33998796 0.15713128 0.022846514 0.023960756 0.29238927 -0.010390912 -0.10814631 -0.09424844
0.16883674 0.38068315 0.20944896 0.078210115 -0.07649156 -0.0764625 0.104668655 -0.15170184
0.31948632 0.16277568 0.110703304 0.089350395 0.13414069 0.26224294 -0.016237339 -0.03794123
-0.027544482 0.027682109 -0.17677954 0.16997856 0.3042787 0.03805273 -0.12539418 0.17474517
-0.11255006 0.046695903 0.09916864 0.20489827 -0.017608266 -0.016928075 0.018509533 0.1109764
-0.025041673 0.1776512 -0.013841801 0.16548848 0.1632809 -0.050731063 0.256287 0.041068256
0.17772533 -0.064290665 0.06745436 0.36975405 -0.036471378 0.21795034 0.230545 -0.00078734447
0.1146935 -0.08533664 -0.011529548 0.048858635 -0.0298663 0.23295388 0.2039501 0.08956805
-0.080806874 0.10730345 0.06296095 0.072386324 0.28045607 -0.06921618 0.14144279 0.066498406
0.24096102 0.14097928 0.13339221 0.3186411 0.09580711 0.13516311 0.3574947 0.08004931
0.04455149 0.23467113 -0.029426938 0.081719875 0.0007963615 0.26157737 -0.20209028 0.056948274
0.1201876 0.08970067 0.07722943 -0.055596642 -0.14485925 0.30316398 -0.115396604 0.0026627777
-0.09003668 -0.07308743 0.10074999 0.28642112 0.028350346 0.19517852 0.1652098 0.14441939
-0.08324725 0.296237 -0.04868353 0.076824345 -0.17665446 0.2879036 0.007921441 -0.029617723
-0.1446128 -0.08803336 -0.0679487 0.110530876 0.14602348 0.20783445 -0.05090721 -0.06405913
-0.121913366 0.4196035 -0.009828143 -0.023583027 0.2352117 0.06339462 0.01129089 0.016507925
0.086259104 0.04217246 0.10528934 0.08768463 0.11113008 0.28283304 0.11123999 -0.14743523
0.06802008 -0.016696496 0.09481232 0.102456935 -0.11444782 0.26134244 -0.020016154 -0.010858674
-0.27454573 -0.03580703 -0.08665641 0.2870698 0.03305012 0.1309878 0.015036281 0.14716153
-0.056354083 0.014010612 0.18378757 0.037228722 0.18456227 0.21260668 0.033763923 0.03630175
0.079543725 -0.07169229 0.26967165 0.2192618 0.19889925 0.08839998 0.004578296 0.14390692
0.14187214 -0.07205185 0.13754952 0.08436105 0.23999892 0.10558444 0.38464165 0.060883947
0.13801378 -0.053986203 0.05979911 0.07860167 0.20953421 0.0019705682 -0.12044831 0.19203013
0.12438555 0.10773869 -0.032032646 -0.043139417 0.0376983 0.35525557 0.33150133 0.084491245
-0.07454317 0.022599045 0.14965475 0.19507812 0.054469418 0.21358165 0.29511 0.23706882
-0.076394714 0.017322581 0.0016783943 0.13674429 0.07432579 0.19539444 0.0068016243 0.17423306
0.2637641 0.07923243 -0.030090533 -0.092500016 0.0592704 0.06350801 -0.03520835 0.23500024
0.15789546 0.00553846 -0.016761804 0.28034118 0.25709656 0.03988537 -0.0304862 0.12888142

action_model._continuous_distribution.log_sigma f4 [1, 2]
00000000: 9439 f140 f59b fc40
7.5382786 7.8940377

action_model._continuous_distribution.mu.weight f4 [2, 256]
00000000: a2ca a3be 0de3 603e 2f65 e23e 80ab 903e
00000010: 4fdd 2d3e bc10 083e 5bfb 6cbc 5e7a 5d3c
00000020: 7549 453a 9483 5c3c 4e63 dc3d a949 523e
00000030: 5af6 71bd 0baa 62be 3c98 f8be f91d 583e
00000040: 3eac c4be 8a1a e83d aa45 d63e c838 87be
00000050: f23c dd3d 3aab 2a3e 0992 383e dadd 113e
00000060: 5318 063f debf 48be 0a89 8dbd c75b 453e
00000070: 0bd9 22be ac98 c4bd 425b afbe 1a64 c3be
00000080: d5d4 6dbe 6202 983e df49 a53e 0f6c 773e
00000090: 9911 743e db92 953e d892 4d3e d953 5abd
000000a0: ecb9 a03e 9b14 08bf fbd9 42be 672d 633b
000000b0: 9a9b c13d 0f05 b3bd 7ff6 813d 3f78 f93d
000000c0: 197e c1bd 8b66 173e 1184 c73d ba28 64be
000000d0: b493 2bbc 9837 093e 92bd ce3d 8715 9dbd
000000e0: 42b3 653e 6076 a5bd 74a0 8f3d 2beb 143e
000000f0: 7296 74be b0b7 763e 76f4 b53e 46eb d1be
00000100: 3edb 323e d3a2 5ebe a62d 473e 902a dc3e
00000110: e8ee 3f3e 883e 5a3d 8524 623e ddec 13be
00000120: eb49 0c3e 4693 adbe f997 283e b710 0c3e
00000130: 452c c9bd 0677 013f b35a a5be 34ac 383e
00000140: b550 34be b914 613e f9af 96be 690e 0d3d
00000150: 8f28 2f3e 9524 13be aaa8 a83e d6db a13d
00000160: 5cdc 95bd 9309 1c3e 0aa6 8c3e cb18 dc3e
00000170: 4046 643e 92c2 fcbe 37cf f83d 1f40 07bf
00000180: dca4 3ebd 06a4 013e 3382 ac3e 1338 8b3e
00000190: bf7c 19bf b561 3f3e 5a6a a4be c902 2abd
000001a0: 81c9 0cbf f5f9 563e c1bf b13d a2a5 f2be
000001b0: 967c 78be 19c0 3b3e 916d 38bf 6ad8 6c3e
000001c0: b4a3 853e 8605 103e ae59 a33d 4d8c c0bc
000001d0: b8c5 853c 8c54 08bf 637a 9a3d 7ac7 7bbd
000001e0: 0de6 ee3e ce0c 043e daec 66bd f5ac 0d3e
000001f0: 915b c53d ceae 4e3e e09d d83e d3fc b93e
00000200: fcd7 23be 97f0 663e f7e0 213c f215 b8be
00000210: babd 0f3c 8967 dabe e30e 8fbe e16f 6dbd
00000220: 910c ed3d 80f6 06bf bde5 8fbd 6a14 d6be
00000230: 0567 483e 2cf3 9dbe f607 863d 004a 0fbe
00000240: bc17 5d3e debc 643e 7c76 603d cc87 213e
00000250: 5f08 24be 39f0 b23e ff3e 663e da64 a13e
00000260: 0f17 b33a c4b0 04bf b155 3c3e a28d 573d
00000270: 3966 98bb bfad 7bbe 6f95 96bd f887 113e
00000280: a490 033f 85c2 883e 6c19 b2bd 2997 bc3e
00000290: 0b74 63bc 0918 00bf d96d ae3e 6bcd 4f3e
000002a0: fd97 2b3e b719 1e3e 3f5d a13e 7639 0abf
000002b0: 0c48 203e 8ea0 f1be c0f0 133e ccc9 b43e
000002c0: 7c0d 253d e3c1 2b3e bb5b 943e c3a9 bcbd
000002d0: 8e41 0d3e 5fce 063e 5352 95be 218d 063e
000002e0: 2ad3 2cbe d683 7cbe d767 2cbf 540b 0c3d
000002f0: 3ef0 e7be 8883 c2be 8edd 893e 2ce6 e63e
00000300: b9bf 67bb 115b 2b3b c538 0abd 9554 a13d
00000310: d09c c7be b4aa c7be 3d17 473e 16db c73e
00000320: 268d d8be d9c7 7dbd 4fea 97bd 973a 893e
00000330: 60ba 353e 6381 17bc f729 45be 4045 983e
00000340: 7820 6dbd 2eca 893e e194 903e 2707 8a3d
00000350: e600 b4be 30b7 1fbd f27a 8c3d 700c 1bbf
00000360: 8f26 cd3e 587b bfbb f0a3 b43e b7de c33c
00000370: 8676 913e 32bb bebe 00f4 80be 9fc2 933d
00000380: 5cfc 87bd 00bc 193f dc26 e6be 8565 07bf
00000390: de33 8a3e 9997 d3be 8564 ddbe ba30 ddbe
000003a0: aa1d 10bd a10f 7d3e f4e2 583e f937 c8be
000003b0: 16a5 27be 5400 c5be d62a 793d 514a 71be
000003c0: 8a1a e6bd 30c1 a63c 7464 cebd 88be fcbc
000003d0: b776 873e 0b4a 06bf 7b68 c23e 93d5 04bf
000003e0: 2a61 b9be a4fb 70be 0265 163e 3fd1 57bd
000003f0: 8d3a d03e 8ef3 103f 3f73 813e efb9 fbbc
-0.31990534 0.21961613 0.44217822 0.28255844 0.16978954 0.13287634 -0.014464225 0.013517944
0.00075258996 0.013459105 0.10761128 0.20535912 -0.05907283 -0.22135179 -0.48553646 0.21105184
-0.3841266 0.11333187 0.41850024 -0.26410508 0.1080264 0.1666688 0.18024458 0.14244786
0.52380866 -0.19604442 -0.06910904 0.19273292 -0.15903108 -0.09599432 -0.34249312 -0.3816231
-0.2322572 0.29689318 0.32282922 0.24162315 0.23834838 0.29213604 0.20075548 -0.05330262
0.31391847 -0.5315644 -0.19028465 0.0034664513 0.09453507 -0.08741199 0.063458435 0.12181138
-0.09447879 0.14785211 0.097419865 -0.22281161 -0.010472227 0.13400114 0.100947514 -0.07670122
0.22431663 -0.08079219 0.07013026 0.14542834 -0.23885515 0.24093509 0.3553807 -0.40999812
0.17466447 -0.217418 0.19451007 0.43001223 0.18743479 0.05328229 0.22084244 -0.14445825
0.13700072 -0.33901423 0.16464223 0.13678251 -0.09822897 0.5057224 -0.3229576 0.1803444
-0.17608912 0.21980561 -0.2943113 0.03443757 0.17105316 -0.14369424 0.3294118 0.079032585
-0.07317421 0.15238027 0.27470428 0.42987666 0.22292423 -0.49367195 0.12148898 -0.52832216
-0.04654394 0.12660226 0.33693084 0.2719122 -0.5995597 0.18689616 -0.3211239 -0.041506562
-0.5499497 0.20993789 0.08679152 -0.47391993 -0.24266276 0.18334998 -0.72042185 0.2312943
0.26101458 0.14064607 0.079760894 -0.0235044 0.016329631 -0.5325401 0.07542875 -0.061469533
0.4665989 0.1289551 -0.056378223 0.13835509 0.096366055 0.2018387 0.4230795 0.36325702
-0.1600036 0.22552715 0.009880296 -0.35954243 0.008773262 -0.42657116 -0.27941045 -0.057968024
0.115746625 -0.5271988 -0.07026241 -0.4181245 0.19570549 -0.30849588 0.06544487 -0.13993073
0.21591085 0.22337672 0.054800496 0.15774459 -0.16018818 0.349489 0.22484969 0.31522256
0.0013663488 -0.5183222 0.18392064 0.052625306 -0.0046508578 -0.24577998 -0.07352721 0.14212024
0.5139258 0.26710907 -0.08696255 0.36834076 -0.013882647 -0.50036675 0.34068182 0.20293204
0.16757198 0.15439497 0.31516454 -0.5399393 0.15652484 -0.47192806 0.14447308 0.3531021
0.040296063 0.1677318 0.28976235 -0.09212067 0.13794538 0.13164662 -0.2916437 0.13139774
-0.16877428 -0.24659666 -0.6734595 0.03419049 -0.45300478 -0.37990975 0.26926845 0.45097482
-0.0035362078 0.002614681 -0.033745546 0.07877461 -0.38986826 -0.38997424 0.19442458 0.39034337
-0.42295188 -0.061958168 -0.07417738 0.26802513 0.17746878 -0.009247157 -0.1925429 0.29740334
-0.057892293 0.26912063 0.28238586 0.067396455 -0.35156935 -0.03899306 0.068593875 -0.60565853
0.4006848 -0.005843561 0.35281324 0.02390991 0.2841074 -0.37252194 -0.25186157 0.072148554
-0.066399306 0.6005249 -0.44951522 -0.5288928 0.26992697 -0.41326597 -0.43240753 -0.43201238
-0.03518454 0.24712993 0.21180326 -0.39105204 -0.16371569 -0.38476813 0.060831867 -0.23563506
-0.11235531 0.02035579 -0.10077754 -0.030852571 0.2645776 -0.5245673 0.37970337 -0.5188839
-0.36206943 -0.23533493 0.14686969 -0.052689787 0.4066967 0.56621635 0.25283238 -0.030728308

action_model._continuous_distribution.mu.bias f4 [2]
00000000: 729a fbbd a7ff 163e
-0.122853175 0.14745961
