Assets/53_2.onnx (onnx, 648067 bytes, 10 tensors)

network_body._body_endoder.seq_layers.0.weight f4 [256, 107]
000000 09 3b 0c 3e 00 96 bb bd f7 a3 54 3d ce 5f d6 be
       0.13694395 -0.091594696 0.05191418 -0.41869968
000010 fc 7d a2 bd 33 77 64 be 08 24 94 3e c4 a6 92 be
       -0.07934186 -0.22311096 0.2893374 -0.28642857
000020 a6 b7 d9 bd c0 14 ff bd 31 45 88 be 4e f7 0f bf
       -0.10630731 -0.124551296 -0.2661529 -0.5623673
000030 04 64 52 bd ab b6 2f be 6a af 71 3e bc 48 5c be
       -0.051364914 -0.17159526 0.23602071 -0.21512121
000040 cf 78 78 bd 25 86 82 bd ca 7c 9d be 5a 97 d6 be
       -0.060662087 -0.06373242 -0.3075927 -0.41912347
000050 f3 64 d9 3c ff a2 73 3d c1 f6 f9 be c3 f1 b6 bc
       0.026537394 0.059481617 -0.4882107 -0.022332078
000060 84 f5 44 bd 83 fd ee bd ce 04 e6 3e 10 b0 1d bf
       -0.048085704 -0.11669447 0.4492554 -0.61596775
000070 ad 37 78 3b 82 ed ba bd 9e 31 d3 3e c9 08 7a 3e
       0.0037874982 -0.09127332 0.41248792 0.24417414
000080 4d 86 e2 bb 9a 4f 13 be c7 51 d7 be cb 3b 12 bf
       -0.0069129826 -0.14385834 -0.4205458 -0.57122487
000090 80 e5 3b 3d a9 ca f5 bd 53 95 88 bd 6c 87 2d 3e
       0.045873165 -0.12001545 -0.06669106 0.1694619
0000a0 40 dd 47 be 90 bd 32 3c 7e 21 e3 be c1 36 07 bf
       -0.19517994 0.010909453 -0.4436149 -0.5281792
0000b0 64 f0 6c bd 34 53 a4 bc c4 ed 1b be f5 f2 2c 3e
       -0.057846442 -0.020059206 -0.15227419 0.16889556
0000c0 88 3b 48 3e 45 5b 88 bd 8b 58 7a bc 8c 6c 18 bf
       0.1955396 -0.06658033 -0.015279899 -0.5954063
0000d0 47 dc 21 be b3 49 10 bd 30 92 4d 3e 3c f6 e2 3e
       -0.15806685 -0.035226535 0.20075297 0.44328487
0000e0 7b 61 d1 bb 58 6e c3 be ae 58 8e bd 91 b5 3c bf
       -0.0063897944 -0.38170123 -0.06950508 -0.7371455
0000f0 03 ca 39 3e b4 97 f1 bd e0 41 df 3d 9a 1b 85 3e
       0.18143468 -0.11796513 0.109012365 0.2599762
000100 3f ff 27 bc 0c 59 7e bd 6e 72 ed be 97 bb 0d bf
       -0.0102537265 -0.06209664 -0.46376365 -0.55364364
000110 27 48 b5 bd ee 47 d0 be 04 d4 23 be 16 7e 3d bb
       -0.088516526 -0.40679878 -0.15998846 -0.0028914264
000120 40 aa 96 3d 96 2a c3 3c f6 30 2e 3d b9 fc ac be
       0.07356691 0.023824017 0.04252716 -0.33786562
000130 a6 d3 58 bd 3c 4f f1 be b2 60 10 3f 23 c6 83 3e
       -0.05293622 -0.47130764 0.56397545 0.25737104
000140 9e 52 b4 bd bd ae 70 bd a2 45 8c 3d 34 ac df bd
       -0.088048205 -0.058760393 0.06849219 -0.10921517
000150 4c 0a c2 bd 93 a5 f7 ba 82 9e 02 3f ca c6 6e 3e
       -0.0947462 -0.001889395 0.51023114 0.2331802
000160 88 a3 9b bd 31 da 82 3e d1 21 39 3e 3b 8f 1f 3e
       -0.075995505 0.25557092 0.18079306 0.15581982
000170 92 b1 d5 bd 84 99 39 bd 21 eb 50 bd e1 b8 f8 3c
       -0.104342595 -0.04531242 -0.051005486 0.030361595
000180 56 14 c4 bd 40 13 98 3d 1d 1b 4e 3e 1a 5c fb 3d
       -0.09574191 0.07425547 0.2012753 0.12273426
000190 70 71 69 be 04 d3 0e 3e 7a 9d 7f ba 60 7e 4c bd
       -0.22797179 0.13947684 -0.0009750944 -0.049925208
0001a0 7c 78 22 be 70 28 32 be 58 98 06 3d 71 1c de bd
       -0.15866274 -0.17398238 0.03286013 -0.108452685
0001b0 54 f0 6b bd bb e3 c6 be 39 18 5b 3e 98 bf 81 bd
       -0.05760224 -0.3884562 0.21395959 -0.06335372
0001c0 6d e9 a9 be f2 59 2c bf e1 10 9d 3e 16 a3 3c 3c
       -0.33185902 -0.67324746 0.3067694 0.011513492
0001d0 ee e4 85 bd e0 e7 16 be 6c 2b 19 3e 61 86 83 3c
       -0.065378055 -0.14736891 0.1495797 0.016055288
0001e0 53 42 8c 3d 34 f6 92 bc 10 e4 22 3e 5b ca 69 3d
       0.06848588 -0.017939664 0.15907311 0.057077747
0001f0 44 33 c1 bd 3e 59 d0 3e 16 5d 2d 3e 17 2a b5 3d
       -0.09433606 0.40693086 0.1693004 0.088459186
000200 e1 e7 bc 3d de b5 63 be f4 75 f7 3d 71 72 6f 3e
       0.09223915 -0.22237346 0.12083045 0.233835
000210 20 c8 f2 be 14 d1 ad 3d 33 a2 54 bd c3 ba 3e 3d
       -0.47418308 0.08487144 -0.051912498 0.04656483
000220 a1 d5 d8 3d 8c 27 57 3c 87 5c 0b 3e 78 bc 91 3d
       0.105876215 0.013131987 0.13609515 0.07116026
000230 7f 14 32 be 2c dd 86 bf 9a 8f 38 be 0b 88 ca 3d
       -0.17390631 -1.0536246 -0.1802353 0.098892294
000240 ca 87 8f 3d 25 78 91 be 9f 64 c7 bd 77 69 05 3e
       0.070083216 -0.28411976 -0.09735989 0.13028513
000250 8e d4 05 be 6a 71 92 be 1b 8e b2 3d ca ad 3b bc
       -0.13069364 -0.28602153 0.08718511 -0.011455009
000260 71 a2 b3 be 7d 0d 1d 3f 0e 57 d2 be 52 99 a1 3c
       -0.3508487 0.61348706 -0.41082042 0.01972643
000270 ab 45 24 be 3a cd d9 be 8e 57 f3 3d d9 22 75 3d
       -0.16042201 -0.42539388 0.11881934 0.059847686
000280 d0 8d f8 3e c2 81 dc be 94 14 b0 be 9b 64 29 3e
       0.48545694 -0.43067747 -0.343907 0.16542284
000290 5a 10 6b be 1b a1 05 be c1 d8 16 3e 79 e0 46 3e
       -0.22955456 -0.13049738 0.14731123 0.19421567
0002a0 73 96 32 3e d2 89 81 3d d9 ef d0 bd f1 09 f4 bd
       0.17440204 0.06325115 -0.10201997 -0.11915959
0002b0 de 9c 54 be 49 f0 c2 3e cc e3 40 be 1a 5a 35 be
       -0.20762965 0.38073948 -0.18836898 -0.17710152
0002c0 cd 55 83 be ba e2 82 bd fc a1 9d be 04 7e 9b 3d
       -0.25651398 -0.06390901 -0.30787647 0.07592395
0002d0 72 81 19 3e 7b 70 48 3c b0 18 64 bc 29 63 9c bd
       0.14990786 0.012233849 -0.013921902 -0.07636101
0002e0 17 ed 51 3e ed 95 53 bd 02 88 41 be f6 6d 95 bd
       0.20500599 -0.051656652 -0.18899539 -0.07296364
0002f0 80 58 85 3d f9 c3 96 be e8 34 92 3d 5b f3 5e b9
       0.06511021 -0.2944639 0.07138997 -0.00021262227
000300 33 30 a5 3d fd fd ae be 42 d0 a0 bd c0 e0 65 bd
       0.08065834 -0.34178153 -0.07852222 -0.05612254
000310 35 ea 03 3d de 0b a8 3e ac c5 c7 bc a7 7e 1a be
       0.03220578 0.32821554 -0.02438625 -0.15087377
000320 e2 d2 55 3c e6 f5 54 3e be c8 99 be d2 d7 2a 3d
       0.013050767 0.20796928 -0.30035967 0.04170973
000330 9c 2c 18 be 71 5b b1 3d 40 e6 da bd b6 ef a7 bd
       -0.14860767 0.08660019 -0.10688448 -0.08200018
000340 8a 54 91 3e 24 d8 a7 bf 70 d2 57 3e 91 fe 1e bd
       0.2838481 -1.3112836 0.2107637 -0.038816992
000350 9f ee 18 bf 86 66 28 be 71 2c 15 be 5b a9 8d be
       -0.59739107 -0.1644536 -0.14567734 -0.2766827
000360 90 73 46 be 5a e0 76 be c2 ff b5 bd 7d 64 47 3e
       -0.19380021 -0.24109021 -0.088866726 0.19471927
000370 82 c5 0c 3d ff 21 c2 bd f5 c8 bb bd b4 ec 4f be
       0.034368046 -0.094791405 -0.09169189 -0.20305139
000380 d9 5e fd bd 9f ab a7 bd 36 e7 eb 3c 49 1e ee 3e
       -0.123716064 -0.08187031 0.028796773 0.4650748
000390 3a 71 cd 3d e3 4f dd 3d aa 6c c6 bd 28 82 35 3d
       0.10031362 0.10806253 -0.09688695 0.04431358
0003a0 12 9d fd 3e 59 d2 3e 3d 83 a7 a1 bd f7 c6 05 3e
       0.49533898 0.046587322 -0.078932784 0.1306418
0003b0 56 bb 90 3d e0 8e b4 3d ea 2b 90 3d 9b 7c 17 3e
       0.070669815 0.08816314 0.07039626 0.14793627
0003c0 9d ea 2b be e2 b8 8c bd ca 8e 94 bd 03 8d 41 3c
       -0.16788717 -0.06871201 -0.07253797 0.011813405
0003d0 39 29 49 be 1f 43 40 3d c2 87 46 be 88 a5 8f 3d
       -0.19644631 0.04693901 -0.19387725 0.070139945
0003e0 04 3d 48 be be f0 03 be c1 7a ed 3d fd 08 8f 3d
       -0.19554526 -0.12884805 0.11595679 0.06984136
0003f0 85 7c d2 bd df 10 1e bd bb 86 b4 3c f0 5e 73 bb
       -0.102776565 -0.03859031 0.0220369 -0.0037135445

network_body._body_endoder.seq_layers.0.bias f4 [256]
000000 6e 26 e8 bd af dd 80 bd fb d7 0d 3c 9f 37 65 bd
       -0.11335455 -0.06292283 0.008657451 -0.055961248
000010 f4 14 75 bd 12 04 db 3b ff 61 44 3c 96 65 b4 3d
       -0.059834436 0.006683835 0.011986255 0.088084385
000020 ec 61 65 bd f8 80 1d 3a b8 f6 d2 bb e8 4c cb bd
       -0.05600159 0.00060082925 -0.0064381026 -0.09926778
000030 80 79 7c bc 22 12 6a bd d1 35 9f bd 1d df 42 be
       -0.015409827 -0.0571462 -0.077739365 -0.19030423
000040 39 ea 40 3d 9a 24 52 bd ff d3 fa 3c 4c de 1e bd
       0.047098372 -0.051304437 0.030618666 -0.038786218
000050 41 04 96 bd c4 5e 8f 3b 0d a3 76 bd 5e cc 33 3c
       -0.0732503 0.0043753106 -0.06021409 0.010974018
000060 21 20 42 3d 6a 2d 1e bd 6e 51 c9 bc 65 a1 08 3d
       0.04739392 -0.03861753 -0.024574962 0.033357043
000070 d4 1e 7e 39 7b 10 95 bd c2 63 9e bb 88 78 51 bd
       0.00024234812 -0.07278534 -0.0048336694 -0.05114034
000080 63 2e b1 bd 38 84 51 3d f5 ca e4 3d 17 04 7e 3d
       -0.08651426 0.051151484 0.111715235 0.06201562
000090 93 a0 7b bd 37 bb 56 bc 69 bc ac bc ec 74 22 bd
       -0.061432432 -0.013106159 -0.021085935 -0.039662287
0000a0 70 fa 21 3c 22 61 05 bd 32 f4 dd bd f1 86 05 bd
       0.009886369 -0.032563336 -0.10837592 -0.032599393
0000b0 0b d8 31 3d 8b 87 a5 bd c5 96 9b 3b 4f ea d4 3d
       0.043418925 -0.080824934 0.0047481977 0.10396253
0000c0 48 10 a6 3b 60 66 7a bd 69 b5 c2 3d 6d ea 4d 3d
       0.005067859 -0.06113279 0.095072575 0.050272394
0000d0 9d b0 f0 bd 1e 59 07 be b8 28 99 bd f2 8f 10 be
       -0.11752436 -0.1321759 -0.074784696 -0.14117411
0000e0 47 b0 b2 3c 0e 28 a1 3d 80 18 b9 bd 95 80 ac 3c
       0.021812571 0.07868968 -0.09037876 0.021057406
0000f0 eb cd 48 bd 69 84 e3 bd 9e 2a 8e bd 65 1f b2 be
       -0.049024504 -0.111092396 -0.06941722 -0.34789577
000100 1f 53 8f 3d 4e ae 18 3e 2f cb fd 3c 83 fa c7 bd
       0.06998276 0.14910242 0.030980675 -0.09764578
000110 96 7a d7 bc 68 7d 48 3d 2e c9 62 bb 5a 1d 89 bc
       -0.02630357 0.04894772 -0.0034604776 -0.016737629
000120 d2 23 a5 3d 30 d1 40 bd 7e cc 94 3d 76 8b 57 bd
       0.08063473 -0.047074497 0.07265566 -0.052623235
000130 28 3d 05 3d 5d 76 db 3d 72 ab b7 bc a8 6c 98 bd
       0.032529026 0.107159354 -0.022420619 -0.074425995
000140 5c 4a 37 bd 80 c8 8d 3d e0 df b1 bd 45 2c 16 bd
       -0.04474865 0.06923008 -0.08685279 -0.036663312
000150 b0 ba 4a bd 12 09 0c bd 55 05 10 3e d8 74 1c bd
       -0.049494445 -0.034188338 0.14064534 -0.03819737
000160 15 2c 92 3d 83 b9 b7 3d fe 99 95 bd fa f2 fa bb
       0.07137314 0.089709304 -0.07304762 -0.0076583596
000170 37 81 0c ba 1b bd 64 3d 1a 87 46 3d bc 1d c2 3c
       -0.00053598307 0.055844408 0.048468687 0.02369582
000180 5e ae 49 bc 26 b6 35 bc ad 66 dc bd ac 53 08 be
       -0.012309639 -0.011090791 -0.10761771 -0.13313168
000190 56 25 b6 3c ef 70 93 bd c8 6d 9d 3c 0a b7 22 3e
       0.0222346 -0.07199275 0.019217387 0.15890136
0001a0 2f 7f 5d bc 07 fb e0 bd b6 ff 9b bd 62 95 d4 3c
       -0.013519092 -0.1098538 -0.07617132 0.025950138
0001b0 47 27 db bc af 52 f6 bc a3 79 95 bd 6c e6 02 3c
       -0.026752127 -0.030068723 -0.07298591 0.007989507
0001c0 89 30 1a 3d a9 cc b4 bd 4a 4b 2e bd 4c 93 ce bc
       0.037643943 -0.08828098 -0.04255227 -0.025216721
0001d0 30 11 89 3d 36 6d 94 bd 6d 0e 0e be 51 67 69 3d
       0.066927314 -0.07247393 -0.1387269 0.056983296
0001e0 65 d5 48 bd f3 9b f0 3c c2 26 1e bd f0 62 d3 bc
       -0.049031634 0.029371237 -0.03861118 -0.025804013
0001f0 65 02 53 bd 26 4b d4 3c 01 86 65 bd 9d c8 2f 3d
       -0.051515955 0.02591474 -0.056036 0.04291593
000200 89 1c 04 be 97 a5 bd 3d c2 21 fe bd 38 2e 09 be
       -0.1290151 0.092600994 -0.124087825 -0.13396537
000210 17 da d6 bd de 02 d4 3b e5 2b 28 be 2a ac 47 bd
       -0.10490816 0.0064700684 -0.16422994 -0.048748173
000220 37 8b 96 bc d7 01 2c bd ff 7f 66 bd 2c 07 68 bc
       -0.01837693 -0.041993942 -0.05627441 -0.014161866
000230 bd ed 1c 3d ce 9e 1a 3d ff 6b 91 bd b9 bc d1 3c
       0.038312662 0.037749104 -0.07100677 0.025602685
000240 ea 5f 13 bd 79 8d c9 bd bf c8 71 bd 0e 27 83 bd
       -0.035980143 -0.09841437 -0.059029337 -0.064039335
000250 2d fb 3a bd 05 84 e4 bd f7 cb 0c be 07 d5 9e 3c
       -0.045649696 -0.11157993 -0.13749681 0.019388689
000260 9e a7 8b bd 27 c4 29 3c 07 c5 d8 3c 03 35 fc bd
       -0.0681908 0.010361708 0.026461137 -0.12314799
000270 e1 44 f6 bd a6 62 ae bc 9f f2 d2 3d d9 ac f7 3c
       -0.12024856 -0.021287274 0.103001826 0.030233787
000280 70 ce ad 3c eb 6c 59 bd b6 30 fc 3c 30 39 6d bc
       0.021216601 -0.053082388 0.030784946 -0.014478967
000290 f2 ec 16 3d a6 3b 32 bd 18 84 22 3d 29 e5 11 bc
       0.036847062 -0.043513916 0.039676756 -0.008904734
0002a0 55 e2 43 bc 61 df a9 bd fd 9d 1e 3c 1a ea 15 be
       -0.011955817 -0.08294559 0.009681222 -0.14640084
0002b0 86 3b 00 bd 5e 54 1e bd 1b 8b 03 bc 40 1b 0d bd
       -0.031306766 -0.038654678 -0.008028771 -0.034449816
0002c0 e1 ef 31 be d1 89 87 3d 24 2f 28 bd d7 f4 12 bc
       -0.17376663 0.06618083 -0.04106058 -0.008969507
0002d0 b5 5d 86 bd 1f b2 97 3c 8c 1b 47 be 74 b3 51 bd
       -0.06560842 0.018517552 -0.19444102 -0.05119653
0002e0 25 81 8e 3c ac f0 d5 bd 25 98 f4 bc bd e2 83 bd
       0.017395565 -0.10446295 -0.029857704 -0.06439731
0002f0 00 98 98 bc da 90 c2 bd d3 39 0c be 04 5b 02 be
       -0.018627167 -0.095002845 -0.13693933 -0.12730032
000300 e6 5b e5 bd 07 74 ab bc a3 74 b1 bc 60 a4 d3 bc
       -0.11199169 -0.02092935 -0.021662062 -0.025835216
000310 a9 e5 58 bd 7d d6 88 3c 96 b8 95 3d 3b 69 1e bd
       -0.052953396 0.016703838 0.073105976 -0.038674574
000320 59 e7 e1 bd 4a 5d d9 bd 7e df f9 bd 69 a2 65 3d
       -0.11030454 -0.106134966 -0.12200831 0.05606309
000330 09 c4 8e bd d2 05 db bc d4 93 1f bc f4 45 84 bd
       -0.069709845 -0.026736174 -0.009739835 -0.06458655
000340 ee 52 5c bd 0d a5 d6 bd 7b 50 8e 3d 13 7c 37 bd
       -0.053790025 -0.104807 0.06948944 -0.04479606
000350 bc 27 c4 bd 07 6e 9e bd ab db 7c 3c 13 9f 51 bc
       -0.09577891 -0.0773583 0.015433232 -0.012794274
000360 f5 55 04 3d d2 2a 91 3b 29 71 7e bd 07 73 9e 3c
       0.032308538 0.0044301534 -0.062119637 0.019341959
000370 c5 b4 1d 3d ca 9f 83 3d 1f b4 41 be 59 8e cd bd
       0.038502473 0.06426962 -0.18916367 -0.10036916
000380 33 24 fc bd b6 06 f7 bd c3 c8 6e bd db 79 8e 3c
       -0.12311592 -0.12061827 -0.05829693 0.01739209
000390 20 f2 bc bd 0b e0 b4 bd 4f 80 e2 3c 16 41 b1 3b
       -0.09225869 -0.08831795 0.027649073 0.00540937
0003a0 3b c3 0c be 53 b3 80 bd 5b 2b ec bd e9 ef 86 3b
       -0.1374635 -0.062842034 -0.11531707 0.004117955
0003b0 ad a5 01 be 0d ce 10 3d 4c 44 a2 3c 22 48 48 bd
       -0.12660857 0.035352755 0.019807957 -0.048896916
0003c0 10 d7 00 be 90 9e 19 bd 2a 72 b5 bc 0a 3d 31 bc
       -0.1258204 -0.037504733 -0.022149164 -0.0108177755
0003d0 67 cd f4 bd ae 00 1b 3d 9e 4f 3b bd 4a 32 b3 ba
       -0.1195324 0.037842445 -0.045730226 -0.0013671604
0003e0 39 52 89 bd dd de ae bc 90 7d 03 3c 53 5c 15 be
       -0.06705136 -0.021346504 0.008025542 -0.14586
0003f0 34 b6 ab bc eb 50 4e be 0a 7d ac 3c 9d 8f 3b 3d
       -0.020960905 -0.20148055 0.021055717 0.045791257

network_body._body_endoder.seq_layers.2.weight f4 [256, 256]
000000 06 c6 af 3c f2 9c 0d bd 93 c2 84 bf 66 ac 13 bf
       0.02145673 -0.034573503 -1.0371879 -0.57684934
000010 94 72 b8 bd 50 38 31 bf 75 16 d5 be 03 76 53 3d
       -0.09006229 -0.6922655 -0.41618696 0.051626217
000020 da b5 45 be a1 e5 ce 3e cb ed 41 be fb da 0d 3e
       -0.19307652 0.40409568 -0.18938367 0.13853066
000030 3a bd 18 be c1 fb 83 3e 34 a2 a3 be 41 a7 e5 3d
       -0.14915934 0.2577801 -0.3195969 0.11213542
000040 91 0e 25 3e 72 23 03 3d c2 c2 2e bf 26 0d 9f be
       0.16118838 0.032016225 -0.68265927 -0.3106472
000050 59 2f cb be 80 6b 87 3e 0b 72 1c 3b d5 f3 14 3e
       -0.3968456 0.26449203 0.0023871686 0.1454614
000060 e6 46 b1 be 38 01 a2 be 9f 75 a7 bb 32 a2 47 3e
       -0.34624404 -0.31641555 -0.005110457 0.19495466
000070 f3 4d 72 be 38 41 24 be c7 d1 c9 3c 97 47 b1 be
       -0.23662548 -0.16040504 0.024636162 -0.3462493
000080 5f 5b 60 be 1d a3 1c bf 47 5f 0b bf 86 fe 2e be
       -0.21909855 -0.6118639 -0.54442257 -0.1708928
000090 de d6 f9 3e be 96 30 3c 2a 7b 40 be b0 22 3c be
       0.48796743 0.010778127 -0.18796983 -0.18372607
0000a0 66 c5 79 3e 05 66 9d bd 3f 71 bd 3e d1 52 03 bd
       0.24391708 -0.07685474 0.37000462 -0.0320614
0000b0 7a ec 8f be 06 0b f0 be df 1c e0 3d cd 1a 9a 3e
       -0.28110105 -0.4688341 0.10943007 0.30098572
0000c0 53 9d 1f be 72 71 e5 3d d6 4b 80 be d2 81 21 3c
       -0.15587358 0.112032786 -0.25057858 0.009857612
0000d0 7c 41 36 bf e4 02 23 be ad f2 39 be 83 fe 85 be
       -0.7119367 -0.15919071 -0.1815898 -0.2617074
0000e0 3f f8 14 3f 1c 5c 3b 3e d5 a0 e3 3d e1 c0 a5 be
       0.58191293 0.18296856 0.11114661 -0.32373717
0000f0 26 8e 41 be d1 07 33 3e b9 76 29 be 1b e8 b8 bd
       -0.18901882 0.1748345 -0.16549195 -0.090286456
000100 db dd 20 3e 9c e1 f2 3b 8c 44 86 be 04 a6 47 be
       0.15709631 0.0074121486 -0.26224172 -0.19496924
000110 3b 96 3c be 14 7d e6 3d 8d e6 02 bf 07 ea 62 bf
       -0.18416683 0.112543255 -0.5113304 -0.8863835
000120 1c 73 64 bd 0e fe 66 3c 16 4f 56 be 25 86 90 3c
       -0.05577384 0.014098657 -0.20928606 0.01764209
000130 c0 c9 08 3f cb a1 f5 3e 2d 17 83 be 5c d3 92 bd
       0.53432846 0.47975 -0.2560362 -0.0716922
000140 84 33 13 be 19 5f b0 3c 78 64 80 be ed 3d 9e bd
       -0.1437512 0.021529721 -0.25076652 -0.07726655
000150 d5 af a8 3d a7 81 c1 bd 57 66 90 3e 86 1c 72 be
       0.08236662 -0.09448557 0.2820308 -0.23643693
000160 dd 78 c6 3e 2d 3a 03 3f f2 b6 0c bf e6 ec 2a 3d
       0.38764086 0.51260644 -0.5496665 0.04172983
000170 a5 35 53 3d 5c b4 48 bf 41 3c 97 be d9 a4 02 3a
       0.05156483 -0.78400207 -0.29538158 0.00049836707
000180 b3 88 cb 3d 2a 0b 71 bd 67 1f ce 3e c6 6b a5 be
       0.09938183 -0.058848538 0.40258333 -0.32308787
000190 a5 dc 6f bd 7e ff 7e be 8b 27 86 3e db e9 2d 3e
       -0.058560032 -0.2490215 0.26202044 0.1698374
0001a0 37 c5 9c 3d b4 9f cb 3d 2d ab 60 bc 49 3e 1d 3e
       0.07654803 0.0994257 -0.0137126865 0.15355791
0001b0 b7 b9 ce be 71 f6 a4 3e e4 44 24 be 31 65 7c bd
       -0.40376064 0.3221927 -0.16041905 -0.06161994
0001c0 61 fb 9d bc 9f d4 74 bd 95 8a b3 be 94 c1 22 3d
       -0.019284906 -0.059773084 -0.35066667 0.03973539
0001d0 cd 09 89 3e 2a 6e e9 bd db cf 19 be c0 8e 55 be
       0.2676529 -0.11397965 -0.15020697 -0.20855236
0001e0 6b bd a8 be 34 52 dd be b9 2f ec 3d 30 b7 7c bd
       -0.32957014 -0.43226779 0.1153254 -0.06169814
0001f0 4c 55 ba bc 25 56 48 39 a2 3e d3 be a7 60 b5 be
       -0.02274575 0.00019105578 -0.41258723 -0.35425302
000200 27 15 2e be 8c 5a 69 3e 43 75 69 be 28 27 01 bf
       -0.17000256 0.22788447 -0.22798638 -0.5045037
000210 44 19 25 3e b1 41 9e be c0 e6 75 3c 92 4d 25 be
       0.1612292 -0.30909494 0.015008628 -0.16142872
000220 f4 c6 8e be c1 f3 ed 3d 78 6b 17 3d fa 5f 1e be
       -0.27886164 0.11618758 0.036967725 -0.154663
000230 92 c5 d0 be c4 e5 69 3e d7 e4 3a be 5d 4d 77 3e
       -0.40775734 0.22841555 -0.18251358 0.24150605
000240 40 ba 96 be 63 5d b1 bd db 3e 4c be c5 5b 68 be
       -0.29438972 -0.0866039 -0.19945852 -0.22691257
000250 2f f4 e6 3d e3 4c 77 bd d3 1b f7 be c2 13 85 be
       0.11277043 -0.06037606 -0.48263416 -0.25991637
000260 8e ce 6a be 9a 5b 03 bf c2 72 2b be a8 f9 ad bd
       -0.22930357 -0.5131165 -0.16742995 -0.08494884
000270 19 9f 69 bd 5b 17 2d be 01 15 2f bd 41 7c fe bd
       -0.057036493 -0.1690344 -0.04274464 -0.12426043
000280 0a fd 21 3d f9 54 9e 3d 16 1f e0 be d5 2d d1 bd
       0.039547957 0.07731051 -0.43773717 -0.1021382
000290 0f fe 1f be 5b 77 f9 3e 5b 58 72 3d f1 9a d0 bd
       -0.1562426 0.48723873 0.059166294 -0.10185803
0002a0 e3 ac 9b bd 14 57 e2 be d8 6c 04 be a2 be 2e 3e
       -0.07601335 -0.4420706 -0.12932146 0.17064908
0002b0 ba 54 33 3e 8a 5e fd be 6c f3 07 be 17 f1 e4 3e
       0.1751279 -0.4948619 -0.13276452 0.44715187
0002c0 e6 15 ce 3e 75 23 a1 3c 7e 21 9e 3d 14 9c d9 bd
       0.40251082 0.019670228 0.07721232 -0.10625473
0002d0 1d 2e 02 3e 95 1a 0e be ba c4 4e 3e 80 73 df be
       0.12712903 -0.13877328 0.20192233 -0.43642807
0002e0 37 b8 cb 3d d2 56 30 bd cb 54 85 bd c9 92 b8 be
       0.099472456 -0.04305155 -0.065103136 -0.36049488
0002f0 fe d2 7c 3e 28 52 c6 3d 66 02 c3 3d 86 ce 4f bd
       0.24689862 0.09683639 0.09521942 -0.050734065
000300 3a 45 09 be ff 9c 29 bf 06 79 1d bf 19 db be be
       -0.13405314 -0.6625518 -0.6151279 -0.37276533
000310 a8 1e 05 be d2 98 36 bd a4 38 2d 3e a1 48 ca 3e
       -0.12999976 -0.044579335 0.16916138 0.39508536
000320 2c 5b 1b bf 8c f7 05 3f 74 55 8f be 62 16 ee 3e
       -0.6068599 0.5233085 -0.27994883 0.46501452
000330 fd ec ab bd b0 4a f4 3d 7b c2 1a 3e 6a 6a af be
       -0.08394811 0.11928308 0.15113251 -0.34260875
000340 7f 35 38 3e 41 09 a4 bc bb 1c 54 3e 23 55 af bd
       0.17989157 -0.020023944 0.20714085 -0.085611604
000350 32 8f 3d 3c 77 cf 61 bd 54 40 b0 3e ec 04 e4 3b
       0.011569785 -0.055129495 0.34424078 0.0069585945
000360 85 7f 61 bf dd 45 13 bd da 6e 9a bd d5 dd 91 3e
       -0.88085204 -0.0359553 -0.075406745 0.28489557
000370 74 3d cd 3d a8 84 59 3b 09 62 a4 be cf 69 94 3c
       0.10021487 0.0033190642 -0.32106045 0.01811686
000380 0f 9f ed 3d 48 f1 2a bd 3a 94 af be 98 25 6f 3e
       0.11602604 -0.04173401 -0.34292775 0.23354185
000390 4d 19 df 3e c5 c5 95 3d 2a 68 97 3d 6a 2c a2 be
       0.4357399 0.07313112 0.073929146 -0.3167451
0003a0 9e f9 db bc 18 56 8f bd 45 4a 19 be 6b 01 43 3e
       -0.026852425 -0.06998843 -0.14969738 0.1904351
0003b0 db 15 c4 3c 65 35 56 3d 2c 7a c7 3a d2 68 60 be
       0.023936203 0.052297015 0.0015218905 -0.21914986
0003c0 c4 fb ad 3d 2a 03 15 be 6c b5 b8 bc 9f 64 af bd
       0.08495286 -0.14551988 -0.022547446 -0.08564114
0003d0 67 a2 dd 3c 69 00 9c 3d f5 08 9c be e7 62 96 be
       0.027054979 0.07617266 -0.30475584 -0.29372332
0003e0 75 d5 2c be c9 02 52 bc 03 9f 94 bd ba ab 37 bd
       -0.16878302 -0.012818047 -0.072568916 -0.044841506
0003f0 3a 4c 43 3e ab f3 b6 3e a1 91 9b 3d 9d 39 e9 bd
       0.19072047 0.3573278 0.07596136 -0.11387942

network_body._body_endoder.seq_layers.2.bias f4 [256]
000000 49 55 06 3e 3b e9 11 be 7c cc 84 3d 0c c9 b4 3b
       0.13118471 -0.14249127 0.06484315 0.0055171307
000010 5d 1f 82 3e a8 86 e0 3c 3c 39 ae bc 8a 7a fb bd
       0.25414553 0.02740796 -0.021267526 -0.12279232
000020 3c e9 14 3e 47 55 f9 3d 5c 9a 49 3d fc 9f 7f 3d
       0.14542097 0.121744685 0.049219474 0.062408432
000030 80 9f 1b 3e 96 bf 28 3e ca ce 8d 3a 31 f8 f1 bd
       0.15197563 0.16479334 0.0010819074 -0.11814917
000040 eb 4a 4a be bf 87 a7 be 56 0d 53 3d 9b e2 71 3e
       -0.19755141 -0.32720754 0.05152639 0.236216
000050 bf 58 ed bb 0f 3c 58 3e 54 35 15 3c b8 ae 40 3e
       -0.0072432454 0.2111666 0.009106953 0.1881665
000060 78 ea 20 3c ff 51 57 be 30 4b 83 3d f0 a0 d0 bc
       0.009821527 -0.21027373 0.06410825 -0.025467366
000070 d8 68 06 3e 06 7d 51 bd 77 e1 9d 3e d5 ca 11 be
       0.13125932 -0.051144622 0.3083608 -0.1423753
000080 c2 56 ff 3d 75 18 ab ba 78 92 2c be f9 bd a5 3d
       0.124677196 -0.0013053553 -0.16852748 0.08092875
000090 1d b4 7f 3e 97 61 81 bc 21 c5 0e 3e bd 05 13 bd
       0.24971052 -0.015793605 0.13942386 -0.035894144
0000a0 cb 8e 5c 3e 90 5c 18 be 69 18 c3 bd 46 84 03 3e
       0.21538846 -0.1487906 -0.0952614 0.12843427
0000b0 24 6d 0a 3e 32 29 f7 bd ed 51 a2 3d f1 cb cb bc
       0.13518196 -0.12068404 0.07925782 -0.02487752
0000c0 38 b8 2d 3e dc 86 18 bc fa 1a 16 3e cb 08 b1 bd
       0.16964805 -0.009309497 0.14658728 -0.08644255
0000d0 fa 8f f2 3d b2 1b 87 3e 3f e8 c9 3d dc f8 da 3c
       0.118438676 0.26388317 0.098587506 0.026729994
0000e0 f9 57 13 be 85 96 8b 3e ee 96 b8 3d 9b 83 63 3d
       -0.14389028 0.27263275 0.090131626 0.05554543
0000f0 e7 18 56 3d ad 38 b8 3e 6d fb 21 be b3 45 6b 3d
       0.052269842 0.3598074 -0.15818568 0.057439517
000100 92 82 8a bc 2b fd cd 3d c3 fd cf 3d d1 7c a1 3d
       -0.016907964 0.100580536 0.10155823 0.07885135
000110 9d e2 4d 3d 4a a8 8d 3d f6 33 d7 bd 81 48 df bd
       0.050264943 0.06916864 -0.10507958 -0.10902501
000120 9b 94 35 be a0 f6 d4 bc 22 92 1e 3c 05 6e 09 3e
       -0.1773247 -0.025996506 0.009678395 0.13420875
000130 b0 60 33 3e 45 d7 9e 3e 2e 06 85 3e f8 3b 8e be
       0.17517352 0.31023613 0.25981277 -0.27780128
000140 5b 55 66 3e 0c ce 41 3e 4b 67 06 be 54 65 2a 3e
       0.22493498 0.18926257 -0.1312534 0.16640216
000150 03 83 2c 3b 63 3d 0c 3e ba ac c0 3c 47 b9 36 bd
       0.0026323206 0.13695292 0.023519862 -0.044610288
000160 ed 36 fb 3d ff 2e 13 bd 5e e4 1f 3e a4 ba a2 3c
       0.12266336 -0.03593349 0.15614459 0.019864388
000170 b2 13 29 3d c8 f3 bd bd de fa d6 bd f1 78 af bd
       0.04127855 -0.09275013 -0.10497068 -0.085679896
000180 66 d0 af 3d f7 45 73 3d 6f 2f f1 3d 0c 41 96 3c
       0.08584671 0.059392896 0.11776625 0.018341564
000190 50 9f 68 bd 52 ac 21 3e 0b 16 58 be 7c 4b 0a bd
       -0.056792557 0.15788391 -0.21102159 -0.033763394
0001a0 44 39 60 bc 31 b6 0f be 5f ab f9 3d 84 3b 1e 3e
       -0.013685528 -0.14034344 0.121908896 0.15452391
0001b0 68 8f cb 3d 2a 19 10 bd 6a 64 25 3d 61 f5 ce 3d
       0.09939462 -0.03518025 0.040378965 0.10105396
0001c0 93 62 3e 3e 3d 85 d5 bb 40 a5 74 3d 57 fb 25 3d
       0.1859229 -0.0065161274 0.059727907 0.0405229
0001d0 83 56 a9 3d ea 32 f1 3d b4 e8 95 3d b1 e1 7b bd
       0.08268454 0.11777289 0.07319775 -0.061494533
0001e0 15 78 58 3e 25 9b 60 bc 6e d6 51 be 6e dd 5b be
       0.21139558 -0.013708864 -0.20491955 -0.21471187
0001f0 90 4a 3b bd ba 0e b4 3d 58 50 08 3e dd ec 41 3d
       -0.045725405 0.08791871 0.13311899 0.04734503
000200 a7 49 b4 3c 57 23 3d 3e 07 60 53 3e 4a e4 8c 3e
       0.022007776 0.18470512 0.206421 0.2751792
000210 94 5d a4 3d af d9 83 bb 9c 0e 1a 3e 39 ec 18 3e
       0.08025661 -0.0040237526 0.15044636 0.14933862
000220 d8 b2 1c be ec d0 f7 3c fa 87 af bd df 58 c1 3d
       -0.15302598 0.030250989 -0.08570857 0.09440779
000230 90 93 89 3e 93 6b a2 3c 99 c2 48 3e 77 2e 20 3e
       0.26870394 0.019826686 0.19605483 0.15642725
000240 b2 47 ef 3b 78 fe 3b 3e 25 76 90 3c b4 6d 24 3e
       0.007302248 0.18358791 0.01763446 0.16057473
000250 ce 02 01 3e fb f1 4d 3e cd 68 9d 3d a5 03 3e 3e
       0.12598726 0.2011184 0.07686005 0.18556078
000260 f7 87 51 bd 66 71 41 be e4 92 5d 3d 0a 3f 0c be
       -0.051155057 -0.18890914 0.054095164 -0.13695922
000270 75 d7 70 3e a5 5c c0 bd 97 03 14 3e f0 0d b3 bc
       0.2351969 -0.093926705 0.14454494 -0.021857232
000280 77 16 8a 3e 50 da f0 3d aa e6 96 3d 27 bf 75 3d
       0.26970264 0.1176039 0.073682144 0.05999675
000290 8b 2e a8 bd 8b 4a da bd c2 db d3 3d fe 24 fe 3d
       -0.08212002 -0.10658749 0.1034465 0.124093994
0002a0 f7 0c 08 be c5 f0 6c be 42 a8 27 3e 95 47 99 bd
       -0.13286196 -0.23138721 0.16372779 -0.07484356
0002b0 bc 19 78 3e 89 8e 14 3d dd 8f 3f 3d 57 d3 81 bc
       0.24228567 0.036268745 0.046768058 -0.015847845
0002c0 c4 46 3a bd 01 fc 5f 3d 0a 1c 07 3c 3d 4e b1 bc
       -0.045477644 0.05468369 0.008246431 -0.021643752
0002d0 c2 49 ff 3d 9c b1 c1 bb 53 37 54 bd bf f5 ba 3d
       0.1246524 -0.0059110653 -0.051810574 0.091289036
0002e0 85 5e 37 bd bd 53 e5 3c 86 76 11 3e 03 18 00 3e
       -0.044767875 0.027994031 0.1420537 0.1250916
0002f0 c6 c4 b5 bd 1b d8 b7 bd 5e 07 f3 3d ab 55 e3 3d
       -0.08875422 -0.08976766 0.118666396 0.11100324
000300 e0 c0 c7 bd 95 1f e3 3d ed dd cc 3d f2 ca 6e be
       -0.09753585 0.11090008 0.100032665 -0.23319605
000310 94 50 5f bd 7a af 35 3e 49 50 d7 3c d9 92 aa 3e
       -0.054520205 0.1774272 0.0262834 0.3331516
000320 2e 85 a6 3d de c3 da 3d 57 cf 75 3c be 44 92 bd
       0.08130871 0.1068189 0.015003047 -0.07142018
000330 2b 7c ff 3c c5 01 34 be 14 77 de bd f1 a2 2b 3c
       0.031187138 -0.175788 -0.10862556 0.01047586
000340 5b e2 86 bd 36 fa 51 3e ab 70 a8 3d 37 c7 4b bd
       -0.06586143 0.20505604 0.08224615 -0.049750533
000350 67 9b 3e bd 9f 29 59 be 6a 8d 87 bd c6 79 d8 3d
       -0.046534922 -0.21207283 -0.066187695 0.105701014
000360 f9 29 99 3d ca e4 9f 3d 50 d7 31 bd ea 40 2d bd
       0.07478709 0.0780731 -0.04341823 -0.042298235
000370 dd 91 f6 3d 3c 3c ae 3c 1d 36 6e 3d 3d 23 0e 3d
       0.1203954 0.021268956 0.058157075 0.034701575
000380 d9 23 2b bd b4 47 c3 3d f4 cd 88 3d 24 c7 b0 bb
       -0.041782234 0.09535161 0.066799074 -0.005394833
000390 c3 9c 35 3e 39 a9 c8 b9 88 0c 37 3e 19 df 3b 3e
       0.17735581 -0.00038273053 0.17875874 0.18346824
0003a0 97 82 24 3e 49 9c 77 3d e6 83 c7 3d a1 ed 11 3e
       0.16065441 0.06045178 0.097419545 0.14250804
0003b0 ea 68 5f 3e 62 27 54 3e ab 6d 05 be cf 81 6e 3d
       0.21817365 0.20718148 -0.13030116 0.058229264
0003c0 2a b8 14 3e 4d 9d b0 bd 5e 2a 90 3e 13 ba 1b 3e
       0.14523378 -0.08623753 0.28157324 0.152077
0003d0 b3 0e 89 3d 2d 0e 2a be 82 50 68 be 68 4c 53 3e
       0.06692257 -0.1660697 -0.22686961 0.20634615
0003e0 14 8b dc 3d 4f c6 a5 3a 69 61 4d bc 7b 09 03 3e
       0.107687145 0.0012647602 -0.012535431 0.12796585
0003f0 c9 62 11 bc ad f7 0a 3d 78 a5 2f 3e 61 37 71 be
       -0.00887365 0.03392761 0.17152965 -0.23556282

network_body._body_endoder.seq_layers.4.weight f4 [256, 256]
000000 97 5e 0b be 17 e0 34 be fe 58 0a be 3e 23 e3 be
       -0.13610302 -0.17663608 -0.1351051 -0.44362825
000010 7f fa 95 3e 54 ab 65 bc fc 3d 12 be 6f 63 d2 bc
       0.29292676 -0.014017899 -0.14281458 -0.02568218
000020 01 23 51 3f 6c 89 ae be 1a 42 9b be 14 3a 95 be
       0.81694037 -0.3408922 -0.3032387 -0.29145873
000030 4a b5 5a 3e 53 b4 2c be 37 d7 35 be 20 78 87 be
       0.21358219 -0.16865663 -0.17757879 -0.26458836
000040 70 b2 14 bd 75 fb 86 be 49 c8 85 be 53 2e 2d be
       -0.036302984 -0.2636372 -0.26129368 -0.16912203
000050 c2 92 04 3d 53 6d 5e 3e 38 85 83 3e 9a b9 6a be
       0.03236652 0.21721391 0.25687575 -0.22922364
000060 15 6d 1e be 40 bb 9c be a7 1e 12 be 18 9e bf be
       -0.15471299 -0.3061161 -0.14269505 -0.37425303
000070 c5 42 f4 be a1 5e 2c be 95 67 5f be 2c af 96 bd
       -0.4770719 -0.16832973 -0.21816857 -0.0735763
000080 4a ac 51 3e 03 19 15 be 3a bc 02 3e 9b 56 b8 3b
       0.2047588 -0.14560322 0.12767115 0.0056255586
000090 27 48 96 3c ff b5 24 bd 72 53 a3 3d 99 29 9b 3e
       0.018344952 -0.040212628 0.079749 0.30305174
0000a0 c6 40 e5 3c 4c ed 06 bf e1 21 7f 3e d1 2b 7d be
       0.027984988 -0.52705836 0.24915268 -0.24723746
0000b0 83 15 72 bd 30 b4 74 be a5 18 84 bd a7 1a 53 3e
       -0.059102546 -0.23896861 -0.06450013 0.20615636
0000c0 64 66 3e 3e ea 80 59 bc 1e c2 e9 3e 6c 45 fb 3b
       0.18593746 -0.013275364 0.45655912 0.007668188
0000d0 1c 75 c8 be 79 5c 9c 3d 06 10 6f bd cd b3 43 bc
       -0.39151847 0.07634825 -0.05836489 -0.011944723
0000e0 0b a3 4e 3b b4 5b 9f 3d 7a 15 57 be 31 46 e8 be
       0.0031530287 0.07781163 -0.21004286 -0.45366052
0000f0 e6 9a ab 3e 70 74 7d 3b 43 45 b4 bd d3 eb 36 be
       0.33516616 0.0038674138 -0.08802273 -0.17863397
000100 5b ff 9e 3e e1 46 92 be e7 8f 1f 3e f5 f4 99 be
       0.31054196 -0.285697 0.15582238 -0.300697
000110 c8 24 8e bc 45 b6 fd 3d 3d 67 68 3e 52 3b 76 be
       -0.017351523 0.12388281 0.22695632 -0.24046066
000120 35 e6 1f bd 9c 64 20 be db 85 30 3e 3a 98 81 3e
       -0.039037902 -0.1566338 0.17238562 0.25311452
000130 79 26 8c ba f1 d4 9c 3e 94 75 34 be af 72 09 bf
       -0.0010692618 0.3063121 -0.17622977 -0.5369062
000140 19 65 b4 3e 93 92 4b 3c 13 c5 84 be 24 ac b5 be
       0.3523338 0.012425083 -0.25931606 -0.35482895
000150 15 80 cb bd 07 29 ac 3e a8 5f e6 bd 57 6a 13 3e
       -0.09936539 0.3362505 -0.11248714 0.14396034
000160 2e 0c 14 be 75 06 14 be a8 9e 48 bd 05 67 05 bd
       -0.14457771 -0.14455588 -0.04897943 -0.03256895
000170 ad e6 7e be 78 af 02 be 83 46 db bd 15 88 47 be
       -0.24892683 -0.12762249 -0.107068084 -0.19485505
000180 6e aa 07 be b5 5a c4 3e 32 3c 4b be 26 69 68 3e
       -0.13248608 0.38350454 -0.19847181 0.22696361
000190 d2 29 45 3e f6 d1 60 bd 6e bf fe bc d6 a6 94 3d
       0.19254234 -0.054887734 -0.03109714 0.07258384
0001a0 bd 33 cd be 5b 20 01 be 64 19 d0 be 49 d6 9e be
       -0.40078536 -0.12609999 -0.40644372 -0.31022862
0001b0 8a 15 0b bc e3 ba 9d 3e 5f fa 29 bb e4 f3 a8 bc
       -0.008489022 0.30806646 -0.0025936586 -0.020624109
0001c0 fb 03 3a be b3 62 15 be be 2e 58 3e 49 3a e4 3e
       -0.18165581 -0.14588432 0.2111158 0.44575718
0001d0 00 4e 29 3d 70 c0 05 3e a3 2a f8 3d dc f3 3c 3c
       0.041334152 0.1306169 0.12117507 0.01153275
0001e0 0a fe e4 be 87 81 a6 be 67 7d e8 3d 7b b9 03 be
       -0.44725066 -0.32520697 0.113520436 -0.12863724
0001f0 b1 6d 91 3c 00 39 dc be 2e d4 ab be f3 14 4b be
       0.0177525 -0.43012238 -0.33560318 -0.1983221
000200 4f a0 d8 3e ce 1f be 3e fb 5e 99 3e 0e 58 c7 3e
       0.42309806 0.3713364 0.29955277 0.38934368
000210 3e 27 16 3c 3d 39 ce 3e 2b 92 c8 bd dd d5 00 3f
       0.0091646295 0.40278044 -0.09793504 0.5032633
000220 27 22 5c be 39 c6 8e 3e 4d 0d 8b be d1 17 be be
       -0.21497403 0.27885607 -0.27158585 -0.37127545
000230 a8 80 85 3e d4 fa 12 be 38 77 f0 be a3 b6 ef 3d
       0.2607472 -0.14353496 -0.46965957 0.11704757
000240 7b 2e 96 be 62 ca ce bd 50 de 0f bd 8c a0 93 3c
       -0.29332337 -0.10097195 -0.035124123 0.01802089
000250 d2 4c 5d bc 3f 63 85 3e 47 6d de 3e 28 43 84 be
       -0.013507085 0.2605228 0.43442747 -0.25832486
000260 a4 e5 74 be 87 b9 48 be a0 dc 70 be cf 3e f8 bd
       -0.23915726 -0.19602023 -0.23521662 -0.12121355
000270 65 f3 fa 3d a4 e4 d5 bb 82 14 4a 3e 69 7b 74 3d
       0.12253455 -0.0065275 0.19734386 0.059688006
000280 6e e9 89 bc 2f 1e 12 3e b2 2c fc 3c e0 c9 f7 3b
       -0.01683494 0.14269327 0.030783031 0.007561907
000290 88 0c 07 bf a0 b0 11 bc 5b 6a 29 bc 30 1b 35 3e
       -0.52753496 -0.008892208 -0.0103402985 0.17686152
0002a0 b4 2d 4a bd b6 46 52 be ad 6e ac 3e 3b c6 b3 be
       -0.049359992 -0.20534787 0.3367819 -0.35112175
0002b0 18 3d 4f 3e a3 2f 1c bd 17 cf 30 bb 18 0b 2b be
       0.20238149 -0.038131367 -0.0026978904 -0.1670345
0002c0 e0 c3 b7 bc ef 2f 17 3d b4 82 58 be 3c 2a be be
       -0.022432268 0.036910947 -0.2114361 -0.37141597
0002d0 05 46 3a 3e 1b d6 b6 be 94 03 98 be 6a bc ab be
       0.18190773 -0.35710225 -0.2969023 -0.33542186
0002e0 fd 51 d9 bd 08 ce a0 bc e0 c7 2a 3e b4 6c 79 3e
       -0.10611341 -0.019629493 0.16677809 0.24357873
0002f0 a7 db 21 bd a9 2f 1a 3d 13 14 db be 07 b9 ac 3e
       -0.039516117 0.03764311 -0.42788753 0.33734915
000300 aa 16 91 be 4c 1d af 3e 0d da 6a be a2 18 d0 bd
       -0.28337604 0.3420204 -0.22934742 -0.10160948
000310 ac 00 d8 bd 64 71 cb 3d 59 03 b3 bd 0f 27 84 be
       -0.10547003 0.09933737 -0.08740873 -0.2581105
000320 fa c0 2e 3e 53 8a 18 be 44 56 05 3e 43 66 87 bd
       0.17065802 -0.14896517 0.13021189 -0.06611302
000330 17 15 2d 3e db 60 ca be 5d 21 b4 be 5a e8 b2 3e
       0.16902576 -0.3952702 -0.35181704 0.34942895
000340 6e de 7e be f4 d4 00 bd 09 75 a8 be 79 8c 0a 3e
       -0.24889538 -0.031453088 -0.3290179 0.13530149
000350 4d 62 50 bc b8 a7 4c be b4 b7 32 3d ef 10 d6 3d
       -0.012718749 -0.19985855 0.043632224 0.104524486
000360 fe 24 3d be 61 93 d2 3e b4 5f 1c be 5d 60 eb 3d
       -0.18471143 0.41128066 -0.15270883 0.11492989
000370 27 c1 28 be ad 8d 6c 3e 68 ce 27 3d 47 cf 50 3d
       -0.16479932 0.2310092 0.04096833 0.050978925
000380 61 f8 92 be 4f 65 b6 3c 15 fc c9 be 94 f5 1b be
       -0.28705123 0.022265105 -0.39450136 -0.152304
000390 02 ba 73 3e a4 11 93 be 39 7e bf 3e 54 fb 8a be
       0.23801425 -0.28724396 0.37400988 -0.27144873
0003a0 9d d3 f8 bd f2 43 e1 bd ce b0 e4 3d 85 ac e6 be
       -0.12149737 -0.10999288 0.11166535 -0.45053497
0003b0 40 b7 c5 3d 7e 12 85 be 86 c4 ff 3d cf e2 a7 3c
       0.09654093 -0.2599067 0.12488656 0.020493893
0003c0 7c 9a 55 3e e6 e3 c7 3e 49 d4 0f 3e c7 e3 18 3a
       0.20859712 0.3904106 0.14045824 0.00058322813
0003d0 3e 0a 62 3d b7 8a 59 be f5 f7 28 bc 28 a8 76 bd
       0.05518555 -0.21244322 -0.010313024 -0.06021896
0003e0 e9 3c aa be 20 8a 91 3e b4 79 15 be 3a bb 8a bd
       -0.33249596 0.28425694 -0.14597207 -0.06773992
0003f0 4b cf d9 bd 5f ca 4b 3e cf 40 82 3e 56 00 84 be
       -0.10635241 0.19901417 0.2544007 -0.25781506

network_body._body_endoder.seq_layers.4.bias f4 [256]
000000 16 be 20 3e f5 65 43 bd 8f eb 47 3d b0 1f 81 bd
       0.15697512 -0.047704656 0.04880863 -0.06304872
000010 cd ec b1 bc f7 84 31 be f9 28 7c 3e f5 67 3e bd
       -0.02171936 -0.17335878 0.24625005 -0.04648586
000020 5f 79 2b bd d7 b5 1c be 0b ca bb bd 59 f5 25 3a
       -0.041863795 -0.15303741 -0.09169396 0.000633081
000030 83 c4 59 3e 52 d0 b0 3d 51 a6 d0 3e 67 ba ee 3d
       0.2126637 0.08633484 0.4075189 0.11656647
000040 4b 23 1f 3e 0b a7 46 3e 75 f0 c5 3d 6d 20 9c 3e
       0.15540807 0.1939966 0.09665004 0.3049349
000050 d8 dc 7c 3d 27 5f 6f bc 3b a3 06 bc 1b 8c e0 3d
       0.06173405 -0.014610088 -0.008217628 0.10964223
000060 e4 22 51 3e 74 fa 71 be ca 09 de 3d ee 58 95 bd
       0.20423466 -0.23630697 0.10841711 -0.072923526
000070 48 6a 0c 3e 48 f3 24 3e 51 df 40 3e 5a 6d 78 3e
       0.13712418 0.1610843 0.18835188 0.24260464
000080 98 22 a4 3e 7f 0a 55 3e 3b 29 1c 3d d7 33 6c bc
       0.32057643 0.20804785 0.038125258 -0.014416656
000090 63 14 9a 3e af d1 49 ba 8b 15 df bd 53 05 c1 bd
       0.3009368 -0.0007698787 -0.10892781 -0.09424844
0000a0 59 03 2e 3e 44 16 c4 3e 3b 3e 70 3e 00 d3 f5 3d
       0.16993465 0.38298237 0.23461239 0.12003136
0000b0 c0 df 0f bd af 8c b5 bc 6b 5d ae 3d 26 77 17 be
       -0.035125494 -0.02216181 0.08513912 -0.14791545
0000c0 74 08 87 3e 78 23 4e 3e bd 87 c9 3d 8e 08 06 3e
       0.26373637 0.20130718 0.09840343 0.13089201
0000d0 75 00 61 3e c4 36 85 3e 7d 26 d2 3c 50 67 ca bc
       0.2197283 0.26018345 0.025653118 -0.024707466
0000e0 42 2a 5a 3c 49 c1 ef bc fa 95 50 be d0 29 8c 3e
       0.013315739 -0.02926697 -0.20369712 0.2737565
0000f0 73 b3 cf 3e 70 a9 95 3d 75 19 d4 bd c0 3a 60 3e
       0.40566596 0.07307708 -0.10356418 0.21897411
000100 c4 6f cb bd 1e 66 0c 3e 35 fa db 3d 02 8c 78 3e
       -0.09933427 0.1371083 0.107410826 0.24272159
000110 d5 7f 5b bc a2 4d 94 3d 4e a1 97 3c 3d 5f 02 3e
       -0.013397177 0.0724137 0.018509533 0.12731643
000120 d8 ea 21 bc 1f 18 89 3e bb 63 83 3d 02 65 25 3e
       -0.009882651 0.26776215 0.064155065 0.16151813
000130 4f b5 0c 3e 8d b2 8c bc 1f 2e 7f 3e 1b 40 ed 3d
       0.13741039 -0.017174983 0.24919938 0.11584493
000140 c0 17 48 3e 9c 0c 98 bc 4b 1c 12 3e 78 71 ba 3e
       0.1954031 -0.0185607 0.14268605 0.36414695
000150 22 e1 ed bc a8 13 83 3e 48 9f 73 3e 9a 0e e4 3c
       -0.029038016 0.25600934 0.2379123 0.027838994
000160 b8 ed 0e 3e 31 60 a8 bd 50 04 39 3c b7 01 cf 3c
       0.1395787 -0.08221472 0.011292532 0.025269372
000170 02 76 d2 bc ed fa 90 3e f0 ac 44 3e 84 d7 01 3e
       -0.025691036 0.2831644 0.19206595 0.12679869
000180 6f c0 b6 bd 92 83 d2 3d 45 28 9f 3d e9 98 dd 3d
       -0.089234225 0.10279001 0.07771353 0.10820181
000190 54 da b2 3e 84 aa 8c bd d3 e0 40 3e 16 96 79 3d
       0.34932196 -0.06868461 0.18835764 0.06093415
0001a0 04 50 ae 3e 25 e3 d8 3d 39 1d 20 3e 41 ce a7 3e
       0.34045422 0.105901994 0.15636148 0.32774547
0001b0 95 fb 2f 3e d5 36 39 3e 38 0d c6 3e 65 e7 28 3e
       0.17185815 0.18087323 0.3868196 0.1649452
0001c0 0a e1 57 3d 27 d9 7f 3e c3 10 f1 bc e2 e2 c7 3d
       0.05270485 0.24985181 -0.029426938 0.09760071
0001d0 18 2f 00 3d 6a fe 93 3e 2e be 39 be 6d 43 9f 3d
       0.031294912 0.2890504 -0.18138954 0.07776532
0001e0 c9 99 19 3e 10 87 e4 3d fc 93 ae 3d 66 33 04 bc
       0.1500007 0.11158574 0.085243195 -0.008068895
0001f0 2a 0f 30 be 4f f5 98 3e be 24 f4 bd f9 ee 38 ba
       -0.17193285 0.29874656 -0.119210705 -0.00070546527
000200 7b f1 38 bd b6 d2 8f bd bf 1a bb 3d 0f 40 9e 3e
       -0.04515217 -0.07022612 0.09135961 0.30908248
000210 cf cf 0a 3d 0f 66 90 3e e5 94 68 3e 7d 09 15 3e
       0.033889588 0.28202865 0.22713049 0.145544
000220 2a 0d 97 bd 95 34 be 3e 92 aa cd bb 2a 61 24 3e
       -0.07375558 0.37149492 -0.006276437 0.1605269
000230 e8 e4 34 be ee 91 ae 3e ef c8 01 3c 38 c2 8d bc
       -0.17665446 0.3409571 0.007921441 -0.017304525
000240 61 15 14 be d0 99 31 bd f6 61 7b bd ac 89 c8 3d
       -0.1446128 -0.043359578 -0.06137272 0.09791884
000250 f5 c6 57 3e 10 09 75 3e 50 e7 ae bc bc 3b cb bd
       0.2107199 0.23929238 -0.021350533 -0.09923503
000260 a2 3e f1 bd eb 17 e7 3e 9c e2 4d bb d5 ac b5 bc
       -0.117795244 0.45135435 -0.0031415587 -0.02217714
000270 9b ca 60 3e d8 a4 b7 3d 79 de a4 3d ec a4 43 3d
       0.21952288 0.08966988 0.08050246 0.047764704
000280 54 c7 e3 3d e5 5b 56 3d 01 49 09 3e b8 d4 b7 3d
       0.11122003 0.05233373 0.13406755 0.0897612
000290 21 47 2e 3e b6 66 a0 3e 5f 4f fa 3d 50 68 19 be
       0.17019321 0.31328362 0.1222217 -0.14981198
0002a0 a1 e0 c0 3d cf 10 0b bc e6 c7 77 3d 24 be bb 3d
       0.094178446 -0.008487894 0.060493372 0.09167126
0002b0 35 19 e3 bd 18 90 97 3e d5 f8 a3 bc db 3f 5c bb
       -0.11088792 0.29602122 -0.020016113 -0.0033607397
0002c0 cc c2 82 be b4 94 02 bd 20 8c bf bd a5 6d a3 3e
       -0.25539243 -0.031880096 -0.093528986 0.3191959
0002d0 9c 6d 0c 3d c7 18 17 3e 89 07 12 3d e3 6d 23 3e
       0.03428422 0.14755546 0.035651717 0.15959887
0002e0 e0 8f 6a bd 11 24 b6 3d c7 f7 5b 3e 7a b7 ac 3d
       -0.057266116 0.08893598 0.21481238 0.08433433
0002f0 a5 8a 84 3e 2b 55 7a 3e d7 d6 34 3d ba dd b7 3d
       0.25887027 0.24446552 0.0441502 0.08977838
000300 27 1a b7 3d 68 d3 92 bd b7 ea 7c 3e 98 13 59 3e
       0.08940535 -0.07169229 0.24698912 0.2119888
000310 6f 28 74 3e 34 cb 2f 3e 28 4b 45 3b 80 de 1c 3e
       0.23843549 0.1716736 0.003010461 0.15319252
000320 1f 77 45 3e a1 a1 d8 bc b5 5a 0d 3e 8d 6b b7 3d
       0.19283722 -0.026444258 0.13804133 0.089560606
000330 48 f2 89 3e a0 cd 07 3e ed 74 bd 3e 5a ff 0f 3d
       0.26942658 0.13262033 0.3700327 0.03515563
000340 6a 05 36 3e 42 df 81 bd f1 00 04 3d fa 7b 91 3d
       0.17775503 -0.06341411 0.03222746 0.07103725
000350 d4 f1 1e 3e a6 24 01 3b 3d 0d c3 bd b3 87 85 3e
       0.15521938 0.0019705682 -0.095240094 0.26080093
000360 ca 79 51 3e ed b8 db 3d 56 4b 29 bd 26 ef 06 bd
       0.20456615 0.10728631 -0.04133161 -0.032942913
000370 3c aa 44 3d 8c 5b bd 3e 14 89 bb 3e 62 99 11 3e
       0.04801391 0.36983907 0.3662802 0.14218667
000380 4a 7b 45 bd e4 51 41 bb b8 67 47 3e 04 f5 76 3e
       -0.04821328 -0.0029498274 0.1947316 0.24116904
000390 a1 34 a7 3d 93 29 85 3e eb e6 a1 3e 97 73 8e 3e
       0.08164335 0.2600828 0.3162149 0.27822563
0003a0 31 20 38 bd 79 de 3e 3c dc 03 1c 3c 92 44 4d 3e
       -0.044952575 0.011649721 0.0095224045 0.20045689
0003b0 0f 68 c4 3d 3d 54 70 3e cf cb cf 3c 08 1e 78 3e
       0.0959016 0.23469634 0.025365738 0.24230206
0003c0 f8 55 84 3e 73 5c 08 3e 6c 80 f6 bc 06 ae 83 bd
       0.2584684 0.13316517 -0.030090533 -0.06429677
0003d0 97 b2 8c 3d 0f 7f 14 3d a1 36 10 bd f9 77 a4 3e
       0.06870001 0.036253985 -0.03520835 0.32122782
0003e0 39 bb 72 3e 0a 35 5d 3d e1 85 5d bc 86 53 8c 3e
       0.23704232 0.05400566 -0.013520689 0.27407473
0003f0 44 cf 93 3e 64 b5 32 3d 3e 98 14 3b fb 4c 06 3e
       0.2886907 0.04363002 0.0022673751 0.13115303

action_model._continuous_distribution.log_sigma f4 [1, 2]
000000 c3 07 08 41 25 ba 0e 41
       8.501895 8.920445

action_model._continuous_distribution.mu.weight f4 [2, 256]
000000 67 64 01 bf 8d f9 9f 3e 65 38 02 3f 2d 4c ad 3e
       -0.50543827 0.3124508 0.508673 0.3384718
000010 54 9d 78 3e b4 45 45 3e ec 2c 8f 3c 6f 77 02 3d
       0.24278766 0.19264871 0.017477475 0.031852182
000020 a8 d7 99 3d 33 de 27 3d c1 7e 25 3e 3d 12 87 3e
       0.07511836 0.04098339 0.16161634 0.26381102
000030 69 26 4d bd c2 5a 87 be 0f ed 05 bf 8a 37 7a 3e
       -0.05008546 -0.2643643 -0.5231485 0.24435249
000040 3a f2 f3 be dd 2f 05 3e 43 e7 f2 3e 98 3d 87 be
       -0.47645742 0.1300654 0.47442064 -0.2641418
000050 ad b2 2d 3e 0a 92 4b 3e 13 7e 52 3e ac cd 44 3e
       0.1696269 0.19879928 0.20555906 0.19219083
000060 d1 e9 2c 3f 49 b5 48 be 7e 91 33 bd 5b b7 83 3e
       0.67544276 -0.19600405 -0.043839924 0.25725827
000070 a9 d6 3d be 02 1a a4 bd b2 68 eb be dd c8 e9 be
       -0.18538918 -0.08012773 -0.45978314 -0.4566106
000080 1c a0 87 be 21 15 b2 3e 6a 1f c6 3e 87 e3 87 3e
       -0.2648934 0.34781745 0.38695842 0.26540777
000090 72 82 9a 3e 1e da af 3e 98 4f 84 3e d9 53 5a bd
       0.30177647 0.34346098 0.25841975 -0.05330262
0000a0 52 2d c0 3e 84 33 12 bf 5d 20 4b be aa 9b 0e 3d
       0.37534577 -0.57109857 -0.19836564 0.03481642
0000b0 cc 66 df 3d 36 42 93 bd fa 2b 03 3e d4 01 34 3e
       0.10908279 -0.07190363 0.12809744 0.17578822
0000c0 77 ae 7c bd 1a cd 31 3e db 26 0e 3e ae 0e 8e be
       -0.06168982 0.17363396 0.1388201 -0.27745575
0000d0 11 06 23 bd 5f 7e 47 3e aa ef 40 3e ee b0 66 bd
       -0.039800707 0.194818 0.18841425 -0.056321077
0000e0 52 9e a0 3e 75 6e 35 bd fc e5 e1 3d eb 76 0a 3e
       0.3137079 -0.044294793 0.11030194 0.13521926
0000f0 f3 23 a8 be a8 ee a0 3e fb 20 03 3f 87 f2 f4 be
       -0.32839927 0.3143208 0.512222 -0.47841284
000100 d4 f8 6b 3e 05 69 8f be 5b 0d 6d 3e 99 69 ee 3e
       0.23044139 -0.2800981 0.23149626 0.4656494
000110 1b b3 89 3e f4 82 d9 3c 85 24 62 3e b0 0c 37 be
       0.2689446 0.026551701 0.22084244 -0.17875934
000120 98 95 50 3e 8d a4 c7 be 0c 95 69 3e 4c fa 59 3e
       0.20369565 -0.3899273 0.22810763 0.21286887
000130 ca ac af bd 09 42 0b 3f bc 6b b3 be f1 4b 9b 3e
       -0.08577879 0.54397637 -0.35043132 0.30331376
000140 01 a4 8f be 63 16 95 3e cf 3a ce be e2 c9 85 3d
       -0.28054813 0.29118642 -0.40279242 0.06532647
000150 2f 9f 6d 3e 77 cd 16 be c4 f6 c7 3e a0 5d 03 3e
       0.23205255 -0.14726816 0.39055455 0.12828684
000160 fd 84 da bd 94 62 67 3e 71 5c b5 3e 7e f3 f3 3e
       -0.10669897 0.22596198 0.3542209 0.47646707
000170 b1 11 8e 3e 2d 7a 19 bf 5d a0 47 3e 94 d2 11 bf
       0.27747872 -0.5995205 0.19494767 -0.5696194
000180 aa ed cb bc be 0f 43 3e c9 6e d6 3e e6 6d 94 3e
       -0.0248936 0.19048974 0.41881397 0.28990096
000190 53 c6 37 bf 39 4e 71 3e 5a 71 a7 be 4d 4a 29 bc
       -0.71786994 0.23564996 -0.32703668 -0.010332656
0001a0 6e 57 1c bf 44 35 85 3e a2 48 eb 3d 52 9d 09 bf
       -0.6107091 0.260172 0.11488463 -0.53755677
0001b0 d5 3a 88 be 7f 86 78 3e c0 e2 5f bf fd 8c cd 3e
       -0.26607385 0.24270056 -0.8745537 0.40146628
0001c0 f2 50 a9 3e f4 62 4c 3e ae 59 a3 3d 80 eb 5d bd
       0.3306957 0.19959623 0.079760894 -0.05417967
0001d0 f3 c4 0e 3d d6 4c 18 bf 2c ee dd 3d 89 e3 67 bd
       0.034855794 -0.5949224 0.10836443 -0.05661348
0001e0 ef 2f 0c 3f 7c ae 09 3e 5e 13 7a bd 6e 3f 6a 3e
       0.5476064 0.13445467 -0.061053626 0.22875759
0001f0 60 3e 16 3e b5 5b 90 3e 62 55 e3 3e bb 4a eb 3e
       0.14672232 0.28194967 0.4440108 0.45955452
000200 f3 6d 35 be 67 44 8b 3e bf 1b 16 3d 4c 40 ec be
       -0.17717724 0.27200624 0.036647554 -0.46142805
000210 27 d9 8d 3d 59 c3 18 bf 5e 5e a9 be 34 35 85 bd
       0.06926184 -0.59673077 -0.3307981 -0.06504288
000220 56 7d a6 3e 79 b8 0c bf 41 90 37 bd ec b6 0c bf
       0.325175 -0.5496898 -0.044815306 -0.54966617
000230 05 67 48 3e 8b 2f 8c be f6 07 86 3d ce ec a6 bd
       0.19570549 -0.27380022 0.06544487 -0.08150636
000240 bc 17 5d 3e f0 c8 8f 3e 98 48 e9 3d 35 8a 62 3e
       0.21591085 0.2808299 0.11390799 0.22123034
000250 f6 b6 7a be da 23 c7 3e 75 b3 90 3e d3 c1 b7 3e
       -0.24483857 0.3889454 0.28261915 0.35890064
000260 eb 4f 7a 3d 94 bf 1b bf f7 61 81 3e 49 bf ba 3d
       0.061111372 -0.608392 0.25270054 0.09118516
000270 19 6c 94 3c 08 e1 a7 be 27 06 1b bd 3c b2 20 3e
       0.018117951 -0.32788873 -0.037847664 0.15692991
000280 84 0e 11 3f 48 e4 ad 3e 65 02 14 be 9f 93 cc 3e
       0.56662774 0.33963227 -0.14454038 0.39956376
000290 c1 86 e2 bb fd 07 15 bf 39 6d cd 3e 3b ff 7f 3e
       -0.0069130366 -0.58215314 0.40122393 0.24999706
0002a0 fe 55 67 3e cb 9a 7b 3e ce c8 ba 3e 73 fc 0e bf
       0.22591397 0.24570768 0.36481327 -0.55853957
0002b0 39 a3 4b 3e 5b 2b 0f bf c1 f0 13 3e d9 2f c8 3e
       0.19886483 -0.5592553 0.14447309 0.39099005
0002c0 10 2d 9f 3d f2 0c 68 3e a4 31 b0 3e 30 0f e9 bd
       0.07772267 0.22661188 0.34412873 -0.1137985
0002d0 fc 1a 55 3e c2 d6 69 3e 05 ae d5 be 7f 87 49 3e
       0.20811075 0.2283583 -0.4173433 0.19680594
0002e0 7c 9a 2c be a2 c0 96 be 53 8e 30 bf 00 93 d0 3d
       -0.16855806 -0.29443842 -0.6896717 0.10184288
0002f0 cc 61 07 bf ff 11 ee be 83 7d aa 3e b4 95 fd 3e
       -0.528836 -0.46498105 0.33298883 0.49528277
000300 db f7 38 bb 11 5b 2b 3b eb a8 45 bd 90 20 01 3e
       -0.0028223905 0.002614681 -0.048256796 0.12610078
000310 63 44 ed be d7 52 06 bf 1d dc 96 3e 06 2d ee 3e
       -0.46341237 -0.52470154 0.29464808 0.46518725
000320 0f fb ff be 9a 8b 77 bd e7 aa 6a bd ef 85 9c 3e
       -0.4999623 -0.06043587 -0.05729189 0.30570933
000330 71 b2 82 3e 79 48 0c 3c ce b0 38 be 04 4d b2 3e
       0.25526765 0.008562201 -0.18036196 0.34824383
000340 52 c8 c8 bd 75 83 a9 3e d4 1a a4 3e 37 cf 00 3e
       -0.09803833 0.33108106 0.32051718 0.12579046
000350 53 f8 a3 be 30 b7 1f bd d3 64 c8 3d 7d e3 32 bf
       -0.32025394 -0.03899306 0.09784856 -0.6987837
000360 4a 88 f3 3e fd d0 2b 3d b9 65 cc 3e 38 e2 4a 3d
       0.47564918 0.041947354 0.39921358 0.049532145
000370 bd 02 aa 3e 6a 68 de be fc c9 8c be 1b f3 d2 3d
       0.33205214 -0.43439037 -0.27497852 0.10300275
000380 2f 97 89 bd 4b 27 2d 3f d6 52 0c bf d7 c1 23 bf
       -0.06718289 0.6763808 -0.548139 -0.6396765
000390 4e 23 9e 3e 2f 0f fe be 6a 28 ff be ce cd fb be
       0.3088631 -0.4962096 -0.4983552 -0.49180454
0003a0 2a ea a5 bc a1 ae 9a 3e 47 80 8f 3e ff 98 fc be
       -0.02025326 0.30211356 0.28027555 -0.49335477
0003b0 10 1c 4d be 47 a7 e7 be a7 37 d6 3d af 21 b1 be
       -0.20030236 -0.4524481 0.104598336 -0.3459601
0003c0 65 86 b8 bd d7 4a 5a 3d 74 64 ce bd ef 0c 1c 3d
       -0.09010009 0.05329403 -0.10077754 0.038098272
0003d0 96 fe af 3e bf e8 2b bf 7b 68 c2 3e 91 55 28 bf
       0.3437392 -0.6715202 0.37970337 -0.65755564
0003e0 bd 47 ee be 74 82 c9 be 02 dc 56 3e 33 f5 e7 bc
       -0.46539107 -0.3935734 0.20982364 -0.028315162
0003f0 72 30 e8 3e 82 ac 1b 3f 4a fa a3 3e 9b d9 3a 3c
       0.4534946 0.608101 0.32026893 0.01140442

action_model._continuous_distribution.mu.bias f4 [2]
000000 33 72 da bd f9 34 10 3e
       -0.10666313 0.14082707
