Assets/53_3.onnx (onnx, 648067 bytes, 10 tensors)

network_body._body_endoder.seq_layers.0.weight f4 [256, 107]
0	0x3e0c3b09	0.13694395
1	0xbdad2bc2	-0.08455612
2	0x3d593b8f	0.053035315
3	0xbf05560a	-0.5208441
4	0xbda27dfc	-0.07934186
5	0xbe5d3e9e	-0.21605918
6	0x3e94162f	0.28923175
7	0xbebef5e7	-0.37296984
8	0xbdd9b7a6	-0.10630731
9	0xbdf77475	-0.12082759
10	0xbe8d4260	-0.27589703
11	0xbf2a5ff0	-0.6655264
12	0xbd526404	-0.051364914
13	0xbe27bc68	-0.16380465
14	0x3e71fb2a	0.23630968
15	0xbe904e0f	-0.28184554
16	0xbd7878cf	-0.060662087
17	0xbd631846	-0.05544307
18	0xbeb27a98	-0.34859157
19	0xbf0023cb	-0.50054616
20	0x3cd964f3	0.026537394
21	0x3d9394d7	0.07206123
22	0xbefba341	-0.4914799
23	0xbd8bf721	-0.068342455
24	0xbd44f584	-0.048085704
25	0xbddbe4ff	-0.10737037
26	0x3ed25024	0.41076767
27	0xbf2927fa	-0.66076624
28	0x3b7837ad	0.0037874982
29	0xbd996b4d	-0.07491169
30	0x3ed51791	0.41619542
31	0x3e522fbe	0.20526025
32	0xbbe2864d	-0.0069129826
33	0xbe06f2c1	-0.13178541
34	0xbedb0cbd	-0.42783156
35	0xbf19cd84	-0.60079217
36	0x3d3be580	0.045873165
37	0xbdbfa5b6	-0.09357779
38	0xbdac46e6	-0.0841196
39	0x3e001b69	0.12510456
40	0xbe47dd40	-0.19517994
41	0x3cc6e5eb	0.024279555
42	0xbec0715c	-0.37586486
43	0xbf0c0980	-0.54701996
44	0xbd6cf064	-0.057846442
45	0xbc288611	-0.01028587
46	0xbe210154	-0.15723163
47	0x3dde7cca	0.108636454
48	0x3e483b88	0.1955396
49	0xbd36f0c0	-0.04466319
50	0xbc98580e	-0.018596675
51	0xbf1b40f3	-0.6064598
52	0xbe21dc47	-0.15806685
53	0xbc8cdce3	-0.01719517
54	0x3e6eca91	0.2331946
55	0x3edb952a	0.4288724
56	0xbbd1617b	-0.0063897944
57	0xbeb89cac	-0.3605703
58	0xbc5f59bf	-0.013632237
59	0xbf3a3462	-0.7273618
60	0x3e39ca03	0.18143468
61	0xbdee1dd1	-0.11626781
62	0x3e3a3e70	0.1818788
63	0x3e73acd7	0.23796402
64	0xbc27ff3f	-0.0102537265
65	0xbd9087bd	-0.0705714
66	0xbefec811	-0.49762014
67	0xbf0c70f1	-0.54859835
68	0xbdb54827	-0.088516526
69	0xbed025fe	-0.40653986
70	0xbe72533c	-0.23664564
71	0xbcb2d874	-0.021831729
72	0x3d96aa40	0.07356691
73	0x3ced9b13	0.02900461
74	0x3d888b73	0.06667223
75	0xbe98373c	-0.2972964
76	0xbd58d3a6	-0.05293622
77	0xbeeb927e	-0.46010202
78	0x3f216f97	0.630609
79	0x3e97c931	0.29645684
80	0xbdb4529e	-0.088048205
81	0xbdba8616	-0.09107606
82	0x3de6c5a3	0.11268165
83	0xbdd5858c	-0.10425863
84	0xbdc20a4c	-0.0947462
85	0xbd38e835	-0.045143325
86	0x3ed2aa8b	0.4114574
87	0x3e2b9975	0.16757758
88	0xbd9ba388	-0.075995505
89	0x3e2ada1b	0.16684763
90	0x3e5f2a7b	0.21793549
91	0x3deb374e	0.11485158
92	0xbdd5b192	-0.104342595
93	0xbe21b0b5	-0.15790065
94	0xbd782786	-0.060584567
95	0xbd5817fc	-0.05275725
96	0xbdc41456	-0.09574191
97	0xbd1d028d	-0.03833251
98	0x3e444c08	0.19169629
99	0x3d2243b5	0.03961535
100	0xbe8128e0	-0.25226498
101	0x3e1a8e69	0.15093388
102	0xbcdd50d5	-0.027016083
103	0xbd3f3aca	-0.046686925
104	0xbe266fc1	-0.16253568
105	0xbe44371b	-0.19161646
106	0x3d97a008	0.074035704
107	0xbdde1c71	-0.108452685
108	0xbd8a26ae	-0.06745659
109	0xbec00160	-0.3750105
110	0x3e3d5bd0	0.18492055
111	0xbd81bf98	-0.06335372
112	0xbeaa3dca	-0.33250266
113	0xbf244f7e	-0.64183795
114	0x3e957440	0.29190254
115	0x3c3ca316	0.011513492
116	0xbd94259d	-0.07233737
117	0xbe130b7c	-0.1435985
118	0x3e027c9d	0.12742849
119	0x3c838661	0.016055288
120	0x3d668117	0.056275453
121	0xbc9015e3	-0.017588561
122	0x3e1087ef	0.14114355
123	0x3d69ca5b	0.057077747
124	0xbdd2ad17	-0.102869205
125	0x3ed204b6	0.4101922
126	0x3e128d26	0.14311656
127	0x3db52a17	0.088459186
128	0x3db65cc5	0.08904413
129	0xbe62b6ef	-0.22140096
130	0x3de784e6	0.11304645
131	0x3e6f7271	0.233835
132	0xbef84723	-0.48491773
133	0x3de3dabc	0.11125705
134	0xbda20b57	-0.07912319
135	0x3d3ebac3	0.04656483
136	0x3dd42377	0.10358327
137	0xbc8c9142	-0.017159108
138	0x3e026d69	0.12737049
139	0x3d91bc78	0.07116026
140	0xbe3f97c5	-0.18710239
141	0xbf87e66a	-1.0617192
142	0xbe52cffc	-0.20587152
143	0x3dca880b	0.098892294
144	0x3ceefe38	0.029173955
145	0xbe8d34e7	-0.27579424
146	0xbe034408	-0.1281892
147	0x3e056977	0.13028513
148	0xbe17b382	-0.1481457
149	0xbe613fc1	-0.21996976
150	0x3d7e4647	0.06207874
151	0xbc3badca	-0.011455009
152	0xbeb9cfe4	-0.3629142
153	0x3f1b66ec	0.6070392
154	0xbed337d5	-0.41253534
155	0x3ca19952	0.01972643
156	0xbe320f4f	-0.17388652
157	0xbef28c08	-0.4737246
158	0x3dba403b	0.09094282
159	0x3d7522d9	0.059847686
160	0x3ef310ee	0.47473854
161	0xbed19c0b	-0.40939364
162	0xbeb0dce4	-0.34543526
163	0x3e29649b	0.16542284
164	0xbe708a0e	-0.23490164
165	0xbe1c003e	-0.15234467
166	0x3e01f7b9	0.12692155
167	0x3e46e079	0.19421567
168	0x3e1f8999	0.15579833
169	0x3cfb88f6	0.030704957
170	0xbddec785	-0.10877899
171	0xbdf409f1	-0.11915959
172	0xbe5fcc79	-0.21855344
173	0x3eaf3d33	0.3422638
174	0xbe53a7fc	-0.2066955
175	0xbe355a1a	-0.17710152
176	0xbe902a50	-0.28157282
177	0xbd794bcc	-0.0608633
178	0xbea04179	-0.31299952
179	0x3d9b7e04	0.07592395
180	0x3e164e35	0.14678271
181	0xbd1f0675	-0.038824517
182	0xbcaa7cd4	-0.020811476
183	0xbd9c6329	-0.07636101
184	0x3e46d0e2	0.1941562
185	0xbccfabab	-0.025350412
186	0xbe3dfce9	-0.18553509
187	0xbd956df6	-0.07296364
188	0x3d433d40	0.047665834
189	0xbe8c2dfb	-0.2737883
190	0x3d8306cd	0.063977815
191	0xb95ef35b	-0.00021262227
192	0x3d6cc1b8	0.057801932
193	0xbea38cf4	-0.31943476
194	0xbdb4407c	-0.08801362
195	0xbd65e0c0	-0.05612254
196	0x3c892ca6	0.016744923
197	0x3e9826e7	0.2971718
198	0xbd1d06af	-0.038336452
199	0xbe1a7ea7	-0.15087377
200	0xbc9c8839	-0.019107925
201	0x3e957ebd	0.29198256
202	0xbea2888a	-0.31744796
203	0x3d2ad7d2	0.04170973
204	0xbe391ac0	-0.1807661
205	0x3e2eb52d	0.170613
206	0xbdfde5c4	-0.1239734
207	0xbd94c7b4	-0.07264653
208	0x3e91a8ad	0.28449002
209	0xbfa71383	-1.305283
210	0x3e4879d2	0.19577721
211	0xbd5508b9	-0.05201027
212	0xbf19be9f	-0.6005649
213	0xbdfafbaa	-0.12255032
214	0xbe152c71	-0.14567734
215	0xbe950756	-0.2910716
216	0xbe46aef6	-0.1940268
217	0xbe7722a6	-0.24134311
218	0xbdb5ffc2	-0.088866726
219	0x3e35883d	0.17727752
220	0x3d4b8110	0.04968363
221	0xbdc6093a	-0.096697286
222	0xbdbbc8f5	-0.09169189
223	0xbe65895d	-0.22415681
224	0xbe11556b	-0.1419274
225	0xbdb8209e	-0.08990596
226	0x3cebe736	0.028796773
227	0x3ee96e2b	0.45591864
228	0x3dd01061	0.10159374
229	0x3dd540d6	0.10412757
230	0xbdc66caa	-0.09688695
231	0x3cd6c203	0.026215559
232	0x3f031299	0.5120025
233	0x3d0e645a	0.03476367
234	0xbda1a783	-0.078932784
235	0x3e02f362	0.12788156
236	0x3d82d455	0.06388155
237	0x3dbecfd0	0.09316981
238	0x3d902bea	0.07039626
239	0x3e0a0dfd	0.13481899
240	0xbe1aa24a	-0.15100971
241	0xbd9c69e2	-0.07637383
242	0xbd948eca	-0.07253797
243	0xbca39da6	-0.019972634
244	0xbe30c94c	-0.17264289
245	0x3d145165	0.036210436
246	0xbe4687c2	-0.19387725
247	0x3d4fc803	0.050727855
248	0xbd1f6817	-0.038917627
249	0xbdf8cb6e	-0.12148176
250	0x3ded7ac1	0.11595679
251	0x3d6ad0fe	0.057328217
252	0xbdc9d1d3	-0.09854474
253	0xbd5ccd88	-0.053906947
254	0x3cb486bb	0.0220369
255	0xbc2bc01c	-0.010482814

network_body._body_endoder.seq_layers.0.bias f4 [256]
0	0xbdf0170e	-0.11723147
1	0xbd9be1a8	-0.076114
2	0xbaf238fd	-0.0018480119
3	0xbce56514	-0.0280023
4	0xbd3cf39c	-0.04613076
5	0x3d971324	0.07376698
6	0x3c2a592e	0.010397239
7	0x3da64158	0.08117932
8	0xbd85d2de	-0.0653436
9	0xbc5c692e	-0.013452811
10	0xbc2b5452	-0.010457115
11	0xbd897c64	-0.06713179
12	0xbc8c992f	-0.017162887
13	0xbd266df7	-0.040632214
14	0xbd804a05	-0.06264118
15	0xbe461e18	-0.19347417
16	0x3d0eea1c	0.034891233
17	0xbda5c475	-0.08094112
18	0x3d770b51	0.060313527
19	0xbd9cc2a6	-0.07654314
20	0xbce2d7de	-0.027690824
21	0xbbe6689f	-0.007031515
22	0xbd504b72	-0.0508532
23	0x3b33a20f	0.0027409827
24	0x3d572aab	0.052530926
25	0xbbf6070f	-0.0075081657
26	0xbbb2949b	-0.005449844
27	0x3d0cb9c5	0.03435685
28	0xbbc8b9d9	-0.0061256704
29	0xbd15e0e3	-0.03659142
30	0xbca21ad9	-0.019788193
31	0xbdb6410e	-0.08899127
32	0xbd57514f	-0.052567776
33	0x3d359336	0.044329844
34	0x3df95f08	0.12176329
35	0x3d71c151	0.05902225
36	0xbd81c22e	-0.06335865
37	0xbc76607e	-0.015037654
38	0xbd1431ab	-0.03618018
39	0xbd04dfff	-0.03244018
40	0xbc0bb360	-0.008526653
41	0xbd84e355	-0.06488673
42	0xbdb4eb0b	-0.088338934
43	0xbc445314	-0.011982698
44	0x3d65022e	0.05591028
45	0xbd26f08e	-0.040756755
46	0x3abdcb66	0.0014480173
47	0x3dd9eeae	0.10641228
48	0x3b57077a	0.0032810853
49	0xbd98f264	-0.07468107
50	0x3dd0ffbf	0.1020503
51	0x3d547e0e	0.051878028
52	0xbe0b6b3b	-0.13615124
53	0xbe022e91	-0.12713076
54	0xbdb86488	-0.0900355
55	0xbe1a8aa4	-0.1509195
56	0x3cf2fd2c	0.029661737
57	0x3d85f010	0.06539929
58	0xbdcba5ff	-0.099437706
59	0x3cd9534d	0.026528979
60	0xbcdd40a6	-0.027008366
61	0xbddff02b	-0.1093448
62	0xbd91fa36	-0.07127802
63	0xbeb3f646	-0.3514883
64	0x3d94935f	0.07254671
65	0x3e11c3bd	0.14234824
66	0x3beb0799	0.0071725366
67	0xbdb66173	-0.08905306
68	0xbd33bcca	-0.043881215
69	0x3d8c6725	0.06855611
70	0x3a5cc65a	0.00084218907
71	0xbcdc79c9	-0.02691354
72	0x3d77eac5	0.060526628
73	0xbd04cf9e	-0.03242456
74	0x3d3fe797	0.04685172
75	0xbd351e38	-0.044218272
76	0x3cc78fe8	0.024360612
77	0x3dda0383	0.10645201
78	0xbd09caa1	-0.033640508
79	0xbd939a6e	-0.072071895
80	0xbcf50d78	-0.029913649
81	0x3d84f864	0.06492689
82	0xbd05106c	-0.032486364
83	0xbd4657d3	-0.0484236
84	0xbda0682d	-0.0783237
85	0xbd345a9a	-0.044031717
86	0x3e1b0fa1	0.1514268
87	0xbd4e4bf7	-0.050365414
88	0x3d8af61b	0.06785222
89	0x3da63c96	0.081170246
90	0xbd829c3b	-0.06377455
91	0xbc584836	-0.01320081
92	0xbc349223	-0.01102117
93	0x3d5c90eb	0.053849142
94	0x3d607166	0.054795645
95	0x3c41fcf7	0.011840097
96	0xbc47418b	-0.012161623
97	0xbc713d72	-0.014724122
98	0xbdcdacc6	-0.100427195
99	0xbe1eff57	-0.15527092
100	0x3ca44db3	0.020056581
101	0xbd714e78	-0.058912724
102	0xbce119b5	-0.027478078
103	0x3e28eba6	0.16496143
104	0xbcfb2012	-0.03065494
105	0xbda27460	-0.07932353
106	0xbda88b2f	-0.08229672
107	0x3d0cce4c	0.034376428
108	0xbd5fb977	-0.054620232
109	0xbd3d7e60	-0.0462631
110	0xbda6cb87	-0.081442885
111	0x3c1006a8	0.0087906495
112	0x3d18029c	0.037111863
113	0xbd732ffa	-0.059371926
114	0xbd5cf6d6	-0.05394634
115	0xbd42b4b0	-0.0475356
116	0x3d8744ff	0.06604957
117	0xbd6ea292	-0.058260508
118	0xbda8d430	-0.082435966
119	0x3d4be8c1	0.04978252
120	0xbd44b6ef	-0.04802602
121	0x3d307a69	0.04308549
122	0xbd202c0a	-0.0391045
123	0x3be37e0d	0.0069425167
124	0xbd2f396b	-0.042779367
125	0x3c6431df	0.013927906
126	0xbdb0ac5f	-0.08626627
127	0x3d8a4382	0.06751157
128	0xbdb07d72	-0.08617677
129	0x3dce7428	0.10080749
130	0xbdfb9207	-0.12283712
131	0xbe145f79	-0.14489545
132	0xbdb7b8bb	-0.089707814
133	0x3ce0ba3c	0.027432553
134	0xbe46da44	-0.19419199
135	0xbd60e7a4	-0.05490841
136	0xbcb6c3a6	-0.02231009
137	0xbd0d6e1d	-0.03452884
138	0xbd9039ce	-0.07042275
139	0xb9a89b82	-0.0003215932
140	0x3d3d3106	0.04618933
141	0x3d0b7a6b	0.034052294
142	0xbda7b9a3	-0.08189704
143	0x3d13237c	0.035922512
144	0xbd03380d	-0.032035876
145	0xbdc70bac	-0.09719023
146	0xbd9e12a0	-0.07718396
147	0xbd5dda45	-0.054163236
148	0xbd1cf53f	-0.038319822
149	0xbdd9d522	-0.10636355
150	0xbe061132	-0.13092497
151	0x3c62b838	0.0138378665
152	0xbdb2105e	-0.08694528
153	0x3c5dfd6c	0.01354919
154	0x3cb9ff14	0.022704639
155	0xbdff97d3	-0.1248013
156	0xbe1899da	-0.1490244
157	0xbc2b2694	-0.010446209
158	0x3dc281ba	0.094974
159	0x3c20b399	0.009808444
160	0x3cac9021	0.02106482
161	0xbd56679c	-0.052344903
162	0x3d14b7f1	0.036308233
163	0xbc8ebf00	-0.01742506
164	0x3d00ada2	0.03141559
165	0xbd3ed123	-0.046586167
166	0x3d2ef3fb	0.042713147
167	0xbc870730	-0.01648292
168	0xbc267b14	-0.01016118
169	0xbdc1bb54	-0.09459558
170	0x3be9b623	0.007132308
171	0xbe0fc2da	-0.14039174
172	0xbcd597a2	-0.02607328
173	0xbd8f0ae5	-0.069845
174	0xbc1fde07	-0.009757525
175	0xbd4b7023	-0.04966749
176	0xbe180176	-0.14844307
177	0x3d585833	0.05281849
178	0xbd83241e	-0.06403373
179	0x3c132378	0.008980624
180	0xbdaf36fe	-0.08555411
181	0x3cd50a99	0.02600603
182	0xbe2bec1f	-0.16789292
183	0xbd77529e	-0.060381524
184	0x3ca71480	0.020395517
185	0xbe059b5f	-0.1304755
186	0xbd022273	-0.031771135
187	0xbdc09979	-0.094042726
188	0xbcad4f47	-0.021155966
189	0xbdd280ac	-0.102784485
190	0xbe0c5cff	-0.1370735
191	0xbdad2d37	-0.0845589
192	0xbdea2185	-0.114321746
193	0xbb2ed687	-0.0026678161
194	0xbc69b38a	-0.014263997
195	0xbc99af98	-0.018760487
196	0xbd8040e0	-0.06262374
197	0x3cbe0079	0.023193585
198	0x3d9e22fe	0.07721518
199	0xbcba881c	-0.02276998
200	0xbd94478f	-0.07240211
201	0xbd9ca589	-0.07648761
202	0xbe004a98	-0.12528455
203	0x3d7dee36	0.061994754
204	0xbd987c60	-0.07445598
205	0xbd05a711	-0.03263003
206	0xbb5f6bf4	-0.0034091445
207	0xbd81928b	-0.06326779
208	0xbd2d2ebd	-0.0422809
209	0xbddee5c1	-0.10883666
210	0x3d922685	0.07136253
211	0xbd6ce908	-0.057839423
212	0xbe09c969	-0.13455738
213	0xbdb297a2	-0.08720328
214	0x3c0bc45f	0.008530705
215	0x3c4073d3	0.011746365
216	0x3d9220b5	0.071351446
217	0xbccc24e6	-0.024919938
218	0xbd776e1a	-0.060407735
219	0x3ce1a1ae	0.027542915
220	0x3d884579	0.06653876
221	0x3d96b44d	0.073586084
222	0xbe32d133	-0.17462616
223	0xbdc45622	-0.09586741
224	0xbe0f0196	-0.13965449
225	0xbe0b70da	-0.13617268
226	0xbd8430ec	-0.064546436
227	0x3cea0303	0.02856589
228	0xbde55f7e	-0.11199854
229	0xbdb8990f	-0.090135686
230	0x3c75261e	0.014962701
231	0x3cb57073	0.022148347
232	0xbe11c173	-0.14233951
233	0xbd2a2098	-0.04153499
234	0xbe11cf26	-0.14239177
235	0xbb589838	-0.0033049714
236	0xbddcce5b	-0.10781547
237	0x3d8405f3	0.06446447
238	0x3c886ed9	0.016654419
239	0xbd291d44	-0.041287675
240	0xbe01a3c3	-0.12660126
241	0xbd665eb2	-0.056242652
242	0x3c4808c3	0.01220912
243	0xbcdde793	-0.027087962
244	0xbe0fb7dc	-0.1403498
245	0x3d4b7643	0.04967333
246	0xbd097903	-0.03356267
247	0x3bf2a07d	0.0074043856
248	0xbd0304b5	-0.03198691
249	0xbd14632e	-0.036227398
250	0xbc942f3c	-0.01808893
251	0xbe00dcd5	-0.1258424
252	0xbcfc5bed	-0.030805552
253	0xbe51b135	-0.20477755
254	0x3c81a845	0.015827307
255	0x3d2f5a66	0.04281082

network_body._body_endoder.seq_layers.2.weight f4 [256, 256]
0	0xbcc37e59	-0.023863958
1	0xbd76d67d	-0.060263146
2	0xbf84bb96	-1.0369747
3	0xbf215237	-0.63016075
4	0xbd8cb404	-0.06870273
5	0xbf5731bb	-0.8406026
6	0xbef59213	-0.47963008
7	0x3d05ae28	0.03263679
8	0xbe7f6c68	-0.24943697
9	0x3ecbce7b	0.3980597
10	0xbe4c32ef	-0.19941305
11	0x3d998b8d	0.0749732
12	0xbe1564da	-0.14589253
13	0x3e8cebd3	0.2752367
14	0xbea7d8b3	-0.32782516
15	0x3e00817d	0.12549396
16	0x3e13871f	0.14407013
17	0x3c27bfbc	0.010238584
18	0xbf382ecc	-0.71946406
19	0xbea58b8c	-0.32333028
20	0xbedc9f2e	-0.43090194
21	0x3e61ae9c	0.22039264
22	0xbd0029bc	-0.0312898
23	0x3e14464d	0.14479943
24	0xbec613db	-0.38687024
25	0xbeae8d5e	-0.3409223
26	0x3cda2f05	0.026633749
27	0x3e19438e	0.14967176
28	0xbea460e4	-0.32105172
29	0xbe2d8675	-0.16945823
30	0x3d8b6b8f	0.068076245
31	0xbea47df0	-0.32127333
32	0xbe46ec34	-0.19426042
33	0xbf1acfa0	-0.6047306
34	0xbf19fbd7	-0.601499
35	0xbe3cc5c9	-0.18434824
36	0x3ef57728	0.47942472
37	0xbd391bd9	-0.045192573
38	0xbe683cfd	-0.22679515
39	0xbe31444b	-0.17311208
40	0x3e688885	0.22708328
41	0xbdd489b6	-0.10377829
42	0x3ecdfb38	0.40230727
43	0xbd87daf4	-0.06633559
44	0xbe929299	-0.2862747
45	0xbecf8d3b	-0.40537438
46	0x3da15cd4	0.07879034
47	0x3e87a090	0.26489687
48	0xbe5562e1	-0.208385
49	0x3e030f86	0.1279889
50	0xbe940543	-0.28910264
51	0xbcc5dc27	-0.024152828
52	0xbf2cdacc	-0.6752136
53	0xbe232dfc	-0.1593551
54	0xbe4517e5	-0.19247396
55	0xbe77dae3	-0.24204592
56	0x3f108d8b	0.5646598
57	0x3e1ef8b4	0.1552456
58	0x3da9d2f7	0.082921915
59	0xbea394b5	-0.31949392
60	0xbe5f96b0	-0.21834826
61	0x3e6ae05d	0.2293715
62	0xbe146f1c	-0.1449551
63	0xbdb8877f	-0.09010219
64	0x3e00568a	0.12533012
65	0xbcd6aa6c	-0.02620431
66	0xbe7fb809	-0.24972548
67	0xbe6e762e	-0.2328727
68	0xbe562613	-0.20912962
69	0x3d9678cf	0.07347261
70	0xbf09debc	-0.5385549
71	0xbf720183	-0.94533557
72	0xbd7ab7d8	-0.061210483
73	0xbca4623a	-0.02006637
74	0xbe7cd051	-0.24688841
75	0x3b032d28	0.002001593
76	0x3f08018f	0.5312738
77	0x3ef47711	0.4774709
78	0xbe6ce86d	-0.23135538
79	0xbe14e4bb	-0.14540379
80	0xbe2b4d7d	-0.16728778
81	0x3c0498a5	0.008093034
82	0xbe7124a8	-0.2354914
83	0xbd90a65c	-0.070629805
84	0x3c318368	0.010834552
85	0xbe2fd422	-0.17170766
86	0x3e7fe79c	0.24990696
87	0xbe842c52	-0.25815064
88	0x3ec0b404	0.3763734
89	0x3f01392e	0.50477874
90	0xbf1824e2	-0.5943128
91	0x3c494d6b	0.012286524
92	0x3dd24965	0.10267905
93	0xbf521213	-0.8205883
94	0xbeb4bed1	-0.3530183
95	0x3cd434f8	0.025904164
96	0x3d9e1d7d	0.07720468
97	0xbd65d53e	-0.056111567
98	0x3edf8b23	0.4366084
99	0xbe9527f8	-0.29132056
100	0xbdabce46	-0.08388953
101	0xbe779ed3	-0.2418168
102	0x3e847060	0.25866985
103	0x3e0c1957	0.13681541
104	0x3c7edc15	0.015555401
105	0x3e294cce	0.16533205
106	0x39c558c7	0.00037640912
107	0x3e0dd213	0.13849668
108	0xbeccfd20	-0.4003687
109	0x3e8f3a7d	0.2797431
110	0xbe478fd7	-0.19488464
111	0xbc1e39e4	-0.009657357
112	0xbd972f96	-0.07382123
113	0xbd9dd7b7	-0.0770716
114	0xbea212ef	-0.3165507
115	0x3d05af35	0.032637794
116	0x3e67a4e3	0.22621493
117	0xbdd1e178	-0.10248083
118	0xbe4ae851	-0.19815184
119	0xbe7d3593	-0.24727468
120	0xbeb0b6b8	-0.34514403
121	0xbf038c6d	-0.5138615
122	0x3e09a8b8	0.13443267
123	0xbde8c215	-0.11365143
124	0xbc9fe387	-0.019517673
125	0xbd54588c	-0.051842257
126	0xbedd26df	-0.4319372
127	0xbec13fd7	-0.37744018
128	0xbe15b80c	-0.1462099
129	0x3e414d39	0.18877114
130	0xbe3c39d7	-0.18381439
131	0xbef55e3d	-0.4792346
132	0x3e0cabc5	0.137374
133	0xbe8c8e26	-0.274522
134	0x3c9a5845	0.018840918
135	0xbe27936c	-0.1636483
136	0xbe833ea9	-0.25633743
137	0x3dbb2e62	0.09139706
138	0x3d2ccc19	0.04218683
139	0xbe360270	-0.17774367
140	0xbed58dc3	-0.41709718
141	0x3e64ab49	0.22330965
142	0xbe10c6ad	-0.14138289
143	0x3e76770a	0.24068847
144	0xbe9b93fb	-0.30386338
145	0xbd9999e5	-0.07500056
146	0xbe6a2b5d	-0.22868104
147	0xbe7a4f32	-0.24444273
148	0x3e049c84	0.12950331
149	0xbd4b6ab4	-0.049662307
150	0xbf00b7e3	-0.5028059
151	0xbe71f506	-0.23628625
152	0xbe7c1a0e	-0.24619314
153	0xbf0db0fa	-0.5534817
154	0xbe2b2b91	-0.16715838
155	0xbd31de83	-0.043425094
156	0xbc9d026e	-0.019166198
157	0xbe225cad	-0.15855666
158	0xbdc9f3ae	-0.09860931
159	0xbe2dcecf	-0.16973422
160	0x3d52ffb9	0.051513407
161	0x3d36bf1c	0.04461585
162	0xbefcbd58	-0.49363208
163	0xbd9dbf50	-0.077025056
164	0xbe2e5756	-0.17025504
165	0x3f008a8d	0.5021141
166	0x3c07bbc3	0.008284512
167	0xbe1c249e	-0.15248343
168	0xbde167c0	-0.11006117
169	0xbed41693	-0.41423473
170	0xbe1a4db6	-0.15068707
171	0x3e790d94	0.24321586
172	0x3de84a5e	0.113423094
173	0xbf0289b1	-0.5099135
174	0xbe0a94fa	-0.13533393
175	0x3ed7110f	0.42005202
176	0x3edab846	0.42718714
177	0xbce9c1d7	-0.028534813
178	0x3d0fc66c	0.03510134
179	0xbd8bbcaa	-0.06823094
180	0x3e20f17f	0.15717123
181	0xbe2c9f05	-0.16857536
182	0x3e65c439	0.22438134
183	0xbed7ee83	-0.42174158
184	0x3d8a9db4	0.06768361
185	0xbcfaf0c9	-0.030632393
186	0xbd45bef9	-0.04827783
187	0xbeb0cd52	-0.34531647
188	0x3e5e2b06	0.216961
189	0x3d552f3f	0.05204701
190	0x3e0dc37b	0.13844101
191	0xbd1b4b2b	-0.037913483
192	0xbdd08438	-0.10181469
193	0xbf20fcab	-0.6288554
194	0xbf26869f	-0.65049165
195	0xbec958eb	-0.39325652
196	0xbdf28ab0	-0.11842859
197	0xbd4f099d	-0.050546277
198	0x3e0ab25e	0.13544604
199	0x3ed75c7c	0.42062747
200	0xbf05d56f	-0.522788
201	0x3f084759	0.5323387
202	0xbe92da7e	-0.2868232
203	0x3ee74125	0.4516689
204	0xbe00640f	-0.1253817
205	0x3df6bf5f	0.1204822
206	0x3e2c2f40	0.168149
207	0xbee6be01	-0.45066836
208	0x3e169ab1	0.14707448
209	0xbaee9cea	-0.0018204723
210	0x3e330956	0.1748403
211	0xbd99ec4b	-0.075157724
212	0xbc06e8fc	-0.008234259
213	0xbce380ba	-0.027771343
214	0x3ea87a8c	0.32905996
215	0x39e19ecf	0.00043033666
216	0xbf76fcb3	-0.9647934
217	0xbd239110	-0.039933264
218	0xbd4efc40	-0.050533533
219	0x3e95074b	0.29107127
220	0x3d8a3495	0.067483105
221	0xbd83406a	-0.064087704
222	0xbe9f04a9	-0.31058243
223	0x3d30d10c	0.043168113
224	0x3e069484	0.13142592
225	0xbc802273	-0.015641427
226	0xbec1b6fe	-0.37834924
227	0x3e4886b9	0.19582643
228	0x3eeba40c	0.46023595
229	0x3d52607d	0.05136155
230	0x3d52a48f	0.051426467
231	0xbeb65a20	-0.35615635
232	0xba3f4257	-0.0007295957
233	0xbdc4c5d9	-0.09608049
234	0xbe05e1ff	-0.13074492
235	0x3e42c8e6	0.19021949
236	0x3d5ba036	0.053619586
237	0x3db5c0ac	0.0887464
238	0xbbec95a3	-0.0072199865
239	0xbe727880	-0.2367878
240	0x3dd6a2e8	0.10480291
241	0xbe491973	-0.19638614
242	0x3bf824c2	0.0075727412
243	0xbdc94bd0	-0.09828913
244	0x3cf5f1cd	0.030022526
245	0x3d9a3241	0.075291164
246	0xbe97f6f1	-0.2968059
247	0xbeab022a	-0.3340009
248	0xbddb6275	-0.107121386
249	0x3bc8fc69	0.0061336053
250	0xbdaacb9b	-0.08339616
251	0xbcdc8b68	-0.026921943
252	0x3e4494f2	0.19197443
253	0x3ebc0bc5	0.3672773
254	0x3c9291d7	0.017891807
255	0xbe507e95	-0.20360787

network_body._body_endoder.seq_layers.2.bias f4 [256]
0	0x3dbaf206	0.091281936
1	0xbdfec6e7	-0.12440281
2	0x3d917481	0.071022995
3	0x3d0359d1	0.032068077
4	0x3e7b9ab2	0.2457073
5	0x3d27b98b	0.040948432
6	0xbcb8f767	-0.022578908
7	0xbe1a09e1	-0.15042831
8	0x3e1715a4	0.14754349
9	0x3e049cbc	0.12950414
10	0x3d8fb7da	0.07017489
11	0x3d8987f9	0.06715388
12	0x3e2c3921	0.16818668
13	0x3e2cefca	0.16888347
14	0x3d098e92	0.03358323
15	0xbdf395c1	-0.11893798
16	0xbe4b37a5	-0.19845445
17	0xbea7e4d0	-0.32791758
18	0x3da841b9	0.082156606
19	0x3e7df81e	0.2480168
20	0x3c24d577	0.01006066
21	0x3e743da2	0.23851636
22	0xbaebb9bb	-0.0017984429
23	0x3e330eab	0.17486064
24	0x3c1b8045	0.009491031
25	0xbe2faa9e	-0.17154929
26	0x3db01482	0.085976616
27	0x3c843ddb	0.016142776
28	0x3e19d550	0.15022779
29	0xbd2334a9	-0.039845143
30	0x3e9c52e6	0.30531996
31	0xbe03f30c	-0.12885684
32	0x3e262f76	0.16229042
33	0xbb9696d3	-0.0045956164
34	0xbe44ffee	-0.19238254
35	0x3db55834	0.08854714
36	0x3e8a26aa	0.26982623
37	0xbc90517c	-0.01761698
38	0x3e05dad7	0.13071762
39	0xbd259aca	-0.04043082
40	0x3e53d5d5	0.20687039
41	0xbe1e52f0	-0.15461326
42	0xbddcb3ba	-0.107764676
43	0x3df11061	0.11770702
44	0x3e0f12b5	0.1397198
45	0xbe1b094d	-0.15140267
46	0x3dc8b44e	0.098000154
47	0xbccb5fe0	-0.02482599
48	0x3e180b79	0.14848126
49	0xbce1d126	-0.02756555
50	0x3e0722d8	0.13196886
51	0xbccc4d89	-0.024939315
52	0x3dddbf05	0.1082745
53	0x3e8acb52	0.27108246
54	0x3dcc305f	0.099701636
55	0x3d4f6fea	0.05064384
56	0xbe0e2cab	-0.13884227
57	0x3e98612b	0.29761633
58	0x3e276f11	0.16350962
59	0x3d95bfdb	0.07311984
60	0x3d6b7cdc	0.057492122
61	0x3ebcfec4	0.3691312
62	0xbe1c04cd	-0.15236206
63	0x3d5eba5f	0.054376956
64	0x3c530793	0.012880224
65	0x3de60a9b	0.112324916
66	0x3e1092a6	0.14118442
67	0x3dba0450	0.09082854
68	0x3d72a0f7	0.05923554
69	0x3dafe6b7	0.08588927
70	0xbd6b0cad	-0.057385135
71	0xbdd9babc	-0.1063132
72	0xbe493acf	-0.1965134
73	0xbcfeb696	-0.031092923
74	0xb9605896	-0.00021395306
75	0x3e1b3b9a	0.15159455
76	0x3e363299	0.17792739
77	0x3ea78758	0.32720447
78	0x3e875787	0.26433966
79	0xbe8d1a4e	-0.2755913
80	0x3e4e256e	0.20131466
81	0x3e49965a	0.19686261
82	0xbdc1ee97	-0.094693355
83	0x3e296f81	0.16546442
84	0x3c4b03fb	0.012391086
85	0x3e0b69cc	0.13614577
86	0x3b4f8643	0.003166572
87	0xbd64464c	-0.055731103
88	0x3e07e601	0.13271333
89	0xbcc4b394	-0.02401141
90	0x3e2e052b	0.16994159
91	0x3db734fe	0.08945654
92	0x3d1e6089	0.03866628
93	0xbd9bcb09	-0.07607085
94	0xbdf6cf10	-0.12051213
95	0xbdaf5cfc	-0.08562657
96	0x3dde6fe3	0.108611844
97	0x3d4c87a6	0.049934052
98	0x3e0d5292	0.1380103
99	0xbb975cc3	-0.0046192124
100	0xbd95947b	-0.07303711
101	0x3e2f37c2	0.17111114
102	0xbe4af5ad	-0.1982028
103	0xbd021e3e	-0.031767122
104	0xbc9f2e0a	-0.019431133
105	0xbe068506	-0.13136682
106	0x3e0059e7	0.12534295
107	0x3e17e9f0	0.14835334
108	0x3db965d0	0.09052622
109	0xbd0a3048	-0.03373745
110	0x3c877d19	0.016539143
111	0x3d6db61e	0.05803501
112	0x3e47020c	0.19434375
113	0x3bb5305e	0.0055294475
114	0x3dc2999b	0.09501954
115	0x3c8df6b9	0.01732956
116	0x3d839db1	0.064265616
117	0x3de317e9	0.11088545
118	0x3dc982e8	0.098394215
119	0xbdbee10f	-0.0932027
120	0x3e52f6a5	0.206019
121	0xbcd8dace	-0.026471522
122	0xbe62eb3a	-0.22160044
123	0xbe741fb9	-0.23840226
124	0xbd3490c3	-0.044083368
125	0x3dc45d35	0.0958809
126	0x3dfa0d2f	0.12209546
127	0x3cdd73a1	0.027032675
128	0x3c4473fc	0.011990543
129	0x3e4bc2be	0.19898507
130	0x3e5bcb20	0.21464205
131	0x3e906899	0.28204802
132	0x3d95d04c	0.0731512
133	0xbd0a66c4	-0.03378941
134	0x3e1c3008	0.15252697
135	0x3e1d3c9a	0.15355149
136	0xbe1fd2b1	-0.15607716
137	0x3d70e292	0.058809824
138	0xbde2caff	-0.11073875
139	0x3db8d256	0.090244934
140	0x3e8f2da6	0.27964514
141	0x3c6e8444	0.014557902
142	0x3e4e566e	0.20150158
143	0x3e58a4d4	0.21156627
144	0xbc4f624e	-0.012657715
145	0x3e48bfab	0.19604366
146	0x3d070ee3	0.03297318
147	0x3e069843	0.1314402
148	0x3e0868bf	0.13321207
149	0x3e69e2e3	0.22840457
150	0x3db9cce6	0.090722844
151	0x3e567846	0.20944318
152	0xbc5e10af	-0.013553782
153	0xbe3b5ed0	-0.18297887
154	0x3dba5e7b	0.09100052
155	0xbe1adab2	-0.15122488
156	0x3e7de20e	0.24793264
157	0xbdbfd53e	-0.093668446
158	0x3e045638	0.12923515
159	0xbd478177	-0.04870745
160	0x3e844622	0.25834757
161	0x3e07831a	0.13233605
162	0x3dc1eef5	0.094694056
163	0x3d5eac0b	0.05436329
164	0xbd8cf582	-0.068827644
165	0xbdc83561	-0.09775806
166	0x3dbd945b	0.09256812
167	0x3e1fe729	0.15615524
168	0xbe07f8eb	-0.13278548
169	0xbe7edf3b	-0.24889843
170	0x3e592e26	0.2120901
171	0xbdb9c779	-0.090712495
172	0x3e5db95e	0.21652743
173	0x3dfc0a0f	0.12306606
174	0x3d2bdf4d	0.041961003
175	0xbb02f053	-0.001997967
176	0xbd49801e	-0.049194448
177	0x3dc4a91d	0.09602568
178	0x3d0ca27e	0.034334652
179	0x3d9e170b	0.07719239
180	0x3dff2ad5	0.124593414
181	0x3c41b6f6	0.011823406
182	0xbdaa46f5	-0.08314315
183	0x3da2f82b	0.079574905
184	0xbd43ae21	-0.047773484
185	0x3c643ab7	0.013930014
186	0x3e100b2e	0.14066765
187	0x3e36220a	0.17786422
188	0xbde8c37d	-0.113654114
189	0xbde80f68	-0.113310635
190	0x3e061b93	0.13096456
191	0x3e00d531	0.12581326
192	0xbdf2f89e	-0.11863826
193	0x3df9cec7	0.12197643
194	0x3e00d514	0.12581283
195	0xbe6139ff	-0.2199478
196	0xbd9ea860	-0.07746959
197	0x3e3d2842	0.18472388
198	0x3ce33978	0.027737364
199	0x3eacd503	0.33756265
200	0x3d9e2a05	0.07722858
201	0x3dc64796	0.09681623
202	0x3bb33d9f	0.0054699923
203	0xbda8b18b	-0.08236989
204	0x3d394c72	0.04523892
205	0xbe342845	-0.17593487
206	0xbda9b4ae	-0.08286415
207	0x3d3a8499	0.04553661
208	0xbdbc1a80	-0.09184742
209	0x3e4f9466	0.20271453
210	0x3dc724f7	0.09723847
211	0xbd388b03	-0.045054447
212	0xbd2f3e40	-0.042783976
213	0xbe6d4455	-0.23170598
214	0xbd500d2a	-0.050793804
215	0x3deea9fc	0.11653516
216	0x3db75ae9	0.089528866
217	0x3d8a135b	0.06741973
218	0xbc6562f6	-0.014000645
219	0xbd557535	-0.05211373
220	0x3e44615a	0.19177762
221	0xbcf7fe74	-0.0302727
222	0x3d717217	0.058946695
223	0x3d02da7a	0.031946637
224	0xbca60106	-0.02026416
225	0x3dd38068	0.10327226
226	0x3dc680ef	0.09692561
227	0x3c965801	0.01835251
228	0x3e344806	0.176056
229	0xbc371db2	-0.0111765135
230	0x3e3e0c3c	0.18559355
231	0x3e3586b0	0.1772716
232	0x3e2cd55c	0.16878265
233	0x3d8d0377	0.068854265
234	0x3e05d854	0.13070804
235	0x3e194d24	0.14970833
236	0x3e5b822a	0.21436372
237	0x3e6324cf	0.2218201
238	0xbdca3c26	-0.09874754
239	0x3d7c36d3	0.061575722
240	0x3e042cfd	0.12907787
241	0xbda7e380	-0.08197689
242	0x3e964962	0.29352862
243	0x3e117b8c	0.14207286
244	0x3d69503e	0.05696129
245	0xbe4a03ee	-0.19728062
246	0xbe8210f6	-0.25403565
247	0x3e42e3d3	0.1903222
248	0x3dd3077d	0.10304163
249	0xbccae160	-0.02476567
250	0xbd0854af	-0.033283886
251	0x3dce98fe	0.10087775
252	0xbcf64e79	-0.030066716
253	0x3d9f212e	0.077700004
254	0x3e45dd78	0.19322765
255	0xbe7cc9bc	-0.2468633

network_body._body_endoder.seq_layers.4.weight f4 [256, 256]
0	0xbe0a7905	-0.13522728
1	0xbe2f6938	-0.17129982
2	0xbdf05019	-0.117340274
3	0xbee34bec	-0.4439386
4	0x3e9667b1	0.29375985
5	0xbd1df088	-0.038559467
6	0xbe202d2f	-0.15642236
7	0xbc59d3ea	-0.013295153
8	0x3f562f7a	0.83666193
9	0xbebfeaa3	-0.374837
10	0xbe99bb54	-0.30025733
11	0xbea17089	-0.3153117
12	0x3e415b49	0.18882479
13	0xbe36ff01	-0.17870714
14	0xbe430b93	-0.19047384
15	0xbe942f6f	-0.2894244
16	0xbd149a8f	-0.03628021
17	0xbe86f7b3	-0.26360855
18	0xbe98fe7e	-0.29881662
19	0xbe363b93	-0.17796163
20	0x3d389932	0.045067973
21	0x3e63d9f5	0.22251113
22	0x3e953d13	0.29148158
23	0xbe5c4e50	-0.21514249
24	0xbe36f93b	-0.17868511
25	0xbe929b90	-0.2863431
26	0xbe1a8723	-0.15090613
27	0xbeb42ae8	-0.35188985
28	0xbefccd4d	-0.49375382
29	0xbe271d5e	-0.16319796
30	0xbe75cfc6	-0.2400504
31	0xbd8135b2	-0.0630907
32	0x3e5b2422	0.21400502
33	0xbe22ab72	-0.15885714
34	0x3dd71128	0.10501319
35	0xbc88e245	-0.016709456
36	0x3cbefe76	0.023314696
37	0xbd06be29	-0.032896195
38	0x3dc7e410	0.09760296
39	0x3ea4809e	0.32129377
40	0x3c272c01	0.010203362
41	0xbf08bee8	-0.534163
42	0x3e7f2788	0.24917424
43	0xbe819a96	-0.25313252
44	0xbd825d3f	-0.063654415
45	0xbe77bb9c	-0.24192661
46	0xbd7b1541	-0.061299566
47	0x3e52393f	0.2052965
48	0x3e3732b2	0.17890432
49	0x39649cbc	0.00021802163
50	0x3eebf47e	0.4608497
51	0x3d1bbe8a	0.03802351
52	0xbed46603	-0.4148408
53	0x3d30991c	0.043114766
54	0xbdb114a1	-0.08646513
55	0xbacb19eb	-0.0015495395
56	0x3c396085	0.011314516
57	0x3d68f7a1	0.056876782
58	0xbe8ae432	-0.27127224
59	0xbee7e9e3	-0.4529563
60	0x3ea917b0	0.33025885
61	0x3aec3a73	0.001802279
62	0xbda4adaf	-0.0804094
63	0xbe3580d4	-0.17724925
64	0x3ea3afba	0.31970006
65	0xbe98e909	-0.29865292
66	0x3e157bc6	0.14597997
67	0xbe9d48d9	-0.3071964
68	0xbd5dbc2e	-0.05413454
69	0x3e07b16d	0.13251276
70	0x3e559476	0.20857415
71	0xbe7beec7	-0.24602805
72	0xbcbb8869	-0.022892194
73	0xbe136b08	-0.14396298
74	0x3e2562fa	0.16151038
75	0x3e85c978	0.2613027
76	0xbb88d678	-0.0041759573
77	0x3e9cb121	0.3060389
78	0xbe3002de	-0.17188594
79	0xbf086627	-0.5328087
80	0x3ea4c92e	0.32184738
81	0x3ceb5e45	0.028731475
82	0xbe83dda0	-0.25755024
83	0xbec094e8	-0.37613606
84	0xbdb17fb7	-0.08666938
85	0x3eafe089	0.34350994
86	0xbe0de553	-0.13857011
87	0x3e1ec996	0.15506586
88	0xbd643580	-0.055715084
89	0xbe20ba9d	-0.15696187
90	0xbda064e6	-0.07831745
91	0xbd38f315	-0.045153696
92	0xbe867ef9	-0.26268747
93	0xbdd2098b	-0.102557264
94	0xbde62753	-0.11237969
95	0xbe479bc9	-0.19493021
96	0xbe1c618a	-0.15271583
97	0x3ece718b	0.40321
98	0xbe6d46be	-0.23171517
99	0x3e778988	0.24173558
100	0x3e4c0f1a	0.19927636
101	0xbd7490a5	-0.059708256
102	0xbd1a8e1e	-0.03773319
103	0x3dad8c12	0.08473982
104	0xbecbb497	-0.39786217
105	0xbdf6da9a	-0.12053414
106	0xbedd020b	-0.4316562
107	0xbea89b16	-0.3293082
108	0xbcc339e7	-0.02383132
109	0x3e9daca2	0.3079577
110	0xbb9150f2	-0.0044346983
111	0xbd113324	-0.035449162
112	0xbe2f5ad4	-0.17124492
113	0xbe14bc64	-0.1452499
114	0x3e53e2d9	0.20692004
115	0x3ee7da0b	0.4528354
116	0x3cf3f8b8	0.029781684
117	0x3e0358a9	0.1282679
118	0x3dce9de1	0.10088707
119	0xbc790bc1	-0.015200556
120	0xbee528df	-0.44757745
121	0xbea41530	-0.32047415
122	0x3e1cd0b2	0.15313986
123	0xbdf82b32	-0.12117614
124	0x3c7e11ac	0.015507143
125	0xbeef4e54	-0.46739447
126	0xbeba5696	-0.36394185
127	0xbe5637bf	-0.20919703
128	0x3ee12862	0.43976122
129	0x3ebfedbc	0.37486064
130	0x3e96ac3a	0.29428273
131	0x3ecba34b	0.3977302
132	0xbc795051	-0.015216903
133	0x3ec97ba1	0.39352134
134	0xbdc23143	-0.09482052
135	0x3f05924f	0.52176374
136	0xbe4ca6a9	-0.19985451
137	0x3e8e7a52	0.27827698
138	0xbe8159c7	-0.25263807
139	0xbebf5965	-0.3737289
140	0x3e8a50b8	0.2701471
141	0xbe19aca4	-0.15007263
142	0xbefd234c	-0.49440992
143	0x3e05f416	0.13081393
144	0xbe8ff627	-0.28117487
145	0xbdd1afb0	-0.10238588
146	0xbd889f2e	-0.06670986
147	0x3b524cb2	0.003208917
148	0xbb6c66de	-0.0036072056
149	0x3e8329b4	0.25617754
150	0x3eea2331	0.45729974
151	0xbe9374a4	-0.28799927
152	0xbe8722fe	-0.26393884
153	0xbe3c0a2d	-0.18363257
154	0xbe71f51b	-0.23628657
155	0xbdf83c4d	-0.121208765
156	0x3e06f3b4	0.13178903
157	0xbbd5cfbb	-0.0065250075
158	0x3e553645	0.20821483
159	0x3d2e29f3	0.042520475
160	0xbc7240d3	-0.014785963
161	0x3e289aea	0.16465345
162	0x3d6e209d	0.05813657
163	0x3c025675	0.007955183
164	0xbeeeb7b9	-0.46624544
165	0xbc4e8a0d	-0.012606156
166	0xbd03b58a	-0.03215555
167	0x3e1f03ef	0.15528844
168	0xbd4a2d1b	-0.049359422
169	0xbe54a11c	-0.20764583
170	0x3ea9f5e8	0.33195424
171	0xbeb2f617	-0.34953377
172	0x3e2c77ba	0.16842547
173	0xbde6d546	-0.112711474
174	0x3ca8b43a	0.020593751
175	0xbe29ba91	-0.16575076
176	0xbca9b32e	-0.020715322
177	0x3d514f22	0.051100858
178	0xbe4cb4dc	-0.19990867
179	0xbee63c05	-0.44967666
180	0x3e2a7ed9	0.16649951
181	0xbeb2bafb	-0.3490828
182	0xbe99cfc8	-0.30041337
183	0xbeb4f74d	-0.35344926
184	0xbe0571f8	-0.13031757
185	0xbc720fd9	-0.014774286
186	0x3e208904	0.15677267
187	0x3e46cc77	0.19413935
188	0xbd1e596d	-0.0386595
189	0x3c9e7c75	0.019346455
190	0xbed3e9d4	-0.41389334
191	0x3eaa3ebd	0.3325099
192	0xbe8eb584	-0.2787286
193	0x3eb63690	0.35588503
194	0xbe7504f3	-0.23927669
195	0xbe046275	-0.12928183
196	0xbde1bfd4	-0.110229164
197	0x3ddb6b89	0.1071387
198	0xbd8dbec7	-0.069211535
199	0xbe81d053	-0.2535425
200	0x3e371101	0.1787758
201	0xbe34170e	-0.1758692
202	0x3e105f4c	0.14098853
203	0xbd8e40f6	-0.06945984
204	0x3e20269c	0.15639728
205	0xbec58adc	-0.38582504
206	0xbec00ca9	-0.3750966
207	0x3e9d4976	0.3072011
208	0xbe85d341	-0.26137736
209	0xbd436dcb	-0.04771213
210	0xbea65597	-0.32487175
211	0x3e352cfa	0.17692938
212	0xbc58956f	-0.0132192215
213	0xbe426c23	-0.18986563
214	0x3d641a72	0.055689283
215	0x3dd01a0d	0.10161219
216	0xbe4c1a68	-0.19931948
217	0x3edb1f52	0.42797333
218	0xbe1e2a55	-0.15445836
219	0x3df7d52b	0.121012054
220	0xbe482f0c	-0.19549197
221	0x3e7061c1	0.2347479
222	0x3d233c80	0.03985262
223	0x3d4ab0d4	0.049485043
224	0xbe84622a	-0.25856143
225	0x3c35ca5f	0.011095612
226	0xbec7283d	-0.38897887
227	0xbe1a654e	-0.15077707
228	0x3e811fe8	0.25219655
229	0xbe9311a4	-0.28724396
230	0x3ec904ee	0.39261574
231	0xbe9b29cf	-0.30305335
232	0xbdfbbf99	-0.12292404
233	0xbde6a7ae	-0.11262451
234	0x3e1dea2c	0.1542136
235	0xbee1c778	-0.44097495
236	0x3dc99906	0.0984364
237	0xbe8ef851	-0.27923825
238	0x3e05faff	0.13084029
239	0x3ced9f4a	0.029006619
240	0x3e3eeb9b	0.18644564
241	0x3ec10d6b	0.3770555
242	0x3e147f37	0.14501654
243	0xb8306249	-4.2053205e-05
244	0x3d5726f1	0.05252737
245	0xbe51e965	-0.20499189
246	0xbb7c64ff	-0.0038512347
247	0xbd399714	-0.045310095
248	0xbeb6ad03	-0.35678872
249	0x3e905ce9	0.28195885
250	0xbe12ae88	-0.14324391
251	0xbda01240	-0.07815981
252	0xbdc4ca7c	-0.09608933
253	0x3e3cffbe	0.18456933
254	0x3e7c49ab	0.24637477
255	0xbe7e0366	-0.24805984

network_body._body_endoder.seq_layers.4.bias f4 [256]
0	0x3e241c49	0.16026415
1	0xbd485069	-0.04890481
2	0x3d6d7823	0.0579759
3	0xbd6df9d1	-0.05809957
4	0xbcb78eab	-0.022406897
5	0xbe19476c	-0.14968652
6	0x3e6fbd01	0.23411943
7	0xbd7319f9	-0.05935094
8	0xbb917da2	-0.0044400254
9	0xbe0de880	-0.13858223
10	0xbda24bb3	-0.07924595
11	0xbc9245c5	-0.017855534
12	0x3e61b75a	0.220426
13	0x3df60a46	0.12013678
14	0x3ed08303	0.40724954
15	0x3e08ca8b	0.13358514
16	0x3e1c9a1e	0.15293166
17	0x3e3d67c6	0.18496618
18	0x3dd039ad	0.10167251
19	0x3e985da4	0.29758942
20	0x3d83d634	0.064373404
21	0xbc556774	-0.013025153
22	0xbb7373cf	-0.0037147885
23	0x3dfa34af	0.1221708
24	0x3e53e298	0.20691907
25	0xbe71f955	-0.23630269
26	0x3df96b06	0.12178616
27	0xbd8bc905	-0.06825451
28	0x3e3721d8	0.17884004
29	0x3e46a655	0.19399388
30	0x3e44803c	0.19189543
31	0x3e73488b	0.23758142
32	0x3ead2e3b	0.33824334
33	0x3e586724	0.21133095
34	0x3d0efd18	0.034909338
35	0xbca9bacc	-0.020718955
36	0x3ea8af31	0.3294616
37	0x3a1a6abd	0.0005890539
38	0xbde93341	-0.11386729
39	0xbdc10553	-0.09424844
40	0x3e330764	0.17483288
41	0x3ec15a2f	0.37764117
42	0x3e83dae3	0.25752935
43	0x3de18658	0.11011952
44	0xbd0b09b7	-0.03394481
45	0xbcb35b01	-0.02189398
46	0x3da2967c	0.07938859
47	0xbe1964b4	-0.14979821
48	0x3e86b93c	0.26313198
49	0x3e531da1	0.20616771
50	0x3dd84f86	0.10562043
51	0x3df9cb30	0.12196958
52	0x3e6ba9a7	0.23013936
53	0x3e8dc20e	0.27687114
54	0x3c96f75e	0.0184285
55	0xbbac814e	-0.0052644378
56	0x3c099577	0.008397452
57	0xbc13128d	-0.008976591
58	0xbe3ec95c	-0.186315
59	0x3e8c94da	0.27457315
60	0x3ec8c68b	0.39213976
61	0x3d973e58	0.07384938
62	0xbde39c9d	-0.11113856
63	0x3e6b0b78	0.22953594
64	0xbdcd217e	-0.10016154
65	0x3e00ba3b	0.12571041
66	0x3deff4ad	0.1171659
67	0x3e6e0f25	0.23247965
68	0xbbc60668	-0.006043244
69	0x3d9c4ec5	0.076322116
70	0x3c97a14e	0.018509533
71	0x3e08261d	0.13295789
72	0xbc5dbe4a	-0.013534138
73	0x3e979fb5	0.29614034
74	0x3d425d57	0.047452297
75	0x3e2be9da	0.16788426
76	0x3e3a9b08	0.18223202
77	0xbccf2b28	-0.025289133
78	0x3e8ab5c3	0.27091798
79	0x3df41a96	0.11919133
80	0x3e45e3b2	0.1932514
81	0xbc910e80	-0.01770711
82	0x3e07bf23	0.13256507
83	0x3ec6b5a6	0.38810462
84	0xbcd47705	-0.02593566
85	0x3e7c3de1	0.2463298
86	0x3e77a7f1	0.24185158
87	0x3cec0629	0.028811531
88	0x3e176817	0.14785801
89	0xbda27de9	-0.07934172
90	0x3ae23dfa	0.0017260902
91	0x3d3806ec	0.044928476
92	0xbb622029	-0.0034504032
93	0x3e913247	0.2835867
94	0x3e510121	0.20410587
95	0x3e0385f0	0.12844062
96	0xbdc3c94a	-0.09559877
97	0x3ddeaf46	0.108732745
98	0x3da6e066	0.08148269
99	0x3dcb1215	0.09915558
100	0x3eb1a16f	0.34693477
101	0xbd7babf4	-0.061443284
102	0x3e356733	0.17715149
103	0x3d9acc8c	0.075585455
104	0x3eba9e34	0.36448824
105	0x3de89dc1	0.11358214
106	0x3e18c157	0.14917503
107	0x3eaad88a	0.3336833
108	0x3e37077d	0.1787395
109	0x3e3280f3	0.17432003
110	0x3ecce038	0.40014815
111	0x3e3005ab	0.17189662
112	0x3d6379a6	0.055535935
113	0x3e71ebc2	0.2362509
114	0xbcf110c3	-0.029426938
115	0x3e2c40b7	0.16821562
116	0x3caa7fa9	0.020812826
117	0x3e97fef9	0.29686716
118	0xbe29b4b9	-0.16572846
119	0x3d63cb10	0.055613577
120	0x3e1a981a	0.15097085
121	0x3dd76fce	0.10519372
122	0x3dc34810	0.09535229
123	0xbbe25c9e	-0.0069080135
124	0xbe2cfb01	-0.16892625
125	0x3e958624	0.29203904
126	0xbdda0ced	-0.10646997
127	0x38eb3e4a	0.000112172755
128	0xbcfd152c	-0.030893885
129	0xbd6e9e9e	-0.058256738
130	0x3dea47ff	0.114395134
131	0x3e9a166f	0.3009524
132	0x3d4d503c	0.050125346
133	0x3e947445	0.28994957
134	0x3e745a8e	0.23862669
135	0x3e37afca	0.17938152
136	0xbdb90fb7	-0.090362005
137	0x3ecdf3ea	0.40225154
138	0x3c8b2b57	0.01698844
139	0x3e342f22	0.17596105
140	0xbe34e4e8	-0.17665446
141	0x3eaf26bb	0.34209237
142	0x3c01c8ef	0.007921441
143	0xbd28411f	-0.04107773
144	0xbe141561	-0.1446128
145	0xbd5d72b7	-0.05406448
146	0xbd5d1bb6	-0.053981505
147	0x3db8eea9	0.09029896
148	0x3e58bd53	0.21165971
149	0x3e70b607	0.23506938
150	0xbc8fb390	-0.017541677
151	0xbda218e9	-0.079149075
152	0xbddd4682	-0.10804464
153	0x3eea325b	0.45741543
154	0xbb934166	-0.00449388
155	0xbba933b3	-0.0051636337
156	0x3e692915	0.22769578
157	0x3db474ea	0.08811362
158	0x3d936e9e	0.07198833
159	0x3d006ee7	0.031355765
160	0x3db74b9e	0.0894997
161	0x3d5df1c1	0.054185633
162	0x3e155d65	0.14586408
163	0x3dc308f0	0.09523189
164	0x3e2a000a	0.16601577
165	0x3ea2301c	0.3167733
166	0x3e0960a1	0.13415767
167	0xbe112e91	-0.1417792
168	0x3dbb6cee	0.09151636
169	0x3bc287fd	0.005936621
170	0x3d880ab0	0.066426635
171	0x3dbcd43e	0.092201695
172	0xbdd54c2c	-0.10414919
173	0x3e9b03fb	0.30276474
174	0xbca3f8d5	-0.020016113
175	0xbd0dea68	-0.034647375
176	0xbe7f5f8a	-0.24938789
177	0xbce1342a	-0.027490694
178	0xbdab9004	-0.08377078
179	0x3ea4232b	0.3205808
180	0x3d1ccfa0	0.038283944
181	0x3e2264be	0.15858743
182	0x3d90084e	0.07032834
183	0x3e2afe3c	0.16698545
184	0xbd6a81d8	-0.057252735
185	0x3dbd54c6	0.09244685
186	0x3e6bbd4a	0.23021427
187	0x3d89d674	0.06730357
188	0x3e7eefaa	0.24896112
189	0x3e728f1a	0.23687401
190	0x3d4aed42	0.049542673
191	0x3db5cabf	0.088765614
192	0x3dce607b	0.10076996
193	0xbd92d368	-0.07169229
194	0x3e96f1e9	0.29481438
195	0x3e4e561d	0.20150037
196	0x3e7632ed	0.24042864
197	0x3e53e219	0.20691718
198	0x3c9fc863	0.019504732
199	0x3e2379ac	0.15964383
200	0x3e465dbe	0.19371697
201	0x3c08bc74	0.008345712
202	0x3e17550b	0.14778535
203	0x3dba03cb	0.09082755
204	0x3e8675ae	0.26261657
205	0x3df5ca9e	0.12001537
206	0x3ed406ce	0.41411442
207	0x3d3374f5	0.04381271
208	0x3e4529f9	0.19254293
209	0xbda5b88e	-0.08091842
210	0x3d3d1c14	0.046169356
211	0x3d9e4569	0.07728083
212	0x3e1ac236	0.15113148
213	0x3b0124a6	0.0019705682
214	0xbdda0084	-0.106446296
215	0x3e8413a5	0.25796238
216	0x3e637457	0.22212349
217	0x3e056ade	0.13029048
218	0xbcc762cd	-0.024339104
219	0xbd167fb8	-0.036742896
220	0x3d74b989	0.059747253
221	0x3ebaef0a	0.36510497
222	0x3ebce182	0.368908
223	0x3e054fa7	0.13018666
224	0xbd359e83	-0.04434062
225	0xbab4575b	-0.0013758944
226	0x3e4250aa	0.18976083
227	0x3e7122b9	0.23548402
228	0x3d9da07a	0.07696624
229	0x3e83a4b5	0.257116
230	0x3ea48965	0.32136074
231	0x3e921f66	0.2853958
232	0xbd103ac5	-0.035212297
233	0x3cba3828	0.022731856
234	0x3c34a6ff	0.011026143
235	0x3e514428	0.20436156
236	0x3dc28943	0.09498837
237	0x3e691e8d	0.2276556
238	0x3d358294	0.044313982
239	0x3e6fb670	0.23409438
240	0x3e80a55d	0.25126162
241	0x3e0002d3	0.12501077
242	0xbcf6806c	-0.030090533
243	0xbdb36565	-0.08759574
244	0x3d8e0b6a	0.06935771
245	0x3d5a11c0	0.053239584
246	0xbd1036a1	-0.03520835
247	0x3ea6c5ea	0.3257287
248	0x3e78c881	0.24295236
249	0x3d540673	0.051763963
250	0xbbea22aa	-0.0071452456
251	0x3e91edc4	0.28501713
252	0x3e9710c8	0.2950499
253	0x3d2eaaca	0.042643346
254	0x3b535994	0.0032249438
255	0x3e0a4dda	0.1350626

action_model._continuous_distribution.log_sigma f4 [1, 2]
0	0x41097f85	8.593633
1	0x4110c5e0	9.048309

action_model._continuous_distribution.mu.weight f4 [2, 256]
0	0xbf074646	-0.52841604
1	0x3ea11e65	0.31468502
2	0x3f013d87	0.5048451
3	0x3eb165b3	0.34647903
4	0x3e769f3f	0.24084185
5	0x3e43c4a0	0.19117975
6	0x3ce29a63	0.027661508
7	0x3d0a9fc5	0.033843774
8	0x3d9d507c	0.07681367
9	0x3d1d3a51	0.038385693
10	0x3e21cf33	0.15801696
11	0x3e876a10	0.26448107
12	0xbd75a741	-0.05997396
13	0xbe77038d	-0.24122448
14	0xbf073356	-0.5281271
15	0x3e7bbf49	0.24584688
16	0xbeed4093	-0.4633833
17	0x3e142415	0.14466889
18	0x3ef5e97c	0.48029697
19	0xbe896534	-0.26835024
20	0x3e3164c2	0.17323592
21	0x3e4a8f1d	0.19781156
22	0x3e61ce61	0.22051384
23	0x3e3f14bb	0.18660252
24	0x3f2c9c89	0.67426354
25	0xbe48bd67	-0.19603501
26	0xbd3e7451	-0.046497647
27	0x3e830261	0.25587752
28	0xbe2dcb24	-0.16972023
29	0xbd83e958	-0.06440991
30	0xbeebd61e	-0.46061796
31	0xbeeb993c	-0.46015346
32	0xbe8df115	-0.27722993
33	0x3eb40d8d	0.35166588
34	0x3ec57e41	0.38572887
35	0x3e973c77	0.2953832
36	0x3ea25274	0.31703532
37	0x3eae8714	0.3408743
38	0x3e868871	0.26275972
39	0xbd5a53d9	-0.05330262
40	0x3ebf4bfb	0.37362656
41	0xbf115c80	-0.5678177
42	0xbe3b7a91	-0.18308474
43	0x3d3796b4	0.044821456
44	0x3dfd1e5f	0.123593085
45	0xbd47932f	-0.04872435
46	0x3e058ce4	0.13042027
47	0x3e36c4bb	0.17848484
48	0xbd8bce5a	-0.06826468
49	0x3e420f91	0.1895125
50	0x3e1ad8c7	0.15121756
51	0xbe87f611	-0.2655492
52	0xbd1a22d7	-0.037630882
53	0x3e5345d8	0.20632112
54	0x3e465368	0.19367754
55	0xbd163b4a	-0.036677636
56	0x3ea053ce	0.31313938
57	0xbcd14873	-0.025547242
58	0x3de7e193	0.11322322
59	0x3e169506	0.14705285
60	0xbea3727e	-0.31923288
61	0x3e9cccf7	0.30625126
62	0x3ef8a33a	0.48562032
63	0xbefa2836	-0.48858804
64	0x3e6b1d64	0.2296043
65	0xbe8dd5ff	-0.2770233
66	0x3e641c75	0.2227648
67	0x3ef22379	0.47292688
68	0x3e872c15	0.2640082
69	0x3ccde02a	0.025131304
70	0x3e622485	0.22084244
71	0xbe445f76	-0.1917704
72	0x3e50e9e1	0.20401718
73	0xbec6ecb4	-0.38852465
74	0x3e74002c	0.2382819
75	0x3e546e32	0.20745161
76	0xbdd51e04	-0.10406116
77	0x3f0a7190	0.5407953
78	0xbeae2649	-0.34013584
79	0x3ea887c4	0.3291608
80	0xbe979509	-0.29605892
81	0x3e95d8d7	0.29266998
82	0xbed3ede4	-0.41392434
83	0x3d89e6be	0.06733464
84	0x3e6ad073	0.2293108
85	0xbe0de4a9	-0.13856758
86	0x3ec6d435	0.38833776
87	0x3e0f5ec7	0.14000998
88	0xbdde6eb4	-0.10860959
89	0x3e639e3c	0.2222833
90	0x3eb40a8a	0.3516429
91	0x3efc7aaa	0.49312335
92	0x3e92e9ce	0.28694004
93	0xbf1e8375	-0.6191934
94	0x3e4318c5	0.19052418
95	0xbf12b367	-0.57304996
96	0xbc87aaa9	-0.01656087
97	0x3e421e58	0.18956888
98	0x3ece9941	0.40351298
99	0x3e9a15cf	0.30094764
100	0xbf397e55	-0.7245839
101	0x3e6ba6a1	0.23012783
102	0xbea1ab3c	-0.31575954
103	0xbc260185	-0.010132198
104	0xbf1b7628	-0.6072717
105	0x3e8ca33e	0.27468294
106	0x3e01dc2f	0.1268165
107	0xbf0955a7	-0.5364632
108	0xbe886b99	-0.2664459
109	0x3e804231	0.250505
110	0xbf5ec0f8	-0.87013197
111	0x3ecc33ce	0.39883274
112	0x3ea79ffb	0.32739243
113	0x3e5712b6	0.21003231
114	0x3da359ae	0.079760894
115	0xbd5c2766	-0.05374851
116	0x3d4847df	0.048896667
117	0xbf19e1f7	-0.6011042
118	0x3dd33e96	0.10314672
119	0xbd047f7c	-0.03234814
120	0x3f0cb515	0.5496381
121	0x3e1e085f	0.15432881
122	0xbd84518e	-0.06460868
123	0x3e6a15dd	0.22859903
124	0x3e1aa21c	0.15100902
125	0x3e90a14d	0.28248063
126	0x3ee44c00	0.44589233
127	0x3eee240b	0.46511874
128	0xbe3586cd	-0.17727204
129	0x3e8b6764	0.27227318
130	0x3d07c6bf	0.033148523
131	0xbeedd5e0	-0.46452236
132	0x3d76efd8	0.060287327
133	0xbf183dc7	-0.59469265
134	0xbea42e73	-0.32066688
135	0xbd56a81f	-0.052406427
136	0x3eada86b	0.33917555
137	0xbf0ee5e9	-0.55819565
138	0xbd428cf4	-0.047497705
139	0xbf131d9a	-0.57467043
140	0x3e486705	0.19570549
141	0xbe87ffad	-0.26562253
142	0x3d8607f6	0.06544487
143	0xbd88ae4b	-0.06673869
144	0x3e5d17bc	0.21591085
145	0x3e9894b8	0.29800963
146	0x3dcd71d2	0.10031475
147	0x3e6a58cb	0.22885434
148	0xbe766d8f	-0.24065231
149	0x3ec80103	0.39063272
150	0x3e9007b8	0.2813089
151	0x3ebcb988	0.368603
152	0x3d67c70a	0.056586303
153	0xbf1be787	-0.6090016
154	0x3e7e9439	0.2486123
155	0x3dad8786	0.08473115
156	0x3bf3797b	0.007430253
157	0xbea98b00	-0.3311386
158	0xbcaa19bc	-0.020764224
159	0x3e2e1456	0.16999945
160	0x3f131e2c	0.57467914
161	0x3ead3ec0	0.33836937
162	0xbe0aa1b5	-0.13538249
163	0x3ec7179b	0.38885197
164	0x3c07fdca	0.008300254
165	0xbf15cb8f	-0.5851373
166	0x3ece5d26	0.40305442
167	0x3e8421fc	0.25807178
168	0x3e69d884	0.228365
169	0x3e72ff3f	0.23730181
170	0x3ebaa931	0.36457208
171	0xbf113be9	-0.5673204
172	0x3e45fd8e	0.19335005
173	0xbf112232	-0.566928
174	0x3e13f0c1	0.14447309
175	0x3ecaab7e	0.39583963
176	0x3d98043c	0.07422683
177	0x3e623b6e	0.22092983
178	0x3eb63c16	0.35592717
179	0xbdb0dcb2	-0.08635844
180	0x3e50b6e1	0.20382263
181	0x3e726bf2	0.2367399
182	0xbede8c91	-0.4346662
183	0x3e3e1189	0.18561377
184	0xbe2cb067	-0.16864167
185	0xbe9263dc	-0.28591812
186	0xbf2fe539	-0.6870914
187	0x3de77141	0.11300898
188	0xbf08b353	-0.5339863
189	0xbef13005	-0.47106948
190	0x3ea80568	0.32816625
191	0x3ef97c20	0.48727512
192	0xbb981a16	-0.0046417816
193	0x3b2b5b11	0.002614681
194	0xbd218f9f	-0.03944361
195	0x3df87a44	0.12132695
196	0xbeef269b	-0.4670914
197	0xbf057960	-0.5213833
198	0x3e985b3e	0.29757112
199	0x3ee9b81b	0.45648274
200	0xbefdcaf9	-0.49568918
201	0xbd544232	-0.05182094
202	0xbd0a336c	-0.033740446
203	0x3e9ae8e4	0.30255806
204	0x3e85b85b	0.26117215
205	0x3ca70114	0.020386256
206	0xbe2a67fa	-0.16641226
207	0x3eb6b833	0.35687408
208	0xbda19bd2	-0.078910485
209	0x3ea53a72	0.32271153
210	0x3ead677c	0.33868015
211	0x3def758d	0.11692343
212	0xbe9e8638	-0.30961776
213	0xbd1fb730	-0.03899306
214	0x3dcbd3c8	0.099525034
215	0xbf33a4b7	-0.7017321
216	0x3ef6bc9b	0.4819077
217	0x3d1a3171	0.037644807
218	0x3ed19981	0.40937427
219	0x3d8f2d6f	0.06991088
220	0x3eb0cfe7	0.34533617
221	0xbedeca28	-0.43513608
222	0xbe86dc4c	-0.26339948
223	0x3de69af4	0.11260024
224	0xbd940332	-0.07227172
225	0x3f380641	0.7188454
226	0xbf115819	-0.5677505
227	0xbf26ef3f	-0.6520881
228	0x3ea262c9	0.31715992
229	0xbeffcbe4	-0.49960244
230	0xbefc4bb6	-0.49276513
231	0xbefb4dc4	-0.49082768
232	0xbcb4b5f6	-0.022059422
233	0x3e9eb91f	0.3100061
234	0x3e8cf260	0.27528667
235	0xbf01ce02	-0.5070497
236	0xbe47353b	-0.194539
237	0xbee87c67	-0.4540741
238	0x3dc68ca3	0.09694793
239	0xbeabdf4a	-0.33568794
240	0xbd999351	-0.074988015
241	0x3d85ada6	0.065272614
242	0xbdce6474	-0.10077754
243	0x3d785875	0.060631234
244	0x3eaea3d5	0.3410937
245	0xbf2a446d	-0.6651066
246	0x3ec2687b	0.37970337
247	0xbf29de1b	-0.6635453
248	0xbef37fef	-0.47558543
249	0xbeca34b5	-0.39493337
250	0x3e516c62	0.20451501
251	0xbd00f90f	-0.03148752
252	0x3ee90cfb	0.45517716
253	0x3f235a08	0.6380925
254	0x3ea27c4c	0.31735456
255	0x3c09ab2b	0.008402626

action_model._continuous_distribution.mu.bias f4 [2]
0	0xbdd885cb	-0.10572394
1	0x3e19faec	0.15037125
