Assets/Agent Controller.onnx (onnx, 143319 bytes, 8 tensors)

network_body._body_endoder.seq_layers.0.weight f4 [128, 133]
0.010822238 0.08130644 -0.20375139 -0.020365983 0.032844935 -0.1136175 0.009643312 -0.06292438
-0.063016385 0.047866065 0.0003824355 -0.20097402 -0.17149459 -0.081450954 -0.05150605 -0.12040197
0.13370742 0.04485538 -0.108409986 -0.020882843 0.09144019 0.048460033 -0.10566281 -0.0055942126
0.12116686 0.0026675665 0.050180808 0.047594085 0.09086955 -0.012365099 -0.08824739 -0.086768985
-0.03409637 0.0070611923 0.02086479 -0.036068358 -0.17213859 -0.17562039 0.08434467 -0.067016356
-0.0041272556 0.054435886 -0.055750594 -0.15605898 -0.13945748 0.124040045 0.004726442 0.08888425
-0.008658517 0.02397983 0.074985474 -0.012581597 0.05990031 0.008585236 -0.018649464 0.037475847
0.11944175 -0.09136903 0.008255728 -0.00038586246 0.042637788 0.0037941015 -0.114609376 -0.107793145
-0.07439049 -0.020554153 0.15369889 -0.14591248 0.0187101 -0.15539183 -0.14367536 0.07015995
-0.060552265 -0.044082902 -0.060616374 -0.11314781 -0.004875687 0.06486776 -0.032573253 -0.07203499
-0.020999355 0.038325038 0.1670082 -0.02365556 -0.18843435 0.097521484 0.12090225 0.06524339
-0.08267954 0.13123141 -0.1120308 -0.11712067 0.062223688 -0.02329143 -0.09000121 -0.033431403
-0.019530615 -0.04148442 -0.12994273 -0.013739052 -0.14262721 0.17732197 -0.038810693 -0.1204264
0.021861685 0.033805963 -0.05332857 -0.029006388 -0.018581528 -0.17229888 -0.011853539 0.064781405
-0.050669976 -0.12651378 0.031001342 -0.05462257 0.16547136 0.11636529 -0.03944457 0.029670589
-0.018062264 -0.20718695 0.18866092 0.08584696 0.0030610869 -0.09721269 0.07870269 -0.13784517
0.099163294 0.0128446575 0.07221366 0.05990055 -0.021836655 -0.07248765 0.153614 -0.102315366
0.09670945 0.06720434 0.04885757 -0.00302516 0.07886226 -0.022067208 -0.017608048 0.01431341
0.12176993 -0.07374654 0.098389685 -5.9846607e-05 0.120382644 -2.173812e-05 -0.018455312 0.014046433
0.057660833 -0.0940514 0.041018493 0.08413951 0.0028523845 0.10936373 -0.1624778 0.017798973
0.058079373 -0.05849853 -0.10679823 -0.050438676 -0.01297077 0.00185826 -0.059888862 0.103432804
-0.051413167 -0.04948921 0.079082616 -0.1807021 0.05429968 0.046047494 -0.061862376 0.10599285
0.049402468 -0.18087703 -0.057938986 -0.112396635 -0.046946205 -0.07607668 -0.037447266 0.031267885
0.009678359 -0.02241345 -0.12834059 0.1817077 -0.1137834 0.09502166 0.07885855 0.018607162
-0.1283078 0.034328103 -0.03768198 -0.12760323 -0.00607509 0.0008671311 -0.048306733 -0.07859863
-0.08529141 0.013560041 0.054629035 0.02556008 0.03096332 -0.104547724 -0.07781165 -0.014723673
0.13311864 0.014638445 0.1775346 -0.012494012 0.0043392186 -0.04869137 0.056047007 -0.032369826
-0.044137992 0.03941999 0.0042296574 -0.05561438 0.087350555 -0.043546755 0.023085484 -0.02654588
0.11607491 -0.004260876 0.007844286 -0.12667368 0.012144494 0.014466446 0.019037329 -0.087767795
0.028329235 -0.010515493 0.18377627 0.014407924 0.015432482 -0.06378841 0.06677841 -0.16228148
-0.020208573 0.010349752 -0.01283673 0.14799125 0.024872752 -0.011222348 -0.055645943 -0.11159736
-0.048399955 0.12691201 -0.0041828873 0.086694114 0.045465145 -0.08903741 -0.027557129 0.044521555
00000000: c24f 313c fe83 a63d 34a4 50be 90d6 a6bc
00000010: 6988 063d 4bb0 e8bd fbfe 1d3c 7fde 80bd
00000020: bc0e 81bd 350f 443d a081 c839 22cc 4dbe
00000030: 479c 2fbe c2cf a6bd 02f8 52bd 4f95 f6bd
00000040: 99ea 083e 46ba 373d 0e06 debd 7f12 abbc
00000050: ff44 bb3d 077e 463d be65 d8bd a84f b7bb
00000060: 5526 f83d 57d2 2e3b 648a 4d3d 04f2 423d
00000070: d119 ba3d fc96 4abc 0cbb b4bd f0b3 b1bd
00000080: a3a8 0bbd 9361 e73b a3ec aa3c 6abc 13bd
00000090: 1945 30be d5d5 33be e6bc ac3d df3f 89bd
000000a0: ee3d 87bb 2af8 5e3d bc5a 64bd edcd 1fbe
000000b0: f1cd 0ebe b508 fe3d 45e0 9a3b f208 b63d
000000c0: 74dc 0dbc 5971 c43c fc91 993d 0b23 4ebc
000000d0: 075a 753d 17a9 0c3c c3c6 98bc 4680 193d
000000e0: e09d f43d b01f bbbd 0843 073c 954d cab9
000000f0: f6a4 2e3d 76a6 783b 52b8 eabd a7c2 dcbd
00000100: 0b5a 98bd 2f61 a8bc 3e63 1d3e 156a 15be
00000110: ec45 993c 091f 1fbe a21f 13be 05b0 8f3d
00000120: a705 78bd 4690 34bd e048 78bd 0aba e7bd
00000130: 3ac4 9fbb 63d9 843d 886b 05bd 1587 93bd
00000140: d706 acbc b7fa 1c3d 3304 2b3e 4ec9 c1bc
00000150: eff4 40be 58b9 c73d 999b f73d 549e 853d
00000160: e453 a9bd 8761 063e 6770 e5bd f6dc efbd
00000170: 44de 7e3d abcd bebc 8e52 b8bd 5eef 08bd
00000180: abfe 9fbc 91eb 29bd b50f 05be c319 61bc
00000190: de0c 12be e493 353e f6f7 1ebd 1ea2 f6bd
000001a0: 4717 b33c 1f78 0a3d 0f6f 5abd ce9e edbc
000001b0: 4a38 98bc 1e6f 30be 5935 42bc 1dac 843d
000001c0: 528b 4fbd d48c 01be 87f6 fd3c eabb 5fbd
000001d0: 5371 293e ed50 ee3d a190 21bd bc0f f33c
000001e0: 50f7 93bc d128 54be 5430 413e 88d0 af3d
000001f0: 849c 483b 7217 c7bd e02e a13d 4927 0dbe
00000200: 2016 cb3d 6672 523c c1e4 933d 475a 753d
00000210: c9e2 b2bc 6874 94bd fd4c 1d3e b88a d1bd
00000220: 9b0f c63d 6ea2 893d e01e 483d c341 46bb
00000230: 8982 a13d 4ac6 b4bc c13e 90bc cb82 6a3c
00000240: 8362 f93d 6d08 97bd 8880 c93d ce03 7bb8
00000250: 2d8b f63d 425a b6b7 982f 97bc 0323 663c
00000260: c42d 6c3d 059e c0bd 0203 283d 5651 ac3d
00000270: 12ef 3a3b 17fa df3d 9560 26be 27cf 913c
00000280: a3e4 6d3d 289c 6fbd 08b9 dabd c998 4ebd
00000290: 5a83 54bc dc90 f33a 064e 75bd 94d4 d33d
000002a0: 9d96 52bd 33b5 4abd 11f6 a13d f909 39be
000002b0: 5769 5e3d 4c9c 3c3d 6763 7dbd c812 d93d
000002c0: 3e5a 4a3d d437 39be 6e51 6dbd 3530 e6bd
000002d0: aa4a 40bd 17ce 9bbd 4e62 19bd c112 003d
000002e0: fb91 1e3c 699c b7bc b76b 03be 9511 3a3e
000002f0: 4507 e9bd b79a c23d 9780 a13d 0c6e 983c
00000300: 1f63 03be a09b 0c3d 6b58 1abd 6caa 02be
00000310: 8c11 c7bb 2f50 633a 48dd 45bd 52f8 a0bd
00000320: 43ad aebd ef2a 5e3c b2c2 5f3d 5f63 d13c
00000330: caa6 fd3c 1e1d d6bd b75b 9fbd 903b 71bc
00000340: 4150 083e 17d6 6f3c a1cb 353e afb3 4cbc
00000350: 0130 8e3b 9a70 47bd 8c91 653d 3996 04bd
00000360: 0aca 34bd db76 213d f098 8a3b e7cb 63bd
00000370: d9e4 b23d 155e 32bd c51d bd3c bf76 d9bc
00000380: afb8 ed3d d29e 8bbb 5285 003c bfb6 01be
00000390: b3f9 463c ac04 6d3c 2cf4 9b3c 9abf b3bd
000003a0: b612 e83c 2d49 2cbc d92f 3c3e 370f 6c3c
000003b0: 85d8 7c3c 7fa3 82bd 1ec3 883d 1e2d 26be
000003c0: 738c a5bc 0292 293c 2651 52bc 058b 173e
000003d0: f1c1 cb3c f0dd 37bc 00ed 63bd 288d e4bd
000003e0: 083f 46bd 39f5 013e 9a10 89bb af8c b13d
000003f0: a939 3a3d 3f59 b6bd 7dbf e1bc 3c5c 363d

network_body._body_endoder.seq_layers.0.bias f4 [128]
-0.007725896 -0.0052400255 -0.003418675 -0.0029248174 -0.0030032853 -0.011185148 -0.0070666024 -0.0028317312
-7.9554266e-05 -0.007265258 -0.00060365844 -0.0037295474 -0.007971892 -0.006596154 0.0028600725 0.0028356768
-0.0057205237 -0.007937832 -0.004140332 -0.0065656127 0.0033664724 -0.0066341036 -0.0052542104 -0.0045444407
-0.0019798866 -0.0022241804 -0.0073218783 -0.0067945137 0.00093154254 -0.0032914465 -0.0054206704 -0.0015041396
-0.0016344555 0.0049411207 -0.0025018111 -0.011898099 -0.00889928 -0.0018830107 -0.008883783 0.0010424443
-0.0023127547 0.0008518284 -0.0050928015 -0.0014743828 3.9047867e-05 -0.0021383727 -0.002925755 -0.005343335
-0.0056130067 -0.005635994 -0.0018960817 -0.002599995 -0.00419861 -0.00081335043 -0.0034334357 -0.0043218476
-0.0059353886 -0.0008863354 -0.0029082396 0.0008556203 -0.008867195 -0.008611544 -0.008577065 -0.0020210003
-0.0013977641 0.0011776955 -0.0077988813 -0.004685609 -0.002263971 -0.0055662873 -0.0012710898 -0.0030639174
0.004192044 -0.020921709 -0.008724005 0.0010263029 -0.0039700284 0.0034607614 -0.006399535 -0.0028179209
0.002849032 -0.0074337716 -0.0059537524 0.00252351 -0.0045306077 -0.0012734631 -0.0014493808 0.0024035466
-0.0023975633 -0.0014545592 -0.005585026 -0.0033532814 -0.009645723 -0.0027043796 0.0074172406 -0.00067209
-0.0020543823 -0.0041767955 -0.003972207 0.0056376876 -0.005075643 -4.3249704e-05 -0.005838679 -0.0017633993
-0.0019276072 -0.00477667 -0.006094063 -0.0027081438 -0.004157263 -0.006230357 -0.0011533601 -0.016397014
-0.006672247 -0.0007206611 -0.0040451908 -0.011023612 0.004893452 -0.004834056 0.00026936643 -0.0042050947
0.0009954822 0.0057597854 -0.001792473 0.0010182494 -0.0038882294 -0.0046664607 0.0018141171 0.014098693
00000000: 8329 fdbb 85b4 abbb d90b 60bb 4bae 3fbb
00000010: c4d2 44bb e941 37bc f58e e7bb 9194 39bb
00000020: 5fd6 a6b8 6711 eebb d53e 1eba 6c6b 74bb
00000030: 8a9c 02bc 8d24 d8bb 0e70 3b3b c3d6 393b
00000040: 3b73 bbbb ae0d 02bc 9fab 87bb 5a24 d7bb
00000050: 09a0 5c3b e562 d9bb 832b acbb 88e9 94bb
00000060: fcc0 01bb 8ec3 11bb 5eec efbb 83a4 debb
00000070: c332 743a 4fb5 57bb e19f b1bb 8d26 c5ba
00000080: 3a3b d6ba 20e9 a13b 6df5 23bb 3ff0 42bc
00000090: 49ce 11bc 5bcf f6ba 498d 11bc a0a2 883a
000000a0: 9691 17bb 3c4d 5f3a 84e1 a6bb 1440 c1ba
000000b0: 54c7 2338 f123 0cbb 06be 3fbb 2517 afbb
000000c0: 50ed b7bb 25ae b8bb f285 f8ba ad64 2abb
000000d0: 7e94 89bb 0637 55ba 7e03 61bb 499e 8dbb
000000e0: a67d c2bb f658 68ba 2a98 3ebb b54b 603a
000000f0: b647 11bc 6f17 0dbc d186 0cbc c272 04bb
00000100: 2e35 b7ba e75c 9a3a c28d ffbb bd89 99bb
00000110: 215f 14bb 6765 b6bb b29a a6ba 01cc 48bb
00000120: 6a5d 893b 0164 abbc 21ef 0ebc 0385 863a
00000130: 0317 82bb f1cd 623b 31b3 d1bb deac 38bb
00000140: d3b6 3a3b ff96 f3bb b217 c3bb 7961 253b
00000150: 7e75 94bb 55ea a6ba 26f9 bdba d284 1d3b
00000160: 7020 1dbb e8a6 beba 9802 b7bb bac2 5bbb
00000170: 1809 1ebc f63b 31bb 530c f33b 322f 30ba
00000180: d1a2 06bb 80dd 88bb 4a29 82bb 5abc b83b
00000190: 9451 a6bb 0467 35b8 6452 bfbb dd21 e7ba
000001a0: c4a7 fcba 9d85 9cbb b5b0 c7bb 1d7b 31bb
000001b0: a639 88bb 0628 ccbb 582c 97ba 0853 86bc
000001c0: dda2 dabb bfea 3cba 858d 84bb 619c 34bc
000001d0: 4059 a03b 0067 9ebb c039 8d39 e4ca 89bb
000001e0: d77a 823a 95bc bc3b 6af1 eaba c876 853a
000001f0: aad1 7ebb 1ce9 98bb abc7 ed3a 34fe 663c

network_body._body_endoder.seq_layers.2.weight f4 [128, 128]
-0.05172349 -0.01038636 -0.0932967 0.0019894077 0.0018026268 -0.0075503523 0.082436174 -0.026374158
-0.039819296 -0.039372366 -0.003260837 0.035226867 -0.116569005 -0.1483619 -0.015896885 -0.2567023
0.10604433 -0.18563405 -0.019787207 0.037489336 -0.06471349 -0.05131268 0.03659394 -0.024617806
-0.05518655 0.035288915 -0.023586705 -0.1386392 0.109457985 0.003225975 0.020689568 -0.111137845
0.08764887 -0.14606903 -0.08352806 -0.118825994 -0.119078994 0.0076757804 -0.04621424 -0.09745886
0.050576426 0.015669584 -0.03108215 0.033021815 -0.063188896 0.014390452 0.010595999 0.08627287
-0.039129633 0.19087814 -0.088558376 -0.19571172 0.12409563 -0.047785975 -0.057648122 0.04167795
0.046669118 0.023939187 0.03241802 -0.21239714 0.09633528 -0.041457742 0.03508024 0.015299841
-0.08015052 0.13174166 -0.05058087 -0.0015859951 0.06717508 -0.034930054 -0.11061758 -0.117144555
0.060446404 -0.022683132 0.019412927 0.08534807 -0.08520194 -0.07022121 0.055880193 -0.025213819
0.07776443 -0.031749964 0.046565287 -0.023753367 0.10247799 -0.069925226 -0.04312286 -0.006130691
0.08180312 0.1595476 0.06254173 -0.059563782 0.023976184 0.07935115 -0.025547635 -0.022950461
0.014740378 0.06680232 -0.07016447 -0.060601026 0.008644537 0.05482251 0.042433236 -0.10432171
-0.065080985 0.022083519 -0.072876155 -0.035479456 -0.091482356 0.08451527 -0.04037106 -0.08060786
-0.021101784 0.058618777 0.027526608 0.027650252 -0.009209082 -0.051676854 -0.07642812 -0.041714393
-0.0046640676 -0.05578423 0.016029144 -0.028731298 0.17941011 -0.02551516 -0.055258077 -0.18982734
0.07266689 -0.029266546 0.042822145 0.06043425 -0.006261702 0.02342593 0.014361403 0.027598733
-0.14938103 0.010025332 -0.009533311 0.016118187 0.0057046637 -0.015824405 0.06683269 -0.04989112
-0.13711204 -0.08026282 0.029772213 -0.1031032 0.013913386 -0.12869535 0.023124985 0.09268687
0.13975514 -0.14951469 0.011861529 0.0042989985 0.115520775 -0.1595548 -0.04785789 0.042933952
-0.05691864 0.08352561 -0.06468518 0.1748933 -0.05858882 -0.16670007 -0.1006787 0.079254486
0.035746448 0.08746423 -0.10178876 -0.13259298 0.06654836 0.058829617 0.19807972 0.018717764
-0.12917821 0.23097979 0.0850571 -0.098090574 -0.036542322 -0.13919951 -0.03460154 -0.12691537
0.16676082 0.08018027 -0.048466828 0.06797177 0.076977484 0.0044613774 -0.04127843 -0.03765641
-0.013400697 0.09004499 0.09395314 0.070716515 -0.06675314 -0.13458973 0.22843884 0.08318092
0.054585695 0.09166313 -0.10097152 -0.028419081 0.036463153 0.10476516 -0.03385043 0.09943241
-0.040229145 -0.009914142 0.014057713 -0.0778807 0.10734695 -0.19864078 -0.018558793 0.08847382
0.11173144 0.08417772 0.028710905 0.003573069 0.10294228 -0.011031037 -0.08233432 0.111290455
-0.07413122 0.075732395 -0.050654963 -0.0014224937 -0.02399907 -0.010755711 0.03625905 0.15612286
-0.049401376 0.10062732 -0.2154436 -0.03267805 -0.14131348 -0.047967866 -0.04357125 0.12506011
-0.034934282 -0.038567908 -0.072448306 0.096171215 -0.07695175 0.020633174 0.0022076762 0.00011030797
-0.071991965 -0.021992905 0.035297785 -0.034160614 -0.014180422 -0.11810279 -0.12018445 0.16090603
00000000: 03dc 53bd 8d2b 2abc 5712 bfbd b960 023b
00000010: 1e46 ec3a f268 f7bb 4cd4 a83d 9e0e d8bc
00000020: 8f19 23bd eb44 21bd c4b3 55bb 0c4a 103d
00000030: bbbb eebd 2fec 17be 2f3a 82bc 7c6e 83be
00000040: c52d d93d da16 3ebe c818 a2bc 6b8e 193d
00000050: 8288 84bd 3f2d 52bd 87e3 153d 48ab c9bc
00000060: 4b0b 62bd 1c8b 103d e838 c1bc 6ff7 0dbe
00000070: 822b e03d e16a 533b 2b7d a93c 3d9c e3bd
00000080: 4081 b33d 1f93 15be c210 abbd 0b5b f3bd
00000090: b0df f3bd 1d85 fb3b 254b 3dbd 8398 c7bd
000000a0: 3a29 4f3d 805d 803c fe9f febc e241 073d
000000b0: 2e69 81bd eec5 6b3c d79a 2d3c d5af b03d
000000c0: 6546 20bd 8f75 433e 185e b5bd a768 48be
000000d0: da25 fe3d 3abb 43bd 7020 6cbd 80b6 2a3d
000000e0: 1e28 3f3d 1d1c c43c c2c8 043d a37e 59be
000000f0: 6e4b c53d 98cf 29bd 4cb0 0f3d 2fac 7a3c
00000100: f525 a4bd 49e7 063e e32d 4fbd 2ae1 cfba
00000110: 1793 893d d112 0fbd 788b e2bd 7ce9 efbd
00000120: a696 773d fad1 b9bc dc07 9f3c f8ca ae3d
00000130: 5b7e aebd 23d0 8fbd a1e2 643d 368d cebc
00000140: f542 9f3d 400c 02bd 3ebb 3e3d 6c96 c2bc
00000150: fbdf d13d f534 8fbd 99a1 30bd f7e3 c8bb
00000160: 6588 a73d 7260 233e e115 803d 27f9 73bd
00000170: b469 c43c db82 a23d 4649 d1bc 9b02 bcbc
00000180: a081 713c a8cf 883d 64b2 8fbd c838 78bd
00000190: d1a1 0d3c 918d 603d 79ce 2d3d 9fa6 d5bd
000001a0: 2e49 85bd 7fe8 b43c 1840 95bd e852 11bd
000001b0: 1a5b bbbd 5816 ad3d 205c 25bd bc15 a5bd
000001c0: a6dd acbc 3e1a 703d 7b7f e13c c882 e23c
000001d0: b1e1 16bc 1cab 53bd 5986 9cbd b6dc 2abd
000001e0: 09d5 98bb 017e 64bd 8d4f 833c e65d ebbc
000001f0: 49b7 373e 2b05 d1bc 4b56 62bd 1962 42be
00000200: 61d2 943d 65c0 efbc 4666 2f3d e789 773d
00000210: f72e cdbb bce7 bf3c 174c 6b3c bd16 e23c
00000220: 57f7 18be 4a41 243c 9b31 1cbc 4a0a 843c
00000230: 30ee ba3b 2fa2 81bc 94df 883d a25a 4cbd
00000240: 1967 0cbe d560 a4bd dbe4 f33c c527 d3bd
00000250: f8f4 633c b7c8 03be 9c70 bd3c 9dd2 bd3d
00000260: f91b 0f3e 611a 19be dc56 423c 9dde 8c3b
00000270: 2896 ec3d 5562 23be a306 44bd 83db 2f3d
00000280: 8523 69bd 7a0f ab3d aa79 84bd 3b17 333e
00000290: d5fa 6fbd 6cb3 2abe a230 cebd 2d50 a23d
000002a0: de6a 123d 7220 b33d a076 d0bd 74c6 07be
000002b0: 824a 883d 53f7 703d 69d5 4a3e ff55 993c
000002c0: 4b47 04be f785 6c3e 6b32 ae3d b6e3 c8bd
000002d0: 67ad 15bd 518a 0ebe 58ba 0dbd 1af6 01be
000002e0: 59c3 2a3e 8e35 a43d 2785 46bd c934 8b3d
000002f0: 5fa6 9d3d bf30 923b 9213 29bd 9c3d 1abd
00000300: 998e 5bbc 8269 b83d 816a c03d d2d3 903d
00000310: dfb5 88bd e4d1 09be dfeb 693e c25a aa3d
00000320: 4095 5f3d e1b9 bb3d 28ca cebd 22cf e8bc
00000330: 635a 153d 1e8f d63d c0a6 0abd 38a3 cb3d
00000340: 51c7 24bd ed6e 22bc 5252 663c eb7f 9fbd
00000350: b8d8 db3d 7d68 4bbe 9c08 98bc c331 b53d
00000360: 74d3 e43d 5e65 ac3d 2233 eb3c 272a 6a3b
00000370: 67d3 d23d 86bb 34bc e59e a8bd 40ec e33d
00000380: 1cd2 97bd 9619 9b3d 947b 4fbd f872 baba
00000390: b399 c4bc b938 30bc 5f84 143d acde 1f3e
000003a0: 1959 4abd b215 ce3d 3f9d 5cbe 6bd9 05bd
000003b0: 7bb4 10be f479 44bd c477 32bd c20f 003e
000003c0: 4017 0fbd 62f9 1dbd c75f 94bd 6af5 c43d
000003d0: e198 9dbd e706 a93c a9ae 103b 2455 e738
000003e0: 8670 93bd 772a b4bc 6994 103d 00ec 0bbd
000003f0: 0055 68bc e0df f1bd 4423 f6bd 8dc4 243e

network_body._body_endoder.seq_layers.2.bias f4 [128]
-0.003295534 -0.004350864 -0.0016338469 -0.004206877 -0.008987784 -0.0055583767 -0.0028527551 -0.005349562
-0.0013114475 -0.0007947839 -0.008084989 -0.0048740157 -0.001431235 -0.00023476641 -0.0010881983 -0.004342587
-0.0026064175 -0.004335562 -0.003987898 -0.003816063 -0.0067983796 0.00010521557 -0.0016112488 -0.006355844
-0.0040351017 -0.0064810026 -0.005980582 -0.00866172 -0.0059264014 -0.00069575623 -0.0012345013 -0.005288937
-0.006795253 0.00017573108 -0.0027537316 -0.0065426724 -0.0039548506 -0.004174104 -0.000498782 -0.0037638247
-0.0065419427 -0.003300364 -0.011778789 -0.0008467804 -0.0049846866 -0.0035560357 -0.0024402058 -0.007068936
-0.006662653 -0.0022658468 -0.008679681 -0.0041327546 -0.009244263 -0.002791058 0.0011039869 -0.00457293
-0.014117209 -0.004806647 0.0011011192 -0.006003209 0.00029827675 -0.0057407324 -0.00803494 -0.0033222623
-0.008019332 -0.005096082 -0.0020083073 -0.00022395846 -0.008971384 -0.0039841407 -0.002743525 -0.003693547
-0.0047533186 -0.0007118641 -0.0010888987 -0.0007712498 -0.00671352 -0.006531597 0.00038240818 0.0036759854
-0.0014929817 -0.0038883842 -0.0071768514 -0.0047837077 0.0008621946 -0.0022070217 -0.0059965774 -0.0016845594
-0.0043113353 -0.0019020839 0.00061449106 -0.0025012784 -0.008991078 -0.0007472469 -0.0031949652 -0.0030585462
-0.002048048 -0.0020741432 -0.00033435796 -0.0033712378 -0.002761805 -0.0044354615 -0.006131572 -0.0035222785
-0.0018800786 -0.0019832228 -0.0018005832 -0.003984235 -0.004273819 0.0015478724 -0.0116700465 -0.0020037193
0.0010544792 0.00038408293 -0.0031063093 -0.0036663616 -0.0022909045 -0.004581493 -0.0031852538 -0.00014115893
5.8054193e-05 -0.0047538327 -0.006029041 -0.0053631645 -0.0008495458 -0.0017715137 -0.0010471583 -0.0017906195
00000000: e3f9 57bb b191 8ebb ce26 d6ba d8d9 89bb
00000010: 8041 13bc 0b23 b6bb 4af5 3abb 614b afbb
00000020: e0e4 abba 0b59 50ba e776 04bc 35b6 9fbb
00000030: 4798 bbba a12b 76b9 e0a1 8eba 434c 8ebb
00000040: 6ed0 2abb 5411 8ebb eaac 82bb ea16 7abb
00000050: f1c4 debb 2ea7 dc38 8a30 d3ba af44 d0bb
00000060: e338 84bb 975e d4bb c2f8 c3bb e3e9 0dbc
00000070: 4232 c2bb 6963 36ba fdce a1ba d24e adbb
00000080: b7aa debb 7444 3839 f377 34bb ea63 d6bb
00000090: b197 81bb ecc6 88bb b2c0 02ba 80aa 76bb
000000a0: cb5d d6bb eb4a 58bb d2fb 40bc 78fa 5dba
000000b0: 9556 a3bb 610c 69bb dceb 1fbb 88a2 e7bb
000000c0: 6252 dabb 9a7e 14bb 3935 0ebc 0f6c 87bb
000000d0: 4075 17bc 2fea 36bb a7b3 903a 84d8 95bb
000000e0: de4b 67bc 1481 9dbb 6e53 903a 91b6 c4bb
000000f0: 0762 9c39 c11c bcbb fba4 03bc 50ba 59bb
00000100: 8463 03bc 09fd a6bb ce9d 03bb 64d6 6ab9
00000110: b6fc 12bc 658d 82bb b6cc 33bb 700f 72bb
00000120: bac1 9bbb 649c 3aba 61b9 8eba b32d 4aba
00000130: 16fd dbbb 0207 d6bb f57d c839 cde8 703b
00000140: 27b0 c3ba 43d4 7ebb cb2b ebbb a6c0 9cbb
00000150: e604 623a aea3 10bb f07e c4bb 6fcc dcba
00000160: 1a46 8dbb 584f f9ba cc15 213a 7dec 23bb
00000170: 504f 13bc e4e2 43ba 9f62 51bb e471 48bb
00000180: 8b38 06bb 59ee 07bb c44c afb9 fcef 5cbb
00000190: 66ff 34bb 5957 91bb 5beb c8bb 07d6 66bb
000001a0: f86c f6ba f5f8 01bb 8c01 ecba 308e 82bb
000001b0: 640b 8cbb fbe1 ca3a b933 3fbc d550 03bb
000001c0: 7336 8a3a bd5e c939 3993 4bbb 5747 70bb
000001d0: 0023 16bb 5920 96bb b1bf 50bb 1004 14b9
000001e0: 377f 7338 0ac6 9bbb 438f c5bb 7cbd afbb
000001f0: 0eb4 5eba 2332 e8ba cd40 89ba 38b3 eaba

action_model._continuous_distribution.log_sigma f4 [1, 2]
-0.024071798 0.008521943
00000000: 3832 c5bc 9f9f 0b3c

action_model._continuous_distribution.mu.weight f4 [2, 128]
0.012668058 -0.008289581 -0.015982095 0.0041283434 0.00035574718 -0.0031908157 -0.0073842434 0.00518914
-0.00822949 0.0024514855 -4.205292e-05 -0.015428632 -0.020468816 -0.01393303 0.02346406 -0.000102273254
-0.006689553 -0.0030885674 0.0009907606 0.012931661 -0.010442156 0.019308306 -0.009880566 -0.012645536
0.005974386 -1.4006002e-05 0.0073319017 2.5690406e-05 -0.0049654595 0.030454632 -0.025463924 -0.026981585
-0.0039792997 0.0026987735 -0.001152289 -0.014803836 0.02471087 -0.010169195 -0.025112264 -0.005349326
-0.0042814 0.033474192 0.0025768343 -0.014038382 -0.008534894 0.007820509 0.015119831 -0.0011757478
0.0038761576 0.008584803 -0.0010096168 -0.0021999448 -0.025239516 -0.015569293 0.021825774 -0.0051439716
-0.00026930796 0.002180858 -0.042320184 -0.022301057 -0.01576179 -0.0080676265 0.002382409 0.003917551
-0.003356867 -0.006874398 0.0044644726 0.011073844 -0.002425672 -0.004605896 -0.006723893 0.008238196
-0.01808837 -0.016613986 0.020580117 -0.018481536 -0.039794087 0.029805807 -0.00621587 -0.06647388
-0.0022924931 -0.01875024 0.036775593 0.03137894 0.018718623 -0.0023723608 -0.014521372 0.01030851
-0.0033367719 -0.012781474 -0.02186775 -0.0011523999 -0.0017423504 0.0023759066 0.0033888894 -0.015082671
-0.027440304 0.0033353514 0.043093108 -0.008100184 0.0068832776 0.016447118 -0.0018508066 -0.01876972
0.02203817 0.0017000355 0.012398242 -0.017648188 -0.003006561 0.019461565 0.00044120318 0.0020902813
0.012369447 0.020372014 0.014834687 -0.020623911 0.040097497 -0.002017808 -0.03037864 -0.003513446
-0.022809155 0.009093359 0.00554344 -0.0075085317 0.009233461 0.0009873257 -0.0071403394 0.016569775
-0.015371512 -0.024251152 -0.00055385556 0.00856616 0.0015769684 -0.0017365859 -0.0012401303 -0.014618006
-0.03443527 -0.027393939 0.00473361 -0.013902102 0.004434184 -0.01470858 -0.011539396 0.00037645656
0.032246333 0.0065936497 -0.028249295 0.015395394 -0.013737643 0.005387621 0.021659719 0.024035184
0.024701364 0.0004173391 -0.0065500005 -0.00014658745 -0.0029252777 0.001324806 0.002975731 -0.02078274
-0.011694592 0.062934995 0.01637302 -0.00075857004 0.00025675946 -0.004168947 -0.013576999 -0.0059611723
0.01709614 -0.01576317 0.010356164 -0.014456411 -0.0020333105 0.0006755496 -0.00013414578 -0.0076194066
0.019233894 0.0035057408 0.0041773124 0.0035212077 0.018200528 -0.024180332 0.010431588 0.012778211
0.000118317286 0.0120836785 -0.022186514 0.020454565 0.024620133 -0.0076009454 0.0042419694 -0.003159095
0.0044627055 0.0010762761 0.011258937 0.0016300597 0.007411735 -0.0019047299 0.014284351 0.010530372
0.009844477 -0.016562307 0.009548829 -0.021385415 -0.007532745 0.032462835 -0.0032760473 0.0049047447
-0.019687828 0.0015966275 -0.008817687 -0.01855673 -0.0047738245 0.0046551535 0.0136779435 -0.014655195
-0.0071805646 0.02188921 0.019230384 0.01138303 -0.004178248 0.0055938507 -0.012580113 -0.010421653
0.018651322 0.019378198 -0.011499385 -0.0061546075 0.022350064 0.017519224 0.011164999 0.0017469587
-0.015587182 -0.014302413 0.00506194 0.00031940607 -0.0054907124 -0.004561995 0.0010986585 0.006014805
-0.013630335 -0.034544844 0.0060189837 0.0028630435 0.025367951 -0.0025583014 -0.009890447 0.01149759
0.021221563 0.0036596826 0.022497352 -0.009654991 -0.052709505 0.00015117037 -0.029618511 0.017701901
00000000: b08d 4f3c 06d1 07bc e2ec 82bc 0e47 873b
00000010: 9483 ba39 011d 51bb 86f7 f1bb a909 aa3b
00000020: fcd4 06bc 1aa9 203b fb61 30b8 5fc8 7cbc
00000030: 38ae a7bc 5d47 64bc b337 c03c 897b d6b8
00000040: 0a34 dbbb 9069 4abb 69dc 813a 51df 533c
00000050: 9415 2bbc 742c 9e3c 19e2 21bc 392f 4fbc
00000060: c8c4 c33b 52fb 6ab7 7340 f03b ba81 d737
00000070: 4bb5 a2bb fe7b f93c b899 d0bc 7c08 ddbc
00000080: c964 82bb e8dd 303b 6708 97ba ca8b 72bc
00000090: 736e ca3c b29c 26bc 3cb8 cdbc 6649 afbb
000000a0: fc4a 8cbb 3c1c 093d 1be0 283b 3e01 66bc
000000b0: f1d5 0bbc 9821 003c 2bb9 773c 8d1b 9aba
000000c0: 2207 7e3b 46a7 0c3c 1e55 84ba f32c 10bb
000000d0: 1ac3 cebc 5916 7fbc f7cb b23c c38e a8bb
000000e0: e731 8db9 baec 0e3b ee57 2dbd b5b0 b6bc
000000f0: df1e 81bc 142e 04bc 3122 1c3b cd5e 803b
00000100: e2fe 5bbb a142 e1bb b64a 923b 116f 353c
00000110: 06f8 1ebb 0eed 96bb 1a54 dcbb 80f9 063c
00000120: 102e 94bc 0e1a 88bc a297 a83c 9766 97bc
00000130: 20ff 22bd 4f2b f43c 7fae cbbb 7523 88bd
00000140: a73d 16bb 1a9a 99bc 01a2 163d 3487 003d
00000150: cc57 993c 9c79 1bbb 0ceb 6dbc 06e5 283c
00000160: bead 5abb 6369 51bc ff23 b3bc 200c 97ba
00000170: 945f e4ba 19b5 1b3b 2118 5e3b 4f1d 77bc
00000180: 7dca e0bc e995 5a3b 6682 303d a2b6 04bc
00000190: 1e8d e13b 1bbc 863c c496 f2ba f5c2 99bc
000001a0: 6489 b43c bad3 de3a ff21 4b3c ef92 90bc
000001b0: b909 45bb dc6d 9f3c 4a51 e739 1afd 083b
000001c0: 39a9 4a3c 36e3 a63c 300d 733c 7af3 a8bc
000001d0: 463d 243d 333d 04bb a0dc f8bc d841 66bb
000001e0: 44da babc 50fc 143c bfa5 b53b 210a f6bb
000001f0: f147 173c 2769 813a 82f9 e9bb 56bd 873c
00000200: cbd8 7bbc 5aaa c6bc 9e30 11ba 1459 0c3c
00000210: 47b2 ce3a 279e e3ba de8b a2ba 5c80 6fbc
00000220: ff0b 0dbd 4169 e0bc 661c 9b3b a4c5 63bc
00000230: a24c 913b 42fc 70bc bc0f 3dbc 255f c539
00000240: bb14 043d 8b0f d83b 116b e7bc f63c 7c3c
00000250: da13 61bc a48a b03b b96f b13c 6fe5 c43c
00000260: 845a ca3c 4ece da39 63a1 d6bb 45b5 19b9
00000270: 04b6 3fbb 1da5 ad3a 7b04 433b 9140 aabc
00000280: ad9a 3fbc 10e4 803d b620 863c c6da 46ba
00000290: ac9d 8639 aa9b 88bb 1072 5ebc f055 c3bb
000002a0: 340d 8c3c c321 81bc e6ac 293c 95da 6cbc
000002b0: 4a41 05bb 5e17 313a 7ca9 0cb9 37ac f9bb
000002c0: 6690 9d3c 92c0 653b d6e1 883b 10c4 663b
000002d0: 4619 953c d515 c6bc 40e9 2a3c b45b 513c
000002e0: 1c21 f838 9ffa 453c 7ec0 b5bc 5590 a73c
000002f0: 29b0 c93c 5a11 f9bb 3800 8b3b d208 4fbb
00000300: e33b 923b d511 8d3a 6877 383c baa7 d53a
00000310: 24de f23b 21a8 f9ba e908 6a3c 9587 2c3c
00000320: bb4a 213c adad 87bc b172 1c3c 7730 afbc
00000330: 3fd5 f6bb c0f7 043d f4b2 56bb fbb7 a03b
00000340: 5e48 a1bc ee45 d13a 0f78 10bc 4904 98bc
00000350: be6d 9cbb 428a 983b 7419 603c 581c 70bc
00000360: f14a ebbb 0051 b33c 0a89 9d3c e37f 3a3c
00000370: afe9 88bb 9f4c b73b d11c 4ebc 95bf 2abc
00000380: a8ca 983c 07bf 9e3c eb67 3cbc 97ac c9bb
00000390: 7b17 b73c 7a84 8f3c 66ed 363c 35fa e43a
000003a0: 6161 7fbc ab54 6abc a1de a53b f575 a739
000003b0: 6feb b3bb ca7c 95bb dd00 903a d717 c53b
000003c0: c551 5fbc e57e 0dbd e53a c53b e6a1 3b3b
000003d0: 73d0 cf3c 2da9 27bb 8b0b 22bc 6360 3c3c
000003e0: d8d8 ad3c 49d7 6f3b 5e4c b83c f82f 1ebc
000003f0: ece5 57bd 7d83 1e39 85a2 f2bc 9403 913c

action_model._continuous_distribution.mu.bias f4 [2]
4.881512e-05 -0.00017291601
00000000: d6be 4c38 ca50 35b9

action_model._discrete_distribution.branches.0.weight f4 [1, 128]
0.0079277875 0.0055884644 -0.005993936 -0.00056696794 -0.005782011 0.02133824 0.0061261724 -0.004225535
-0.007949624 0.01637743 -0.018813042 -0.0046904627 0.007216999 -0.0044735046 0.004294414 0.01063496
0.005816722 0.004150964 -0.016536457 -0.0003159439 0.004594576 0.009273365 -0.011186708 0.00932729
-0.0066373274 0.0109055145 0.00036744223 -0.0009426862 0.017134966 0.0097610345 -0.006752219 -0.009596484
-0.016400313 -0.016243396 0.02003306 -0.01677829 0.01182809 0.0098360805 0.004729777 -0.0004069666
0.0022111968 -0.01019943 -0.00086325547 0.009042806 0.007827139 0.001618958 -0.008849198 -0.009409774
0.015982388 0.008145271 -0.0018172804 -0.004789714 0.006046257 0.0025853901 -0.012734502 0.0023836694
0.012800673 0.003763326 0.0021809507 0.007131584 0.0040178956 -0.016339539 -0.0004858857 -0.00025200754
-0.008288518 -0.006112988 -0.0024200685 -0.01257326 -0.0043540252 -0.013924566 -0.0050064037 0.011508599
-0.00064332085 -0.014674994 -0.0038253397 -0.006930552 -0.0020149124 -0.004072482 0.00711656 0.00076419767
-0.005127938 -0.000549552 0.005432121 0.013824314 -0.0070542744 0.01209315 0.0073588016 -0.004458356
0.0013444724 0.002146539 0.005760913 0.0046715746 -0.007923494 -0.005373716 0.008851519 -0.002109632
-0.02118651 -0.0002172271 -0.012745666 0.008185199 0.010718935 0.014068201 -0.0048999735 -0.007579391
0.0063369363 0.0014614387 -0.0078007067 -0.0039879824 -0.001887653 0.018472124 -0.0046134125 0.0032784888
0.0056089754 -0.004977458 -0.024332767 0.0040618624 -0.0028795889 -0.009747493 -0.0011115096 -0.002502374
0.0009327672 0.002973472 0.019178692 0.0029753665 0.014502438 -0.007888075 -0.016530199 -0.009614903
00000000: 8de3 013c 701f b73b c868 c4bb 93a0 14ba
00000010: 0677 bdbb 88cd ae3c 0fbe c83b 5b76 8abb
00000020: 243f 02bc f629 863c cf1d 9abc 74b2 99bb
00000030: 937c ec3b 7a96 92bb 28b8 8c3b 413e 2e3c
00000040: 339a be3b cf04 883b 7777 87bc 46a5 a5b9
00000050: 198e 963b 50ef 173c 7448 37bc 7dd1 183c
00000060: f07d d9bb 0bad 323c 43a5 c039 9a1e 77ba
00000070: a15e 8c3c bfec 1f3c b841 ddbb 923a 1dbc
00000080: f359 86bc df10 85bc 5f1c a43c a072 89bc
00000090: 9bca 413c 8327 213c 3ffc 9a3b 225e d5b9
000000a0: bae9 103b 831b 27bc 184c 62ba 4728 143c
000000b0: 673d 003c 3733 d43a 3afc 10bc 742b 1abc
000000c0: 7fed 823c be73 053c d031 eeba 08f3 9cbb
000000d0: ae1f c63b a66f 293b 5fa4 50bc 5637 1c3b
000000e0: eab9 513c 22a2 763b 48ee 0e3b 10b0 e93b
000000f0: 8da8 833b 7fda 85bc 7abe feb9 e11f 84b9
00000100: 90cc 07bc 764f c8bb 039a 1ebb 1300 4ebc
00000110: 36ac 8ebb dd23 64bc c20c a4bb 908e 3c3c
00000120: 88a4 28ba 636f 70bc 8db2 7abb af19 e3bb
00000130: 9f0c 04bb 7572 85bb 0832 e93b 7054 483a
00000140: 4308 a8bb cf0f 10ba efff b13b 607f 623c
00000150: 8b27 e7bb 5922 463c 1a22 f13b 6717 92bb
00000160: 0239 b03a f3ac 0c3b 0ac6 bc3b 0214 993b
00000170: 8bd1 01bc ff15 b0bb f605 113c c041 0abb
00000180: 558f adbc 75c7 63b9 33d3 50bc 371b 063c
00000190: 799e 2f3c 507e 663c f58f a0bb 8a5c f8bb
000001a0: 13a6 cf3b bf8d bf3a 129d ffbb 9fad 82bb
000001b0: 206b f7ba da52 973c 1c2c 97bb eadb 563b
000001c0: 7fcb b73b f219 a3bb 8355 c7bc 5f19 853b
000001d0: 7cb7 3cbb f3b3 1fbc 13b0 91ba defe 23bb
000001e0: f284 743a 95de 423b a21c 9d3c 5efe 423b
000001f0: a29b 6d3c fc3c 01bc 576a 87bc d387 1dbc
