Assets/new.onnx (onnx, 130006 bytes, 8 tensors)

network_body._body_endoder.seq_layers.0.weight f4 [128, 107]
00000000: 9477 7abd 89bd 01be cd49 59bc 1bc6 30bc
00000010: 5ef9 5c3b 9c92 fabd 26fe e13d 4cbf 25bd
00000020: 3228 a4bd f45a dfbd 50b7 4e3d e9df 2f3d
00000030: 6069 033e 82ea 723e a447 863e fddc 043e
00000040: cb21 eabb 70b6 cdbb bb9a 253a 3fec 593e
00000050: 7be0 f63d ddd5 d1bd 16a2 7b3d 6978 b73c
00000060: 09c4 c23d a6b9 ddbd 83d1 1f3e be3a 3fbd
00000070: 1c48 133e a7e6 dd3d b9fc eb3c 44c5 9a3b
00000080: c9f9 d6bd cfc3 303e ea81 823d 6573 323e
00000090: f386 0bbe 1e03 82ba 7e56 1f3e e7cf 0e3e
000000a0: fce9 81be add4 033e 84f9 5d3d 06b0 f3bd
000000b0: b128 9d3d 7205 343d 2ca3 b43c 58fc a2be
000000c0: a564 d4bd 7034 283e 7c7b db3c e898 2fbe
000000d0: 8255 9dbd 85a9 273c cddd 14be ae87 a4bd
000000e0: b733 583d 5f1b ff3b 8d46 1dbe 0426 ecbd
000000f0: e985 c43d da6d bbbd 914c ccbd ef87 85be
00000100: a666 a73d 0846 f13c 4b7c 1f3e 1dd4 74be
00000110: 7304 adbd 824d 83bd d380 10bd 6ec0 d5be
00000120: f567 e03d ddcf c5bd 5bd5 2f3e fce6 3bbe
00000130: 054f 633c cc8d c7bc 4d19 403d 69e1 80be
00000140: a154 dfbd 6f38 16be 76a4 b23d 1c68 fcbe
00000150: 79ed 34bd ecd4 963d 7be4 1a3d 7d77 22bf
00000160: 3a53 f9bd 9505 333e 25cd 933d e2f4 04bf
00000170: 41ea f0bd bf86 4f3d 8075 813c 0bca 02bf
00000180: 6d0a 5f3c 7814 43bd 2ef8 393b a785 08bf
00000190: be68 1d3e b67d 62be 75e8 61bc 9e7f 4f3d
000001a0: 9b39 03bc 9bb7 c4bd e042 213e d3ee 17be
000001b0: a612 053d e942 043e 3def 5e3c d921 64bd
000001c0: 66d1 31be 0a20 bbbd 47d6 92bc 97e8 adbb
000001d0: fc2e e53c 6019 d33d fa4e 8ebd 5f41 943c
000001e0: 3a9c 50bd cd0b 463e a07b 033c e05f c1bd
000001f0: 4c54 533b 380a de3d e86c a43c 5eda 81bd
00000200: 2849 283d 4cc6 68be 6552 cdbc 3b16 8ebd
00000210: ca24 15bc fabd 7ebe 2927 c13d c0ec 5c3d
00000220: 8e3e 033e 422b f8bd a72c 3c3e dc97 703d
00000230: 6fca 31bc dfa1 a93d fed1 4e3d d5e0 97bd
00000240: d26f 96bb 48de 4e3d 102a 36be e150 19be
00000250: 3c20 c53c 68e0 d0bb 854c 693e 958a 2e3d
00000260: 43f6 4d3e 0b96 8cbc 4c6f a1be 4102 063e
00000270: 88ac 033d a5e8 e83d 7013 20bc 5419 babd
00000280: 7fd9 92bd 6456 14bc 79fc 48be 9c0c e6bc
00000290: 8dca 623c 6498 edbd 68a8 283e fa21 203e
000002a0: aa20 c53d 2bb5 b2bd fb8f 28be cd2e 44bd
000002b0: fa59 3abc d692 243d 4f2c 93bd 7a12 bbba
000002c0: f75b 2a3c 7fe4 c0bd bfa8 87be ae41 123e
000002d0: 1e8e 12be 248c c43d 30e1 3abe b5ca 49bd
000002e0: 310c fabc 49ca a7bc 3fb2 86be efc4 a739
000002f0: aad6 103e 7cfc ed3c 4ed9 96be 0db2 77bd
00000300: 2586 1abc 9cbd 8e3d 44d4 72be 471a 773c
00000310: 10bf 22bc e1f0 96bc 17bc b3be 7cc0 f6bc
00000320: f990 7ebc 3680 d53d d450 d0be 02b4 0a3e
00000330: a0ae 2b3e deca 033e 2342 a1be 0121 073e
00000340: e6ff fabd 054d d4bd a536 dfbd 595b 0cbe
00000350: dd1c 00bd b86f 94bc 6904 24be 03eb dd3d
00000360: 881d 0e3e 4984 8b3d 2ea3 a83c 2ddf 50bd
00000370: 3e96 953d c61d 0cbe 744a 91bd 0bd0 da3d
00000380: d67a 8cbe af5a 4e3e 6c2b 8b3c 5b8b e23d
00000390: 4c87 643d 494b 75bb b795 97bc 72d5 123e
000003a0: 1fb3 dc3d f8da 6dbe af26 d1bd b3e7 f43d
000003b0: d452 46bc a040 1d3d 64c9 efbd d4f2 d2bc
000003c0: ae79 a0bd e603 493d 77cd 27bd c21c 013e
000003d0: 5926 edbd 03c2 4abe bd12 b83d c4af 233e
000003e0: b48d 5cbe 3103 753e 36a3 423d 0984 7bbc
000003f0: 52f3 dd3c 2c44 403d 1283 ed3c 7e92 313d
-0.061149195 -0.12669958 -0.013262224 -0.0107894195 0.003371797 -0.12234995 0.11034803 -0.040465638
-0.08015479 -0.1090602 0.05046779 0.042938147 0.12833166 0.2372227 0.26226532 0.12974925
-0.0071451417 -0.0062778518 0.0006317307 0.21281527 0.12054535 -0.10245869 0.061433874 0.022396283
0.09510047 -0.10826425 0.15607266 -0.04668688 0.14382976 0.10835009 0.028807031 0.004723223
-0.104968615 0.17262195 0.063724354 0.17426832 -0.13625698 -0.0009919142 0.15560338 0.13946496
-0.25373828 0.12874098 0.054193035 -0.11898808 0.07673777 0.043950506 0.022050463 -0.31833148
-0.10370759 0.16426253 0.02679228 -0.17148173 -0.07682325 0.010233288 -0.14537735 -0.08033691
0.052783694 0.0077852453 -0.15358944 -0.115306884 0.09595854 -0.09151812 -0.099755414 -0.26080272
0.081738755 0.029452339 0.15574758 -0.2390904 -0.08448114 -0.06411268 -0.035279106 -0.41748375
0.10957328 -0.096587874 0.17171232 -0.18349832 0.01387382 -0.024359606 0.04689913 -0.25171974
-0.109048136 -0.14669965 0.08722775 -0.4929818 -0.044171784 0.073648304 0.037815552 -0.63463575
-0.12174077 0.17482598 0.072168626 -0.5193616 -0.117634304 0.050665613 0.015803099 -0.51089543
0.013613326 -0.047626942 0.0028376686 -0.5332894 0.15371987 -0.22118267 -0.013788332 0.050658815
-0.00800934 -0.096053325 0.15748167 -0.14837198 0.032488488 0.12916149 0.013606844 -0.055696342
-0.17365035 -0.0913697 -0.017924441 -0.005307268 0.027976505 0.10307574 -0.06948657 0.018097578
-0.05093024 0.19340439 0.00802508 -0.09442115 0.003224629 0.10841793 0.020071462 -0.06340478
0.041085392 -0.22731894 -0.025063703 -0.06937834 -0.0091030095 -0.24877158 0.09431297 0.05393672
0.12816831 -0.12117626 0.18376409 0.058738574 -0.010851487 0.082828276 0.050493233 -0.0741593
-0.0045909667 0.050504953 -0.17789483 -0.14972259 0.024063222 -0.0063744076 0.22783096 0.04261263
0.20113473 -0.01716139 -0.31530225 0.13086797 0.03214696 0.113724984 -0.009770259 -0.09086862
-0.0717039 -0.0090538 -0.1962756 -0.028082184 0.013842237 -0.11601332 0.16470492 0.15637961
0.09625371 -0.08725961 -0.16461174 -0.047896195 -0.011373991 0.040179096 -0.071861856 -0.0014272474
0.010397903 -0.09418582 -0.2649593 0.14282867 -0.14312026 0.09597042 -0.18249965 -0.049265582
-0.030523391 -0.0204822 -0.26307866 0.0003199945 0.14144388 0.029051058 -0.29462665 -0.060472537
-0.009431397 0.06969759 -0.23713785 0.015081949 -0.009933248 -0.018425407 -0.3510444 -0.03012108
-0.015537494 0.10424845 -0.40686667 0.1354523 0.16765833 0.12870356 -0.3149577 0.13196184
-0.1225584 -0.10366253 -0.108990945 -0.13706721 -0.031277526 -0.018119678 -0.16017307 0.108358406
0.13878453 0.06812341 0.020585623 -0.050994087 0.07304047 -0.13683233 -0.07094279 0.10684212
-0.27437466 0.2015178 0.016988479 0.11061736 0.05579309 -0.0037428907 -0.018504007 0.14339235
0.10776352 -0.23228061 -0.102124564 0.119582556 -0.012104709 0.03839171 -0.11708334 -0.025750555
-0.078357086 0.049075983 -0.04096743 0.12608626 -0.1157958 -0.19800572 0.08987949 0.15985018
-0.2153843 0.23926999 0.04751893 -0.015351304 0.027093563 0.046940014 0.028993163 0.043352596

network_body._body_endoder.seq_layers.0.bias f4 [128]
00000000: f38c a9ba ba55 0e3b c7a8 053c a144 dfbc
00000010: 2b57 0ebe e8a6 81bb 1b12 a6ba 634c c7bb
00000020: 3739 5dbb a067 433c d5c8 19bc 7774 eb3b
00000030: 33cc 40bc 0539 b7ba fa5b debc dcf7 283d
00000040: 4cba e83b db05 dabd a732 5bbc c834 4f3c
00000050: 8c78 fe3c eed3 b0bd b018 16bd d25a 533d
00000060: 8ed2 453c f934 db3c 98e9 a4bb 2d7e be3b
00000070: 39a9 12bc ed39 66bc a31b 1abc f4d1 25bb
00000080: 7165 893b 5af6 903c b343 9738 9225 26bc
00000090: 5085 42bb 1a05 84bb accf d4bb 353b 9f3c
000000a0: 052e afb8 872d 96bc 5b58 8f3b 2199 84bb
000000b0: 6d7f b03c f18b 483b 1d45 f2b9 5f37 de3c
000000c0: d1c1 25bb f454 163b beed c5bb 858e 743c
000000d0: ea6a 3cbc 6806 d8bb 733b 133d dbfb b93c
000000e0: 7497 a73b 60b0 c7bc fd47 92bc a7a3 0abd
000000f0: b9f3 83bc ba6d 6d3b c9a4 803b 74d7 7fbc
00000100: 728f 10bd 3dfd 2ebb 7b77 efbc a30d 48bb
00000110: 83be 64bb ab27 e5bb 5d79 70b9 3b8c 52bc
00000120: 13de 933c b32b 3f3c 0c56 9c3b e90b c93c
00000130: 3d7c 623d fae4 433c 631f 2ebc c178 5e3c
00000140: 6885 1fbd 6a9f 3e3d 806d 163c 7ae6 453b
00000150: 64e2 14bc 439b ee3c 1bbb f5bb 1c45 ca3b
00000160: e1b7 053d dd6b d4bc ae19 b4ba 1a07 06bb
00000170: eaad 9a3a c821 7e3c 6739 5fb9 ff60 f3ba
00000180: ae20 eebc ad16 873c 3f33 c6bc fdda 143c
00000190: f45a 0f3d 28fb 07bc 1033 05bd 223f cd3c
000001a0: f61d 92bc 7cf5 dc3c d68f 8abb d081 713c
000001b0: 0536 e43c 1399 993b 63c5 b5bc bf93 ccbc
000001c0: 31b0 f5bc f8fe 2cbd a959 5abd 1f29 e43b
000001d0: 5e1f 57bc 3b53 103d c5f1 9e3c da18 59bc
000001e0: b3e1 353c d28e a83c a9b2 aebb 8db4 e63b
000001f0: 5fe0 0bbb 8485 da3b 674b a33b 777d 20bd
-0.0012935683 0.0021718577 0.008157915 -0.027254405 -0.1390044 -0.0039566644 -0.0012670191 -0.006082104
-0.0033756027 0.011926562 -0.009386261 0.0071855146 -0.011767435 -0.0013978785 -0.027143467 0.041252002
0.0071022864 -0.10645648 -0.013378776 0.012646861 0.03106334 -0.086341724 -0.036644638 0.051600285
0.012074126 0.026758658 -0.0050327294 0.005813381 -0.008951479 -0.0140518965 -0.009406003 -0.0025302144
0.004193001 0.017695595 7.212851e-05 -0.010140793 -0.0029681511 -0.0040289285 -0.006494483 0.019437412
-8.353222e-05 -0.018332256 0.0043745465 -0.0040465747 0.021545136 0.003060099 -0.0004620933 0.027126012
-0.0025292526 0.002293882 -0.006040304 0.014926557 -0.0115001 -0.0065925606 0.035945367 0.022703102
0.00511449 -0.024376094 -0.017856592 -0.033847477 -0.016107427 0.0036228732 0.003925894 -0.015615333
-0.03529305 -0.0026701235 -0.029231777 -0.0030525706 -0.0034903593 -0.006993254 -0.00022933395 -0.012850816
0.01805023 0.011668134 0.004771 0.024541812 0.055294264 0.011956448 -0.0106276 0.013578595
-0.038945585 0.046538748 0.00918138 0.003019719 -0.009087179 0.029126769 -0.0074991114 0.0061727893
0.032646064 -0.02593034 -0.0013740563 -0.002045101 0.0011801098 0.015510984 -0.00021288321 -0.0018568336
-0.029068317 0.016490305 -0.024194358 0.009085414 0.03499885 -0.008299626 -0.0325194 0.025054518
-0.017836552 0.026972525 -0.0042285724 0.014740422 0.02785779 0.0046874373 -0.022188848 -0.024972795
-0.029991241 -0.042235345 -0.053308163 0.00696291 -0.013130037 0.035235625 0.019402394 -0.013250554
0.011101174 0.020575915 -0.0053313565 0.0070405663 -0.0021343452 0.0066687483 0.004983354 -0.039182153

network_body._body_endoder.seq_layers.2.weight f4 [128, 128]
00000000: 2d2d 6a3e 9bd3 5ebd 384e 4f3d 885d 5fbe
00000010: 78da 493e de65 b1bd 1c3d 0abc 41db 0b3e
00000020: af44 37be bdbf f7bc 1595 393c 6a74 2c3d
00000030: 36c3 6fbd 626f 26bd 38a4 b4bd ad51 13bc
00000040: 20b9 7fbd 70fd 9b3d 1a8a 1bbd 3e3f 493d
00000050: 9628 4cbe 2da9 673e 2e2c 0c3e 829f f1bd
00000060: 9bc5 a4bd 7486 ae3c b3f6 603d 9900 293e
00000070: be82 abbc b8e3 b13d e2a6 a9bc f0f9 52be
00000080: e2c1 51be 1c1c c5bb 29ca a5bc de96 813d
00000090: f30e 8f3d 4631 5c3d 336d c53d 9211 b1bb
000000a0: 03a3 fabd d84e b7bd 7dd2 0a3c 2186 b53c
000000b0: abe7 bebd df54 54bd f44f 5fbe a56f 8e3c
000000c0: 14d3 81bd 0b31 27bd 8475 70bd db13 903d
000000d0: 1bb7 2abe 73ef 37be e29f 1cbd a50b fa3d
000000e0: 4d09 94bc 9731 74bd c89b 013e df23 c5bb
000000f0: 373c 64be 962f a2bc 7ce1 3dbe da87 51be
00000100: 30c7 08be fefe 103e 6e40 01bd cac1 9d3d
00000110: ec0d 873c ad57 d7bc 4c49 fbbd 6dab 273c
00000120: d397 8b3c 7a82 dd3d ebbf 463b 3fb2 ce3d
00000130: fb7f ea3d bd39 b63d 7ea6 b2bd 2936 f7bd
00000140: 5fb1 a43d b924 d6bd 5346 eb3c 2404 983d
00000150: a036 2f3a 5072 643d 9117 163c d272 003d
00000160: 0304 3a3e 45df 573d 696b 6fbd 9f05 9cbd
00000170: 9952 ddbd a432 b43d 41e3 b0bd 8bc5 2b3e
00000180: c886 903d aba0 4e3d d7d2 aebc 37ba a9bd
00000190: e65e b43d 42eb a3bc 5e21 e9bc b422 e43d
000001a0: ba8a ce3d 62f4 3d3e c38f 413c 0c7a 2bbe
000001b0: 841f 753d 1732 23bd 642e d13d 6d5a 14bd
000001c0: a53c e7bc ae40 a23d a671 5c3d e625 513d
000001d0: 64e6 94bc 3c41 8d3d 8792 d1be fd6d 5bbb
000001e0: 2aa7 a1bd a2a4 d53d 3f25 8d3d 7e2c 3e3d
000001f0: b01c da3d 4734 7ebd 99a8 213c 34c6 b5bd
00000200: 3fc9 003e 1ef7 4d3e 7518 693d 48d7 313b
00000210: e4d8 75bc e2bc a03d 64b7 7fbd 3c8b 113e
00000220: 2b4c 76be c66f 35bd 8c5c 7f3d e0ef e2bc
00000230: 2804 8e3d df1b 5fbd cb6d debd 5e32 de3d
00000240: a653 66bd 3978 55bd d2db 81bd cc2c 2c3d
00000250: d6ad 09be d05c 3ebd 9fd2 043e 9224 0abc
00000260: b657 5ebe d08e 70bd 8ad4 ce3d fb8f 893d
00000270: 3ff8 f23c 3441 173d e46c bd3d 7a66 c3bd
00000280: e8f7 ba3a 5654 acbd df48 5abe 151c a43d
00000290: febb 023d 301c 0d3e 871f 4f3d e18d 4abc
000002a0: d995 43be 2e1d 163d d35e e83d b6e6 d13d
000002b0: 559b 03be eadb b8bb ad8c d4bd 35c9 a73c
000002c0: 5451 1d3c ed2d b93d 5a3e dfbd 1541 103c
000002d0: fd61 bebd 2efb a9bd 1e5f 1fbe a2db a33d
000002e0: d8dc 173b bd79 afbd 3d6f 263c fc6f b93d
000002f0: 7af3 44bd c655 873e 648e 5f3c cdbd 91bd
00000300: 30a7 f0bc 8350 0c3e 4d60 5ebd 80bd 0ebb
00000310: 34bb d03d a33a 03bd 87d1 c03c 7604 f9bd
00000320: c9c6 30be 06d5 893a e78a d9bd 440e c4bb
00000330: 5a6e 203e 2d82 333e d443 cabd 11a7 3b3d
00000340: d991 1dbd ad89 a3bd 3f74 35bd e6d2 aabd
00000350: bd31 99bd 49f8 c63d 80e6 8cbe e5a9 ee3c
00000360: 6ff7 eabd d52d a9bc e910 39bd 3acf c4bd
00000370: 0bdd 12bd 5383 49bd d369 2bbd 8cad 83bc
00000380: 201e 283e 1636 dbbc b9fd 803d 6d48 79bd
00000390: 8774 94bd 9043 3abd eda9 703b 5a85 1a3e
000003a0: 3c02 8cbe 1ab4 aabd df1e 2ebe 338c 0c3e
000003b0: 86ec 983d 9976 c93d ad7a 223d 391f 2cbd
000003c0: b1e6 cd3d 231d a2bc f325 e23d 32a4 70be
000003d0: 9f13 b8bd cbf7 1e3e 111c a13d 90a5 ae3c
000003e0: 4905 9bbd 4c35 7cbd 2f54 a8bd 079d 033e
000003f0: ed3d 803c 03b5 cc3b 9097 e9bd 9676 603b
0.22868796 -0.05440102 0.050611705 -0.21813023 0.19712245 -0.08662008 -0.008437421 0.13657857
-0.17897294 -0.030242795 0.011327048 0.04210321 -0.058535777 -0.040633567 -0.08820385 -0.008991641
-0.06243241 0.07616699 -0.0379735 0.049132578 -0.19937357 0.22623129 0.13688728 -0.11798002
-0.08045503 0.021304347 0.05492277 0.16504134 -0.020936366 0.08686012 -0.020709459 -0.20603156
-0.20484117 -0.006015314 -0.020237999 0.06327604 0.06985273 0.05375793 0.09639969 -0.005403706
-0.12238123 -0.08950585 0.008473036 0.022158684 -0.09321531 -0.051838752 -0.21807843 0.01738722
-0.06339088 -0.040818255 -0.05870582 0.07035037 -0.16671412 -0.17962436 -0.038238414 0.12209252
-0.018070841 -0.059617605 0.12657082 -0.006016239 -0.22288595 -0.019798081 -0.18543047 -0.2046198
-0.13357234 0.14159772 -0.031555586 0.07702978 0.01648613 -0.026286924 -0.1226984 0.010233742
0.017040169 0.10815902 0.0030326794 0.100925915 0.114501916 0.088977315 -0.08723162 -0.12070877
0.08041643 -0.10456223 0.028720057 0.07422665 0.000668386 0.05577308 0.009160892 0.0313595
0.18165593 0.05270316 -0.058452044 -0.0761826 -0.1080677 0.087987214 -0.08637095 0.16774575
0.070569575 0.050446194 -0.02134077 -0.08287471 0.08807163 -0.02000964 -0.028458294 0.111394316
0.10085054 0.18550256 0.011814061 -0.16745776 0.05984451 -0.03984269 0.102139264 -0.03621905
-0.02822716 0.07922493 0.05381932 0.051061533 -0.018176265 0.06897208 -0.40932104 -0.0033482306
-0.07893212 0.10431792 0.0689187 0.04642915 0.10650003 -0.062061574 0.009866857 -0.08875695
0.1257677 0.20113799 0.05690809 0.0027136374 -0.015005324 0.078485265 -0.062430754 0.1421327
-0.24052493 -0.04429605 0.06234412 -0.027702272 0.069343865 -0.05446994 -0.10860785 0.108494505
-0.056232117 -0.052116606 -0.063407555 0.04203491 -0.1344522 -0.04647523 0.1297097 -0.008431571
-0.21713147 -0.058729947 0.10099132 0.06716915 0.029659389 0.036927417 0.09249285 -0.0954103
0.0014264556 -0.08414523 -0.2131686 0.08013169 0.031917565 0.13780284 0.050567176 -0.012362928
-0.19100131 0.03664892 0.11346211 0.10249083 -0.12852223 -0.00564145 -0.10378394 0.020481685
0.00960191 0.09041963 -0.109005645 0.008804579 -0.092960335 -0.08299862 -0.15563628 0.08000876
0.0023172405 -0.085681416 0.010158357 0.090545624 -0.04808376 0.26432627 0.013644788 -0.0711628
-0.029376596 0.13702588 -0.05429106 -0.0021780431 0.10191956 -0.032038342 0.02353741 -0.12159054
-0.1726333 0.0010515756 -0.10622197 -0.005983146 0.15667096 0.17530127 -0.098762184 0.045813624
-0.03846917 -0.07985244 -0.044300314 -0.08341007 -0.0748019 0.097153254 -0.27519608 0.029133746
-0.114729755 -0.020651737 -0.045182142 -0.09609838 -0.035855334 -0.049197506 -0.04184897 -0.016073965
0.16417742 -0.026759189 0.06298394 -0.060860086 -0.07248788 -0.04547459 0.0036722377 0.15089932
-0.27345455 -0.08335133 -0.17003964 0.13725357 0.07466988 0.09837074 0.039667774 -0.042021964
0.100537665 -0.019789284 0.110423945 -0.23500136 -0.089881174 0.15524213 0.07866681 0.02131918
-0.075693674 -0.061574265 -0.08219182 0.1285287 0.015654529 0.006247164 -0.114058614 0.003425037

network_body._body_endoder.seq_layers.2.bias f4 [128]
00000000: 2faa 0c3c fd0e be3b 86fa 9c3b 0abb bcbc
00000010: 76a9 b6ba b24b 01bd b89f 413a e7fd 45bb
00000020: 06d2 03bd f78e 033d 13de a1bc b846 84bc
00000030: 8381 123b c2b8 edba 2a7c d7bc 6703 e83c
00000040: 614c 173c 36dc 65bb 6e0b 9c3c d8e8 d53c
00000050: 00be 093d d5e4 463d 04cb 5d3d d5e4 ce3c
00000060: 02bd 49bb 3eaf a23c d04e 8e3c ee27 c93c
00000070: bb20 73bc 8287 f33b a168 bcbc d0e9 7e3c
00000080: ea69 953b 5ef7 f43b 2902 15bb 62bd 13bd
00000090: 2ddf da3c c771 0bbd fe1e 70bc 97aa ef3c
000000a0: 515b 203d c68a 903c c48c 09bd f241 4b3c
000000b0: 0fc8 123d 9ca8 2cba 037e 743c b764 663c
000000c0: b5a5 9abc 335e 17bc c73c 85bc 5b54 103c
000000d0: 20e2 39bc 5ac6 053d ed6b 90ba f6b4 fd3b
000000e0: 1baa 9abc aa96 d0bb 28f2 023c 4ac0 093d
000000f0: e9e8 b23c 8213 2a3d 141b d9bb bf89 993c
00000100: 739e 60bb c02c 9c3c fdf9 c43c 7162 f9bc
00000110: 4fa3 7abc d9ff 933c 4b0e debb fd53 073c
00000120: 08c2 b9bc dca2 033d 5ec5 9b3c 3405 fc3c
00000130: e679 b0bc 6665 8bbc f873 733d fd90 3dbc
00000140: 68cc 293c 997d 1d3d 99fe 073c 8015 023c
00000150: 9533 52bc 41ba 1d3c 052d debc db01 8bbc
00000160: 6479 283d b13e 92ba 261f d23c 816f 983c
00000170: efa9 773d 55ff ce3c 7958 643c 423a d73c
00000180: 62de 363d 8069 5b3c c3f0 d5bc a0cc 783c
00000190: 86d4 c93c d740 2dbd f3b6 a9bc ba9a 71bc
000001a0: 7a35 c83b d2fb a33a 7598 adbc d1f2 0f3c
000001b0: 8e89 25bc 0ff9 01bc f2c7 f63b fb09 e7bc
000001c0: 43d1 f0bc f564 9fba 431d b03c 2fca a13b
000001d0: 5b8e 53bb c505 31bd 59b2 283a 109d 4a3d
000001e0: 7bad aa3c f145 f43b 78ba 953c c104 94ba
000001f0: c478 903c 6b4d 0cbb a2bd bc3c bb7d 8c39
0.008585497 0.0058001266 0.004790607 -0.023038406 -0.0013936001 -0.03156633 0.00073861657 -0.0030211152
-0.032182716 0.032118764 -0.019759214 -0.016147003 0.0022355027 -0.0018136727 -0.026304323 0.028321935
0.009234519 -0.0035073883 0.019048419 0.026112005 0.033628464 0.048558075 0.05414869 0.0252556
-0.0030782823 0.019858953 0.017371565 0.024555173 -0.0148393465 0.0074319253 -0.02299911 0.015558675
0.004559745 0.0074757775 -0.0022736883 -0.03606928 0.026717747 -0.034044053 -0.014655827 0.029256148
0.039149586 0.017644297 -0.03358151 0.012405859 0.035835322 -0.0006586404 0.014922622 0.014062098
-0.018877843 -0.009238767 -0.016264332 0.008809174 -0.011345416 0.032659866 -0.0011018493 0.0077425195
-0.01887994 -0.006365617 0.007992305 0.033630647 0.021839576 0.04152251 -0.0066255424 0.01874244
-0.003427413 0.019064307 0.024044985 -0.030442448 -0.015297725 0.018066334 -0.006776606 0.00825977
-0.02267553 0.032137737 0.01901501 0.0307642 -0.0215425 -0.017016124 0.05943677 -0.011570212
0.010363676 0.038449857 0.008300447 0.007939696 -0.012829681 0.009626926 -0.027121076 -0.016968658
0.041131392 -0.00111576 0.025649618 0.018607857 0.060464796 0.025268236 0.013937109 0.026272897
0.044645675 0.013391852 -0.02611578 0.015185505 0.024637472 -0.042298164 -0.02071712 -0.014746362
0.0061098905 0.0012510961 -0.021190861 0.008785919 -0.010103596 -0.007932915 0.0075311596 -0.028203001
-0.029396659 -0.0012160825 0.021498328 0.0049374322 -0.0032280895 -0.043218393 0.0006435267 0.049466193
0.020834675 0.0074546267 0.018277392 -0.0011292921 0.01763571 -0.002140845 0.023039643 0.00026796557

action_model._continuous_distribution.log_sigma f4 [1, 2]
00000000: 6d28 983f e815 cf3f
1.1887337 1.617856

action_model._continuous_distribution.mu.weight f4 [2, 128]
00000000: 8701 10bc c639 4e3b 88be fdbc 9959 40bd
00000010: ac7f 363c 678e 8f3c 871b bfbc b119 1ebc
00000020: 9d92 0d3c 2b89 80bd c8e7 6e3d 6328 5e3b
00000030: 83b1 bc3d 4a06 81bc 29a2 e2bc 869f 27bc
00000040: d9b0 ccbd 98c4 6a3d 8c4e 153e c8e5 43bd
00000050: 4f8d 4a3e 695c 88bd 2dea be3c f006 433b
00000060: 2268 e83b 0519 c6bc ea36 73bc b25f f93b
00000070: 20d2 92bd 7b2a 30bd eba0 bf3c 00eb 8cbc
00000080: 686e cabc e815 a3bb 0e67 bebc e6a7 ab3b
00000090: a272 463d f77f 2dbb b5bb 3b3c c8fa 3bbd
000000a0: a540 b83b 4c08 c83d 2bd3 d33b af75 45bd
000000b0: 7965 16bd 276a 36bc 39a7 58ba e82d 2f3e
000000c0: 8d72 a8bc dd67 be39 9c45 0ebd ccc4 2e3e
000000d0: f5b5 e5bc 6ccb e23d c3d3 193d 24e4 8f3a
000000e0: c10e 013e 1c7d 5b3e 9140 543c 6923 373c
000000f0: 9705 f13d d748 99bd 9ccd 92bc b7c8 7dbd
00000100: d0b5 aabc f3ef 35bc 84ab ea3d dac1 19bb
00000110: 3a09 3ebd 3663 c43d 1106 de3d db3a 4c3d
00000120: b27f 463d 33bd 49bd 0f12 a73a 5e5e 7a3d
00000130: 622c eebc 3226 a7bc 843f 063d 0720 9f3d
00000140: 68f9 5fbc 6ae6 88bb 2d95 b93c aa5f b7b8
00000150: cd45 f9bb fad8 5a3d a4a8 823a e140 5f3d
00000160: f060 49bd 819e ae3d a737 3eba 9914 7a3d
00000170: ab04 58ba 4259 963c 7bcb b63c ea10 913e
00000180: 61fb bb3c aafb a8b9 e652 1e3d 42bd 8dbd
00000190: 8d9d 0a3e 5ee1 fbbb c144 753a 5e93 853d
000001a0: 6260 093e 9c7a 8e3d fcba 8fbc d91c 123e
000001b0: 4cbd 84bb 9898 4d3d 9827 0c3e 07ba fb39
000001c0: f5c0 40bb 82bb 9ebc dcad 123c f95b 8dbc
000001d0: c562 293c ff62 253c 686b cabb 9d30 fa3b
000001e0: c8b3 573e 0d4c 4c3a 2b4c 89bc a164 1c3c
000001f0: dd0a f5bc b3fb 0c3b 909e a13c ea4f 81bb
00000200: 8661 c63b f756 203c 46ac 49bd 2034 7e3d
00000210: a532 d1bd 7e34 b83a 7818 34bd e98b 5c3d
00000220: e794 bcbc c7d9 1fbe aa65 ed3b 8c2d 0bbd
00000230: 80d3 18be 53c7 f43b dafa 32bd b9cd c3bc
00000240: ffbf a4bd 3908 9e3d 8a95 e0bd f319 f93d
00000250: eb47 523d 48d9 413e f006 0b3e e367 da3d
00000260: 72f4 11bb 18b4 c8bc 80fa 44ba 14d0 cb3c
00000270: 32f8 b0bc a9ea 78bd c1a1 bebb 23a7 43bc
00000280: 086c e2bc f2d8 11bd ad8d 60bd 8922 5fbc
00000290: a47e 093e 159f c9bc 43b9 22bc 16de 0f3d
000002a0: 2339 88bc fe34 2ebe f3f3 093b af3f dbbd
000002b0: d0cb 29be e9af 18bd cb2b adbc 5325 99bd
000002c0: 78da 3ebc 7d88 72bc b8de 2d3d 3a04 a53c
000002d0: 64c7 0bbd 845f 2d3e 024d 143d adbc d5bc
000002e0: e09b 8abd 9be4 8e3a e43f 983d 50c2 1c3e
000002f0: 711a bf3c 760b ec3d a3f6 1f3d 779b 44bd
00000300: b7e6 85bd 3f55 d83b b090 d5bc 6755 f0bc
00000310: 7674 36bd 9462 b4bd f84e e6bd d0bb 413d
00000320: d451 66bb b142 32be 209b 56bc 586f ca3d
00000330: 7e79 dabc 46d6 41bc 2301 583d 593f f23c
00000340: b963 9bbb 46d6 8b3c cff1 193d 90c8 13bc
00000350: 6692 0abd d620 89b8 39f0 f5bb 207b 39bd
00000360: 4b63 13be 9b64 a4bd e072 f43c f3f9 5fbc
00000370: 1068 0b3e 2c80 1f3d 315a 0b3d cdaa d83c
00000380: 4f8b ef3c b690 25bc d79c a5bc 7671 eabd
00000390: b620 403d 175a 03bb c3bd 3abd bebb 073d
000003a0: acbe 0fbd 0926 07bd e6dd 99bc 3d1d 8e3d
000003b0: 2db4 db3c 29f9 ac3d f19c 3abd bb0a 8a3b
000003c0: 9638 8dba 3e94 d2bd 1137 76bd ec71 70bd
000003d0: c65a 7fbc 2a2b 13bd 1552 2c3c 86ba b13d
000003e0: 3694 5abd 5e75 7a3c 43fa 6dbd 6d0d 503b
000003f0: 502f e13d 9006 d9bb 0c32 08bd 4e50 55bd
-0.008789427 0.003146754 -0.030974641 -0.046960447 0.011138838 0.017523957 -0.023328556 -0.00964968
0.008640912 -0.06276163 0.058326513 0.0033898584 0.09213545 -0.01575007 -0.027665215 -0.010230904
-0.099946685 0.057316393 0.14580745 -0.04782656 0.19780467 -0.06658251 0.023305023 0.0029758774
0.0070924917 -0.024181852 -0.0148446355 0.0076102847 -0.071689844 -0.043009263 0.023392161 -0.0172019
-0.024710849 -0.0049769767 -0.0232425 0.005238521 0.048449166 -0.0026473978 0.011458327 -0.04589346
0.0056229406 0.097672075 0.006464382 -0.048207935 -0.036717866 -0.011133707 -0.0008264664 0.17107356
-0.020562435 0.00036317008 -0.034734353 0.1706726 -0.028040865 0.11073956 0.037555467 0.0010978025
0.12603284 0.21434444 0.012954847 0.011177876 0.11768644 -0.07484596 -0.017920308 -0.061958995
-0.020838648 -0.011104572 0.11458495 -0.0023461492 -0.046395518 0.095892355 0.10841001 0.049860816
0.048461623 -0.0492527 0.0012746471 0.06112515 -0.029073898 -0.020403955 0.032775417 0.077697806
-0.013670303 -0.004177858 0.02265414 -8.743939e-05 -0.007607198 0.05342958 0.0009968472 0.054505233
-0.049164712 0.08526326 -0.00072562177 0.0610548 -0.00082404417 0.018353108 0.022313824 0.28333217
0.022947015 -0.0003223096 0.038653277 -0.06920864 0.13536663 -0.007686778 0.00093562534 0.06522249
0.13415673 0.0695698 -0.017545216 0.14268817 -0.0040508863 0.050194353 0.13686979 0.00048013052
-0.0029411886 -0.01937652 0.008952584 -0.01725577 0.01033849 0.010094403 -0.0061773546 0.0076351897
0.21064675 0.0007793315 -0.016759953 0.009545476 -0.029912407 0.002151233 0.019728929 -0.003946294
0.006054106 0.009786359 -0.04923656 0.06206143 -0.10214738 0.001405373 -0.043968648 0.053844366
-0.02302022 -0.15610419 0.0072447853 -0.033978984 -0.14924431 0.0074700504 -0.043696262 -0.023901807
-0.08044433 0.07716412 -0.10966022 0.121631525 0.051338118 0.18930542 0.13576865 0.10664346
-0.0022270945 -0.024499938 -0.0007514134 0.024879493 -0.021602724 -0.060770664 -0.0058176224 -0.011941704
-0.027639404 -0.035607286 -0.054822613 -0.013619074 0.13427216 -0.024611989 -0.009931865 0.035123907
-0.016628807 -0.17012402 0.0021049946 -0.10705506 -0.16581655 -0.037277136 -0.021139046 -0.07477822
-0.011648767 -0.014803049 0.04244873 0.020143617 -0.0341257 0.16930968 0.036206253 -0.026090944
-0.06768012 0.001090187 0.07434061 0.153085 0.023328038 0.115256235 0.03905357 -0.047999825
-0.06538146 0.006601959 -0.026069969 -0.029337598 -0.04454466 -0.08807865 -0.11245531 0.047298253
-0.0035143988 -0.17408253 -0.013098508 0.098845184 -0.02666926 -0.011830872 0.05273546 0.029571222
-0.0047421125 0.017069947 0.037584122 -0.009019986 -0.033831023 -6.538785e-05 -0.0075054434 -0.045283437
-0.14393346 -0.080270015 0.029839933 -0.013670432 0.13613915 0.038940594 0.03402156 0.026448632
0.029241232 -0.010105303 -0.020216389 -0.11447422 0.046906196 -0.0020042711 -0.045591127 0.03313803
-0.03509395 -0.032995258 -0.018782567 0.069391705 0.026819313 0.08445961 -0.045559827 0.004212705
-0.001077431 -0.10282181 -0.06011111 -0.058702394 -0.015585607 -0.035929836 0.010517617 0.08678155
-0.053364 0.015286772 -0.058099996 0.0031746284 0.10995352 -0.0066230968 -0.033250853 -0.052078538

action_model._continuous_distribution.mu.bias f4 [2]
00000000: 96da 81bc b961 2c3c
-0.0158513 0.010521346

action_model._discrete_distribution.branches.0.weight f4 [1, 128]
00000000: 07c7 97bc d745 053c c0d9 d1bb b8bd 9dbb
00000010: cee3 483b e541 19bc 3bae 84bb 68fc 0e3b
00000020: 15d2 213b b370 74ba c0dd 193c 42a7 b73b
00000030: 640c 183c da3c 143c aaea e6bb d02d a3bb
00000040: e36e e7bb 6b8a 6b3b a716 3abb b551 f23b
00000050: 8f47 b6bb b562 00bc 5f91 a3bb f47e aebb
00000060: 5aef 4d3a af7e 2d3c 460c ccbb 1d9d 413c
00000070: d294 8a3b 2781 d33b 1b5b f9bb e868 53bb
00000080: 5f2e 173c d798 2ebc 4789 403c ade8 723c
00000090: 4d06 1b3b c867 6c3b 0b35 99b9 ff07 05bc
000000a0: f8f4 95bb fcaa b43b df93 20bb a7c0 43bb
000000b0: 18f9 e53b 3373 143c b873 b4bc e59e e6bb
000000c0: 977e 50bc 4b50 2a3b 5dc1 64bc cf34 b23b
000000d0: 37f5 71ba 5bdf e1bb 5a9c 393c bcb7 08bc
000000e0: 8330 cb3a d6f7 32bc 75a5 03bc cfbb 093b
000000f0: e282 2a3c b437 8bbc f9d2 a1bc a799 3c3b
00000100: 68f7 4ebc f7e3 723a 4db3 603c 13c3 213c
00000110: 8200 c8bb 5212 66bc a7cc 3539 a5fe 2cbb
00000120: 507c 1cbc c3aa 7dbb d73e 79bb 709a 1e3c
00000130: 4fb5 e2bb 4a9e da3b 9833 e1ba 9d6d 7cbc
00000140: 972e 803b c7da bb3b 53eb 493b e0d3 fc3b
00000150: 018b af3b c85b 633b b70f 99ba 6777 82bc
00000160: d39d f3bb e9be 343b 4dc9 8f3b ce3f 18bc
00000170: b1ca ad3c 46a9 2e3c 91af c4bb dd88 d4bb
00000180: 28d9 fcbb 2a9b 0c3a 61f2 3c3b c300 acbb
00000190: 648d 1a3b 17bd a83a ae61 0ebc 3712 af3b
000001a0: f53f 77bc 7a1d 6fbb 3824 84bb 1afa 333c
000001b0: 17ed f7bb e01f 91bc 6f82 2eba abee 043b
000001c0: 682f 05bc ca84 dfbb cd90 d1bb 73e9 b4bc
000001d0: c61b 3d3c 7cee ac3b aec2 81bb 2003 ebbb
000001e0: af1b fa3a b595 aabc 2faa edbb 205f 43bc
000001f0: c18c 893b c341 373b 1c67 87bb 98d7 2fbc
-0.01852752 0.008134327 -0.0064041317 -0.004813876 0.003065336 -0.009354089 -0.00404909 0.0021817926
0.002469187 -0.0009324655 0.009391248 0.0056046555 0.009280298 0.009047711 -0.007047017 -0.0049798265
-0.0070627793 0.0035940658 -0.002839485 0.007394994 -0.0055627297 -0.007836034 -0.004991695 -0.0053251926
0.00078557956 0.010589286 -0.006227049 0.011817244 0.0042291665 0.006454605 -0.0076097376 -0.0032258574
0.009227364 -0.010656557 0.0117514795 0.014825982 0.0023654879 0.00360726 -0.00029221954 -0.008119582
-0.0045763217 0.005513547 -0.00245022 -0.0029869468 0.0070182197 0.009060669 -0.022027835 -0.0070379847
-0.012725494 0.00259878 -0.013962117 0.005438424 -0.000922996 -0.006893081 0.011328781 -0.008344587
0.0015502129 -0.0109233465 -0.0080350535 0.0021016484 0.010407181 -0.016994335 -0.01975392 0.0028778107
-0.012632228 0.0009265537 0.013714624 0.0098731695 -0.006103576 -0.014042454 0.00017337744 -0.0026396897
-0.009551123 -0.0038706518 -0.003803184 0.009680375 -0.0069185863 0.0066717016 -0.0017181514 -0.015406993
0.003911804 0.0057328674 0.003081043 0.007715687 0.0053571467 0.0034692157 -0.0011677657 -0.015926076
-0.0074345856 0.0027579612 0.0043880106 -0.009292556 0.021214815 0.010660475 -0.0060023745 -0.006486042
-0.0077163167 0.00053636974 0.0028830993 -0.0052491142 0.002358281 0.0012873736 -0.008690281 0.0053427476
-0.015090932 -0.0036486075 -0.004032638 0.010984922 -0.007566105 -0.017715394 -0.00066570094 0.0020283859
-0.008128978 -0.0068212496 -0.0063954354 -0.022083974 0.011542266 0.005277453 -0.003959975 -0.0071720034
0.0019081737 -0.020823339 -0.0072529535 -0.011924535 0.0041976874 0.002796278 -0.0041321646 -0.010732554
