Assets/parking2.onnx (onnx, 648067 bytes, 10 tensors)

network_body._body_endoder.seq_layers.0.weight f4 [256, 107]
000000 09 3b 0c 3e 2b ee 4a be a4 3b 0f 3c 38 6f 0b bf
       0.13694395 -0.19817416 0.008742247 -0.5446658
000010 fc 7d a2 bd a8 88 9e be b7 e5 87 3e 4d 58 e6 be
       -0.07934186 -0.30963635 0.26542446 -0.44989243
000020 a6 b7 d9 bd 93 47 7f be cf 2f 4e be 3b 90 39 bf
       -0.10630731 -0.24929647 -0.20135425 -0.72485703
000030 04 64 52 bd 89 15 81 be 75 96 43 3e 7e 80 be be
       -0.051364914 -0.25211743 0.19100364 -0.37207407
000040 cf 78 78 bd 26 d4 29 be ed 28 72 be d7 1a 0f bf
       -0.060662087 -0.16584834 -0.23648424 -0.5590033
000050 f3 64 d9 3c b6 25 e7 bc 01 77 fe be 14 05 4a be
       0.026537394 -0.028216224 -0.49700168 -0.197285
000060 84 f5 44 bd 97 af 91 be 5b 70 c9 3e 24 c2 69 bf
       -0.048085704 -0.28454277 0.39343533 -0.9131186
000070 ad 37 78 3b a8 3e fd bd 63 25 b7 3e 7d 3d d0 3d
       0.0037874982 -0.12365466 0.3577071 0.10167978
000080 4d 86 e2 bb 1c ce 85 be b2 1c 4c be 47 e7 3d bf
       -0.0069129826 -0.2613381 -0.19932821 -0.74181026
000090 80 e5 3b 3d 26 3d 07 be 0a 66 d0 3b 51 39 18 3c
       0.045873165 -0.1320692 0.0063598203 0.009291009
0000a0 40 dd 47 be 5f c2 a0 bd 66 2f 99 be a5 f6 17 bf
       -0.19517994 -0.07849573 -0.29918975 -0.59360725
0000b0 64 f0 6c bd de 6e b0 bd 49 35 3d be f2 e9 9f bc
       -0.057846442 -0.08614896 -0.18477358 -0.019520734
0000c0 88 3b 48 3e 17 3f bc bd 31 0e b8 ba 60 51 25 bf
       0.1955396 -0.09191721 -0.0014042315 -0.64577293
0000d0 47 dc 21 be 1a ab 95 bd 22 a4 80 3e 9c c3 b8 3e
       -0.15806685 -0.07308026 0.25125223 0.36086738
0000e0 7b 61 d1 bb 97 07 f5 be 37 34 e6 bc ce 82 4d bf
       -0.0063897944 -0.47857353 -0.02810107 -0.8027772
0000f0 03 ca 39 3e 6e 54 26 be a9 8e a3 3d 7f 93 29 3e
       0.18143468 -0.16243145 0.07986195 0.16560172
000100 3f ff 27 bc 1e c3 c0 3b 5a 88 08 bf c8 0d ec be
       -0.0102537265 0.005882635 -0.53333056 -0.46104264
000110 27 48 b5 bd 1e fa de be be 8e be be 12 2c dd bd
       -0.088516526 -0.435502 -0.3721828 -0.10799421
000120 40 aa 96 3d a9 6f fb ba 63 fe 83 bd 18 ef ab be
       0.07356691 -0.0019183058 -0.06445005 -0.33580852
000130 a6 d3 58 bd 56 9a 1e bf 75 6a 33 3f 4f 3d 22 3e
       -0.05293622 -0.6195425 0.70084316 0.158437
000140 9e 52 b4 bd 53 32 ab bd 54 7d 7f 3e 8a cc 07 be
       -0.088048205 -0.08359208 0.24950153 -0.13261619
000150 4c 0a c2 bd 1d e5 ca be 4a a0 d3 3e 37 ea de bc
       -0.0947462 -0.39627925 0.41333228 -0.027211292
000160 88 a3 9b bd 0d ba 4e 3d e4 cc a3 3e a9 bb 45 3c
       -0.075995505 0.0504704 0.31992257 0.012068667
000170 92 b1 d5 bd ad 7f 38 be 2b ab 09 be b2 e5 db bd
       -0.104342595 -0.18017454 -0.13444202 -0.1073717
000180 56 14 c4 bd d2 3d 78 bd a6 54 f1 3d de be 75 bc
       -0.09574191 -0.06060583 0.117837235 -0.01499912
000190 01 24 03 be f8 ed 98 3d 9f 6c 0d be e2 95 2d 3e
       -0.12806703 0.07467264 -0.13810967 0.16951707
0001a0 b4 e6 82 be ef 7a ad be 26 8c d1 3d 71 1c de bd
       -0.25566638 -0.33882853 0.10231809 -0.108452685
0001b0 5a 79 69 3c 5d fd 01 bf ba e7 5b 3e 98 bf 81 bd
       0.014250124 -0.50777227 0.21475115 -0.06335372
0001c0 2d 70 8e be c6 c3 d8 be f7 aa d3 3e 16 a3 3c 3c
       -0.27819958 -0.42336863 0.41341373 0.011513492
0001d0 6e 9a d8 ba 24 6b 2c 3e aa a0 2d 3e 61 86 83 3c
       -0.0016525516 0.16837746 0.1695582 0.016055288
0001e0 15 4e ac bc 2c 0a 1f 3b fb 22 44 3e 5b ca 69 3d
       -0.021033326 0.0024267538 0.19153969 0.057077747
0001f0 be 33 11 bd 0b 25 c2 3e 3e 5b 33 3e 17 2a b5 3d
       -0.035449736 0.37918887 0.17515275 0.088459186
000200 bd c0 a8 3d f5 8d 92 be 69 95 e5 3d 71 72 6f 3e
       0.08239887 -0.2862393 0.11210138 0.233835
000210 65 18 f0 be 2e 8e e1 3a f0 9c be bd c3 ba 3e 3d
       -0.46893612 0.001720851 -0.09307277 0.04656483
000220 c7 22 d2 3d 25 2d 54 3d 9f c8 49 3d 78 bc 91 3d
       0.102605395 0.051800866 0.049263593 0.07116026
000230 04 38 34 be fe fb a2 bf a2 7e 7c be 0b 88 ca 3d
       -0.17599493 -1.2733152 -0.24657682 0.098892294
000240 e7 94 91 3d f7 c9 90 bd a6 ad 51 be 77 69 05 3e
       0.07108479 -0.07069772 -0.20476398 0.13028513
000250 c5 17 8c bd cc 87 ce be 4b 40 05 3e ca ad 3b bc
       -0.06840471 -0.4033798 0.13012807 -0.011455009
000260 a1 25 8c be cb e4 0c 3f c7 07 f0 be 52 99 a1 3c
       -0.2737246 0.5503661 -0.46880934 0.01972643
000270 89 f4 25 be c6 73 84 bf 16 1b 14 3e d9 22 75 3d
       -0.16206564 -1.0347831 0.14463457 0.059847686
000280 17 9a 17 3f 16 ad d6 be b7 23 c6 be 9b 64 29 3e
       0.592195 -0.4192893 -0.38699123 0.16542284
000290 6b e3 5d be 36 20 cf be 14 d6 55 3e 79 e0 46 3e
       -0.21668784 -0.40454262 0.20882446 0.19421567
0002a0 56 ce 83 3e 68 7f b0 3d 58 79 54 be f1 09 f4 bd
       0.2574336 0.08618051 -0.20749414 -0.11915959
0002b0 c6 bd 3c be 0d 4c 39 3d 3d 79 5d be 1a 5a 35 be
       -0.18431768 0.045238543 -0.2162828 -0.17710152
0002c0 a3 b7 0b 3c cb e9 37 be b5 b0 8b be 04 7e 9b 3d
       0.008527669 -0.17960279 -0.27283254 0.07592395
0002d0 b1 10 7a 3e 00 40 25 3e e4 91 9e bc 29 63 9c bd
       0.2442043 0.16137695 -0.019356675 -0.07636101
0002e0 2d 3e 10 3f eb 4e 77 3e ad 79 fd 3d f6 6d 95 bd
       0.5634487 0.24151199 0.123767234 -0.07296364
0002f0 9b ef ef 3d c7 c7 d7 3d 21 ec 91 3d 5b f3 5e b9
       0.11715623 0.105361514 0.07125116 -0.00021262227
000300 d5 95 44 3e 70 f6 bd be 60 eb 15 3d c0 e0 65 bd
       0.19197781 -0.3710208 0.036601424 -0.05612254
000310 68 6b c3 3c 0e 4c 4e 3d c3 dd ad bd a7 7e 1a be
       0.023854926 0.0503655 -0.08489563 -0.15087377
000320 70 ff ef be b8 69 c1 3d da a1 19 bf d2 d7 2a 3d
       -0.4687457 0.094439924 -0.6001259 0.04170973
000330 5b 62 21 bf 9d 9b dc bc 77 34 d0 be 4b 77 7b be
       -0.63040704 -0.026929671 -0.40665027 -0.24557225
000340 40 47 b8 3e 8d fc d9 bf 81 81 10 3e d2 df a6 3b
       0.3599186 -1.7030197 0.14111902 0.0050925994
000350 9c ee 83 bf 1b d8 b5 3c 71 2c 15 be a0 a3 97 be
       -1.0307193 0.022197774 -0.14567734 -0.29617023
000360 3e ff e0 be b2 a7 6f be c2 ff b5 bd e4 68 de 3d
       -0.43944734 -0.23403814 -0.088866726 0.1085985
000370 33 ed 85 3e 86 ab 65 be f5 c8 bb bd 72 97 79 be
       0.2615753 -0.22428712 -0.09169189 -0.24374178
000380 84 55 62 be cf 49 c6 bd 36 e7 eb 3c be c0 d1 3e
       -0.22102934 -0.096820466 0.028796773 0.40967363
000390 63 69 40 3e 56 8f 03 be aa 6c c6 bd e4 f9 ef bd
       0.18790202 -0.12847647 -0.09688695 -0.11717585
0003a0 a5 dc db 3e b7 5d 19 be 83 a7 a1 bd 7c 16 73 3e
       0.42941776 -0.14977156 -0.078932784 0.23739046
0003b0 3a 21 48 bc bd 90 9e 3d ea 2b 90 3d c3 64 82 be
       -0.012214953 0.077424504 0.07039626 -0.254675
0003c0 1c de 16 3c 30 f2 b2 be ca 8e 94 bd d1 96 e5 bc
       0.009208228 -0.349504 -0.07253797 -0.028026016
0003d0 2c 13 86 be 58 95 ec bd c2 87 46 be 2d a5 ea bc
       -0.26186502 -0.115519226 -0.19387725 -0.028643215
0003e0 06 af dc bd 90 2b 0a be c1 7a ed 3d 13 58 d1 3d
       -0.107755706 -0.1349318 0.11595679 0.10221877
0003f0 e3 05 68 3d 3d 3e 14 be bb 86 b4 3c c1 b9 85 bc
       0.05664624 -0.14476867 0.0220369 -0.016323926

network_body._body_endoder.seq_layers.0.bias f4 [256]
000000 96 7e 57 be 68 c9 9b bc ec 58 d1 bc f8 84 34 bd
       -0.21044382 -0.019016936 -0.025555097 -0.04407212
000010 f7 e1 00 3d 3f 7e 8e 3d 7d 50 df 3c 8d 62 3b 3d
       0.031465497 0.06957673 0.02726006 0.045748282
000020 4b f8 53 bd 71 e9 62 bc 82 af 3e bd c0 c1 06 bd
       -0.051750463 -0.013849602 -0.046554096 -0.03289962
000030 ec 4c ee bc 3e 2e 95 bd 15 1d 8d bd ca 09 1b be
       -0.029089414 -0.072842106 -0.068903126 -0.15140453
000040 7a 7b b4 bc b9 68 cf bd 32 58 01 3e b3 b1 b2 bc
       -0.022031534 -0.10127396 0.126313 -0.02181325
000050 8c 98 b3 3d 60 0b 07 3d 03 05 40 3c 0e f5 48 bd
       0.087693304 0.032969832 0.011719945 -0.049061827
000060 ca ab 49 3e 04 b4 c0 3b f7 63 6a bc 59 f3 82 3d
       0.19694439 0.0058808345 -0.01430606 0.06394071
000070 60 b1 4e 3b 22 77 9b 3a ca 52 23 bd f2 a1 c6 bd
       0.003153883 0.0011861066 -0.039873876 -0.09698857
000080 24 92 e6 bd a9 05 f4 3c 9c 30 30 3e fa 87 84 3d
       -0.11258343 0.029787855 0.17206043 0.06471248
000090 b6 2e bb bd 14 dd ea bc 46 6f 4d bd 28 c7 ad bc
       -0.09139769 -0.028669871 -0.050154947 -0.02121313
0000a0 47 be a6 bd 0d 66 17 bc 9c 4b 7a bd 15 87 f0 bd
       -0.08141761 -0.009240639 -0.061107263 -0.11744515
0000b0 26 57 37 3d 0e 8e ef bc 80 ee 02 3c f9 69 08 3e
       0.044760846 -0.029242542 0.007991433 0.13321675
0000c0 0f 3e 81 3d ec 0e 2b bd 49 17 25 3e 4d 31 cc 3b
       0.06310665 -0.041762277 0.16122164 0.006231463
0000d0 fb f7 30 bd 7a 33 1a be 44 b9 98 bd 80 5b 2a bd
       -0.043205243 -0.15058699 -0.074572116 -0.041591167
0000e0 c0 b3 06 bd 51 30 60 3d cc 14 cd bd 46 b3 a4 3c
       -0.032886267 0.054733578 -0.10013732 0.020105015
0000f0 a2 59 d2 bd 97 4d 49 be 94 a0 a3 bd e4 64 4b be
       -0.10271002 -0.19658504 -0.07989612 -0.19862705
000100 ce 55 ab 3d 89 34 11 3e 44 07 8e 3d a0 61 00 be
       0.08365975 0.14180197 0.069349796 -0.12537241
000110 9a c4 17 be 5a 65 d8 3d 91 91 73 bd e2 ea cf bc
       -0.14821091 0.10566206 -0.059464995 -0.025380556
000120 4f ca d5 3c f0 b2 de bc 8c 0c d9 3d aa 0d 77 bd
       0.026097445 -0.027184933 0.10598096 -0.060315765
000130 25 58 1f 3d 7a b5 b6 3d 2f 30 0b bd db ea 99 bd
       0.03890242 0.08921333 -0.0339815 -0.07515498
000140 98 24 f7 bc fb e7 d4 3d a6 4f 36 bd 82 20 38 bd
       -0.030168816 0.10395809 -0.044509552 -0.044952877
000150 9a d8 c8 bd 00 ca 9f 3b 84 a9 39 3e 72 ef 00 bd
       -0.098069385 0.004876375 0.18131071 -0.031478353
000160 b1 33 e5 3d 79 da b8 3c 30 51 a9 bd f3 75 e2 bc
       0.111915 0.022565113 -0.082674384 -0.027644133
000170 dd 8d 4d bc fb 4a 65 3d 1f 61 8e 3d 67 44 8b 3c
       -0.01254603 0.05597971 0.06952118 0.01700039
000180 79 0c 95 bd c2 8b 9d bd bc 63 ce bd ea cd 12 be
       -0.072777696 -0.07692672 -0.100776166 -0.14336362
000190 a8 f8 65 3d cd d8 20 3e dc 22 9e bd 21 01 53 3e
       0.05614534 0.15707703 -0.07721493 0.206059
0001a0 9b 3d dd bc f7 15 a4 3c dc 9d 3a bb 7b d2 3e 3d
       -0.027006915 0.020030005 -0.002847544 0.04658745
0001b0 d8 3c 27 3d 2d a7 15 bd 3d 72 f4 bd 71 f9 a3 3c
       0.04082951 -0.036536384 -0.11935852 0.020016404
0001c0 fb f6 80 3d 2d 41 2f 3b e1 27 23 bd 78 0d 18 bd
       0.06297108 0.0026741729 -0.039832953 -0.03712222
0001d0 b5 77 dd 3d af 99 14 bd da 23 84 bd ad 87 8d 3d
       0.10813848 -0.036279377 -0.06452151 0.06910644
0001e0 47 1c ea bd f0 1d e3 3c c1 7d 71 bd 20 02 5c bd
       -0.11431175 0.027724236 -0.05895782 -0.053712964
0001f0 a9 77 ff bc 37 3d e6 3c e4 52 04 bd a4 d8 78 3d
       -0.031184988 0.028105361 -0.032305613 0.06075348
000200 dd 49 a7 bd 8d 40 fa 3d f0 31 cc bd 6f 79 16 be
       -0.08168385 0.12219343 -0.09970462 -0.1469476
000210 23 6d b3 bd b5 a0 fe 3c 2b d7 35 be 85 ae 8f bc
       -0.087610506 0.03108249 -0.17757861 -0.017539272
000220 41 07 06 3c cb 51 d2 bd 6b fe 14 3c 0b a2 91 bc
       0.00818044 -0.10269507 0.009093861 -0.017777463
000230 57 ef 00 be 4c 15 90 3d d5 8f 18 bd 05 42 86 3c
       -0.12591301 0.07035312 -0.037246544 0.016388902
000240 93 a7 1c bd db d9 3e bd 59 b8 c9 bd a2 95 8b bd
       -0.03824575 -0.046594482 -0.09849615 -0.068156496
000250 2c 51 63 bd ba 3f 33 bc ae 51 d6 bd d9 83 64 3c
       -0.055497333 -0.010940487 -0.10464798 0.013947451
000260 aa c2 c9 bd 40 1e a7 ba 46 16 57 bd a8 05 1b be
       -0.09851582 -0.0012750104 -0.052511476 -0.15138876
000270 d0 7a 27 be 7c 05 fc 3c 99 f8 0f 3e bb 8b 7b bd
       -0.16355443 0.030764334 0.14059676 -0.061412554
000280 4c eb 07 3d d9 4b 01 be 40 3e 81 3d 04 12 2d bc
       0.03318338 -0.1262659 0.06310701 -0.010563377
000290 75 c6 ae ba e0 a6 63 bd 58 3b 8e 3d 18 73 78 bd
       -0.0013334291 -0.055579066 0.06944913 -0.060656637
0002a0 d5 dc 31 bd 67 31 d7 bc 13 82 81 bd eb 3d 2c be
       -0.043423492 -0.026268674 -0.06323638 -0.16820495
0002b0 d5 4e f6 3b 88 fe 8a bd fa cd 23 bc 72 ad ca bd
       0.0075167217 -0.06786829 -0.009997839 -0.09896363
0002c0 53 c9 19 be 95 d8 6b 3d 13 f7 53 bd 4a a6 88 3c
       -0.15018205 0.057579596 -0.0517493 0.016680855
0002d0 e8 21 95 bd 56 0c 26 3e 54 87 c5 bd dc 77 e9 3c
       -0.07281858 0.16215643 -0.096449524 0.028499536
0002e0 11 9b 04 3c 08 4b cc bd 84 23 b7 3c 42 2d 88 bd
       0.008093611 -0.099752486 0.022355802 -0.06649257
0002f0 8a 04 67 bd 05 65 06 be ec 67 07 be d2 ee b0 bd
       -0.056400813 -0.13124473 -0.13223237 -0.08639301
000300 f3 c5 79 bc df 7c 8a bc 76 13 1a bc 3f 96 a2 bd
       -0.015244949 -0.016905246 -0.009404054 -0.079388134
000310 02 43 0f 3d 6e 4e bb 3c 9c 78 ba 3d 6d e5 60 bd
       0.034976013 0.022864547 0.09105036 -0.054906297
000320 37 ce 00 3e 95 1c 21 bd f2 17 55 be 6d b8 3d 3d
       0.12578665 -0.0393339 -0.20809916 0.04631846
000330 30 27 ac bc ac 01 28 ba c7 6a ec bd 82 37 69 bc
       -0.02101478 -0.00064089405 -0.11543804 -0.0142344255
000340 ea 7f e4 bd 74 16 2b be c2 42 91 3d 2e d1 af bd
       -0.1115721 -0.16707784 0.07092811 -0.0858482
000350 09 12 ef bd 5a da 2b be a7 13 e5 3c 66 0a 12 3d
       -0.11673362 -0.16782513 0.027963473 0.035654448
000360 29 77 11 3e 74 23 1e bc a6 f0 07 bd fd 5f b8 3c
       0.14205612 -0.009652007 -0.033188485 0.022506708
000370 4d 22 8b 3d fd 8c 07 3e c3 7d b1 bd 4c bc d1 bd
       0.06793652 0.13237377 -0.08666565 -0.10240993
000380 9b 73 03 bd ab 9d fc bd 00 fb 92 bd db db 8a 3c
       -0.03209267 -0.1233476 -0.07176781 0.016950538
000390 dd 8a 93 bd 57 8d cd bd 65 47 da bc 51 c1 01 3d
       -0.072042204 -0.10036724 -0.026645372 0.0316785
0003a0 04 d5 30 be 72 38 6c bd 9b c8 ba bd bb 79 56 bb
       -0.17268759 -0.057671018 -0.09120294 -0.0032726366
0003b0 20 fe 14 bd 5a 6b b2 3d e0 c5 96 3c e8 32 18 bd
       -0.036375165 0.08711882 0.018404901 -0.037157923
0003c0 32 4a bf bd db c9 2f bd 25 c1 26 3c 91 e6 9c 3d
       -0.093403235 -0.042917114 0.010177885 0.076611646
0003d0 0b 98 c3 bd 34 cd a6 3d 0b b4 b7 bd 91 9b 62 3d
       -0.09550484 0.08144608 -0.08969887 0.05532414
0003e0 51 8a 80 bc 15 14 1c bd f3 ca a7 bc a5 94 f5 bd
       -0.015690954 -0.03810509 -0.020482516 -0.11991242
0003f0 30 c7 56 bd 40 05 24 be 9f 2f 1c 3d 5c bf 51 3d
       -0.052436054 -0.16017628 0.038131353 0.051207885

network_body._body_endoder.seq_layers.2.weight f4 [256, 256]
000000 7b 21 19 bd 8c ea 00 3d 14 36 6a bf 53 1f 5a bf
       -0.037385445 0.03147368 -0.91488767 -0.85204047
000010 a4 39 93 3d 56 1f 1d bf 00 d6 1a bf bc 0e ff 3d
       0.071887285 -0.6137594 -0.6048279 0.12453982
000020 f2 a9 61 be 8e 85 04 3f 1c b2 2b be 1a 32 0c 3d
       -0.22037485 0.5176629 -0.16767162 0.034227468
000030 7f 7c b6 bd a9 5e e9 3e 9f 1a 4a be ce 8e 6f 3c
       -0.089104645 0.45580032 -0.19736718 0.01462145
000040 3c aa bd 3d 1b 0a b9 3d 2b 22 6f bf af 59 59 be
       0.09260985 0.090351306 -0.9341151 -0.21225618
000050 ac f9 aa be 03 29 b9 3e f4 c7 be 3d 48 6b 94 3d
       -0.3339361 0.36164102 0.09315482 0.07247025
000060 cc 6b 73 bf b1 09 c4 be 00 9c 84 3e 6e c7 17 3e
       -0.9508636 -0.38288644 0.2590027 0.1482217
000070 70 0a a9 bd 04 99 a7 be 88 2e a8 3e 72 5f 89 be
       -0.08253944 -0.3273393 0.32848 -0.26830631
000080 2a 01 34 be 2d 66 a8 be 95 93 09 bf c4 49 1d 3e
       -0.17578569 -0.32890454 -0.5374082 0.1536017
000090 0f c7 0c 3f cc 2e 68 3d dd 33 13 be 56 b8 a8 be
       0.5499124 0.056685254 -0.14375253 -0.32953137
0000a0 4f 55 61 3e 58 45 43 3d 7e 6e 32 3f dd 87 37 be
       0.22005199 0.047673553 0.6969985 -0.17922921
0000b0 83 24 e4 be 60 90 ff be b3 f8 e5 3d 47 b1 94 3e
       -0.44559106 -0.49914837 0.11229076 0.29041502
0000c0 03 51 86 be 7f 41 dc 3e cb 26 e1 be df 4a 08 be
       -0.26233682 0.4301872 -0.4397491 -0.13309811
0000d0 86 c1 21 bf d5 f7 73 be 64 ec e2 bd 69 c6 86 be
       -0.6318592 -0.23825009 -0.11080244 -0.2632325
0000e0 ab 41 0a 3f 77 90 6f 3e 27 3d 75 bd 9b f2 99 be
       0.5400645 0.23394953 -0.059872773 -0.30067906
0000f0 b7 c4 8f be cf 54 69 3e 96 3d 8e 3d 44 ba 67 be
       -0.2807977 0.22786258 0.0694534 -0.22629648
000100 41 14 38 3e b9 58 96 bd 15 17 74 bd f4 cf ab be
       0.17976476 -0.07341141 -0.059592325 -0.33557093
000110 c0 30 a2 be 28 ad 1c 3d e5 0a de be 48 36 75 bf
       -0.31677818 0.038251072 -0.43367687 -0.9578595
000120 56 c4 1a 3e 77 06 a8 3d a8 3a d5 bd 44 06 3f be
       0.15113959 0.08204358 -0.104115784 -0.18654734
000130 e5 a3 20 3f 7d 34 fc 3e 87 6c 2c 3d 1f 8c ad be
       0.62750083 0.49258795 0.042095687 -0.33895966
000140 88 50 c3 bd ec 8b 9e 3d c5 17 51 be 62 be 1e be
       -0.095368445 0.07741532 -0.20419224 -0.15502313
000150 55 67 6d be 3e be d5 be f8 df 95 3e 11 ca cd be
       -0.2318395 -0.41746706 0.29272437 -0.40193227
000160 67 51 e2 3e 57 5c 01 3f 59 bc 22 bf 60 12 d1 3c
       0.4420273 0.50531524 -0.63568646 0.025521457
000170 e8 35 87 3e 84 e6 76 bf da 41 86 be 67 ed ca 3e
       0.26408315 -0.9644549 -0.26222116 0.3963425
000180 72 69 13 3d 71 da ea bd db ff f3 3e 9a eb d6 bd
       0.035989232 -0.11467446 0.4765614 -0.10494156
000190 c4 2b a1 3c 72 c7 01 bf a2 f7 9b 3e 0b f2 33 3e
       0.01967419 -0.50694954 0.30462366 0.17572801
0001a0 e0 03 1b 3e 76 0d d0 bc e6 c6 2f 3e 85 18 4e 3e
       0.15138197 -0.025397044 0.17165717 0.20126541
0001b0 04 99 4d be 9f 7d ce 3d 21 e5 9e bd 58 59 07 3e
       -0.20077902 0.10082554 -0.077585466 0.13217676
0001c0 79 6d 01 3d ff 2f 7e 3d b9 12 a0 be ef c4 92 bd
       0.031598542 0.06205749 -0.31264284 -0.07166468
0001d0 37 79 af 3e ea 6f 01 bd 77 d7 84 bc 5e 05 08 be
       0.34272167 -0.03160087 -0.016216023 -0.13283297
0001e0 cc 22 7e be 12 b0 0c bf c3 a5 b6 3b b5 c0 a5 be
       -0.24817961 -0.5495616 0.0055739596 -0.32373586
0001f0 fc 2d c3 3c 15 74 13 bd ce 00 0a bf 04 05 46 3b
       0.023825638 -0.035999376 -0.5390748 0.0030215392
000200 df 25 13 be 3b f7 6a 3e 73 eb c2 bd f3 a4 dc be
       -0.14369915 0.22945873 -0.095175646 -0.43094596
000210 0d 50 00 be f7 fa 5c be a1 8b 15 3d fe 14 b2 be
       -0.12530537 -0.2158011 0.036510114 -0.3478164
000220 48 28 ae be ff 8e 17 bd 8a 95 f6 bb 0c 9b 53 be
       -0.34015107 -0.037001606 -0.0075251507 -0.20664614
000230 79 16 93 be 40 b1 c0 3e 05 c4 53 be 65 d3 4e 3e
       -0.28728083 0.3763523 -0.20680244 0.20197828
000240 09 d2 c1 be 17 b4 a8 bc 1e c4 b2 bd 93 19 14 be
       -0.37855557 -0.020593686 -0.08728813 -0.14462881
000250 6b 1b b4 3d 98 13 c2 bd 26 94 2f bf 3b c4 fc bd
       0.08794292 -0.094763935 -0.6858543 -0.123421155
000260 21 57 93 be 2d 15 07 bf 45 38 4c be 6a 8f 2b be
       -0.28777412 -0.52766687 -0.1994334 -0.16753927
000270 7a a0 59 3e 6b 74 e4 bc 5d 1b d2 b9 8c 9d 17 be
       0.21252623 -0.027887544 -0.00040074709 -0.14806193
000280 7a 5e 53 bd 91 78 62 bd c4 b5 db be 05 21 2a be
       -0.05160377 -0.055290762 -0.42912114 -0.16614158
000290 0d 67 73 be fd fb 07 3f 9e d2 bc 3d 35 0e 59 bd
       -0.2376978 0.5311888 0.092198595 -0.052992065
0002a0 ae 78 15 be 0e 8f 14 bf 3d a6 5d be 58 26 4e 3e
       -0.14596817 -0.58030784 -0.21645446 0.20131814
0002b0 4c b5 4b 3e 39 e2 02 bf 04 82 a8 3d b0 5d b2 3e
       0.19893378 -0.5112644 0.082279235 0.34837103
0002c0 33 65 13 3f b2 4b 22 3e f5 d4 4c be 9c cb 96 3d
       0.5757629 0.15849188 -0.20003112 0.07363054
0002d0 68 06 f0 3e a1 7e 70 be 25 bc ef 3d be 76 44 be
       0.46879888 -0.23485805 0.117058076 -0.19185922
0002e0 3b b4 ce 3d 20 58 d7 3e a2 67 12 be af 7b da be
       0.1009297 0.42059422 -0.14297345 -0.42672488
0002f0 1a a9 db 3d ad 78 22 be f8 33 76 3e 28 9f 37 3d
       0.10725613 -0.15866347 0.24043262 0.044829518
000300 7f 44 d9 bd cf b8 1f bf 6a c6 28 bf ec 38 f2 be
       -0.10608768 -0.6239137 -0.65927756 -0.47309053
000310 9b f4 24 3d d2 e5 07 be f1 db 1a 3e 66 44 ca 3e
       0.040272336 -0.13271263 0.15122963 0.3950531
000320 bc 4f 03 bf b0 d1 0d 3f d6 fa 99 be dc 96 17 3f
       -0.5129354 0.5539808 -0.30074185 0.5921457
000330 d5 8c 9f 3d aa 2f 44 3e 07 f1 3b 3e f3 65 f1 be
       0.077905335 0.19158807 0.18353663 -0.47148094
000340 c6 c9 56 3d 94 38 e9 3d 77 6f 15 3e e5 82 16 be
       0.05243852 0.113877445 0.14593302 -0.1469837
000350 a7 5b 51 bd 05 db 6a be 8b fe ac 3e d7 8e 40 bc
       -0.051112797 -0.22935112 0.3378795 -0.011752806
000360 91 31 98 bf b3 a1 25 bd cd 38 20 be a4 07 f7 3e
       -1.1890126 -0.04043741 -0.15646668 0.48248017
000370 fa 28 81 3e 2e 55 62 bd d0 19 ae be e7 41 91 be
       0.25226575 -0.055257015 -0.34004068 -0.28370592
000380 58 47 8a 3d f4 0d 8c bc 18 22 ea bd f8 50 38 3e
       0.06751889 -0.017096497 -0.11432284 0.17999637
000390 58 c2 24 3f 53 03 32 be 1a 0d 95 bc 57 cb 10 bf
       0.64359045 -0.1738408 -0.018194724 -0.5656027
0003a0 7d 7a 7b 3e 84 2a 69 be 1a 99 bc 3d da 88 81 3e
       0.24558444 -0.22770125 0.09208889 0.25299722
0003b0 56 1b 66 3e 5c 11 a4 3e 38 c8 0c bd 86 28 5d be
       0.22471365 0.32044494 -0.03437063 -0.2159749
0003c0 d3 e6 19 be 6d e2 81 bd 4f 67 d9 3d 53 46 f1 3d
       -0.15029459 -0.063420154 0.10615408 0.117809914
0003d0 db 1f a7 3b 11 df b2 3e 3c 1c dd be 32 b6 e0 be
       0.005100233 0.3493581 -0.43185604 -0.43889004
0003e0 eb 61 e5 3c 81 73 07 3d cb f2 02 3e 2a ad 48 be
       0.028000792 0.033069137 0.1278793 -0.19597307
0003f0 2a a6 c7 3e 49 14 c1 3e fc 67 bc 3d e6 ea de bd
       0.3899396 0.3771079 0.09199521 -0.10884647

network_body._body_endoder.seq_layers.2.bias f4 [256]
000000 9c 74 08 3e be 43 55 be cb d1 be 3d 05 29 0e 3d
       0.13325733 -0.20826623 0.093173586 0.034707088
000010 d7 bb 93 3e 05 10 02 3e 65 48 f1 bb 86 d7 3d be
       0.28854248 0.12701423 -0.0073633664 -0.18539247
000020 ae f9 5b 3e ba 18 76 3e 00 fd 4f 3d 0f 52 c4 3d
       0.21481964 0.2403287 0.05077839 0.09585964
000030 4b d8 8d 3e 73 4d ec 3d 5e fb ce 3d 52 ca 0e be
       0.2770408 0.1153821 0.10106538 -0.13944367
000040 27 37 d6 bd 35 ed 37 be 06 26 1a 3e 3f 03 92 3e
       -0.10459738 -0.17961581 0.15053567 0.28518102
000050 2c d7 a2 bd 4c 72 92 3e d7 87 a4 3d af 53 55 3e
       -0.07951197 0.28602827 0.08033722 0.20832704
000060 bf 86 01 bc 79 5e 2e be 3c 50 ca 3d f8 d0 3d 3d
       -0.007905661 -0.17028226 0.09878585 0.046341866
000070 ba db 7d 3e d3 47 86 3d 67 70 95 3e d4 be 98 be
       0.2479085 0.06556668 0.2918732 -0.2983309
000080 d8 1a 8b 3e 03 05 88 3d b8 76 3e be 5d ab 15 3e
       0.27168918 0.06641581 -0.18599975 0.14616151
000090 20 13 cd 3e 83 ff e4 bc ee 10 61 3e 6e 4c f9 bc
       0.40053654 -0.027953869 0.21979114 -0.030431952
0000a0 a1 ae a0 3e 60 d6 30 be df f9 ff ba 6d 6d 45 3e
       0.3138323 -0.17269278 -0.0019529423 0.19280024
0000b0 16 90 15 3e 0b 48 1d be 70 9f b9 3d 82 2d b4 3d
       0.14605746 -0.15359513 0.090636134 0.087977424
0000c0 5c 94 05 3e 30 48 56 3d 0c 3a 9f 3d 2a 0c fb 3c
       0.13044876 0.052314937 0.077747434 0.030645449
0000d0 1f 5a 15 3e 17 82 92 3e 25 bf fe 3d 54 87 6b 3d
       0.1458516 0.28614876 0.12438802 0.057502106
0000e0 36 c2 31 be 98 eb 08 3f 4f 2c 92 3e 6d f4 ef 3d
       -0.17359242 0.5348449 0.2854943 0.117165424
0000f0 1c dc 07 3d 66 00 05 3f 63 d9 03 be 7d 0a 80 3e
       0.033168897 0.5195373 -0.12875895 0.25008002
000100 cb a4 2d 3d 79 2f 3b 3e 8c 11 24 3e 91 5c e1 3c
       0.042393487 0.18279828 0.16022319 0.02750996
000110 32 89 dc 3d 6e 09 52 3e 01 81 16 bd 2f 6a fb ba
       0.107683554 0.2051141 -0.03674412 -0.0019181425
000120 98 12 47 be b9 d5 68 3d ce 9b 82 bd 66 93 8c 3e
       -0.19440687 0.056844447 -0.06377374 0.27456206
000130 7c 6d a6 3e f2 46 eb 3e d1 9d c2 3e cc 73 91 be
       0.32505405 0.45952564 0.3801103 -0.28408659
000140 b9 66 7f 3e 9b 7f 3c 3e fb e2 ed 3c fa 9a 48 3e
       0.2494153 0.18408053 0.029038897 0.19590369
000150 ff b5 08 3e 2b 0f 35 3e 60 2a 2e 3d 55 b6 6a bd
       0.13350676 0.17681567 0.04252088 -0.05730279
000160 6a 62 2f 3e d6 31 93 3d 74 db 22 3e 3f 44 16 3e
       0.17127386 0.0718724 0.15904027 0.14674471
000170 fd 49 84 3d 27 b0 17 be 99 51 38 be ac ce 3d bd
       0.06459425 -0.1481329 -0.17999877 -0.046339676
000180 2b 51 df 3d 79 3f b5 3d 8d 09 07 3e e0 55 e5 bc
       0.109041534 0.08849997 0.13187237 -0.02799505
000190 15 2e 12 bd 7a bc 95 3e 2e bd 42 be ed 94 9a bd
       -0.03568848 0.2924536 -0.19017479 -0.075479366
0001a0 1d 1e c7 3d cc e5 d3 bd 67 10 e3 3d 7c 11 0a 3e
       0.097225405 -0.10346565 0.11087113 0.13483232
0001b0 86 e1 35 3e 47 1d d4 3d 85 90 a2 3c c2 ee 83 3d
       0.17761812 0.10357147 0.019844303 0.06442024
0001c0 1f 50 7c 3e c0 c4 f1 3d 3e 94 fa 3d b1 dc ba 3d
       0.24639939 0.11805105 0.12235306 0.09124125
0001d0 b6 58 ec 3a 84 f9 15 3e 49 69 0e 3e 8f 72 3c bc
       0.0018031809 0.14645964 0.1390735 -0.011501922
0001e0 a5 60 4a 3e a3 47 71 bb 92 78 12 be df 04 9d be
       0.1976343 -0.003681638 -0.14303806 -0.3066778
0001f0 4c d4 de bc 72 57 c2 3d ee 3b 37 3e b7 a1 0b 3e
       -0.02720084 0.09489335 0.17893955 0.13635908
000200 0b 88 63 3d 50 a2 b0 3e 2c f3 63 3e 75 af b7 3e
       0.055549663 0.34498835 0.22260731 0.3587605
000210 45 0a b4 3d 1f 34 aa 3d 9e a2 2e 3e bf f9 84 3e
       0.08791021 0.083107226 0.17054221 0.2597179
000220 ca b5 d2 bd 9d 01 70 3d d2 6e 38 bd 12 14 9c 3d
       -0.1028858 0.05859529 -0.04502756 0.076210156
000230 53 3c d9 3e d7 6e 1b 3d 10 0a 4d 3e f1 0c 46 3e
       0.42428836 0.037947502 0.2002337 0.19340874
000240 b0 13 84 bd 26 8c 4e 3e 9b 49 f7 3d 6b c9 20 3e
       -0.064490676 0.2017065 0.12074586 0.15701835
000250 4e a0 17 3e 08 5b 3e 3e f7 bb ed 3d 40 5d 83 3e
       0.14807245 0.18589413 0.11608117 0.25657082
000260 35 41 87 3b e5 84 20 be e0 c0 9b 3d 92 54 af bd
       0.0041276463 -0.15675695 0.07605147 -0.085610524
000270 68 9d a6 3e 5e b4 5d bd 3f e6 ea 3d fd 8a 1b 3c
       0.32541966 -0.05412709 0.11469697 0.009493587
000280 0f c8 83 3e 86 a2 3f 3e 49 ab 1a 3e f8 73 ce 3d
       0.2573857 0.18714342 0.15104403 0.10080713
000290 4a 77 a6 bc 22 ea c4 bd 08 8f ae 3d 74 b6 37 3e
       -0.020320553 -0.0961497 0.08523375 0.17940694
0002a0 e6 19 73 bd 51 a0 82 be d9 cf 1d 3e 1f 44 49 bd
       -0.05935087 -0.25512937 0.15411319 -0.04913723
0002b0 86 fc 95 3e 0a 90 16 3e 91 fb 8c 3d ef e9 6a 3c
       0.29294223 0.14703384 0.0688392 0.014338001
0002c0 1b d3 9e bc d5 74 22 3e c9 2f ca bc ee 7a 24 bd
       -0.019387772 0.1586488 -0.024680989 -0.040156297
0002d0 1b 84 49 3d 49 24 b2 3d 68 4f ee 3b 2d 8f 60 3d
       0.04919825 0.08698327 0.0072726496 0.054824043
0002e0 19 9c 85 3d 69 63 f6 3c d4 86 3b 3e fc 2b 52 3e
       0.06523914 0.0300767 0.18313152 0.20524591
0002f0 ba 3a b5 bd b8 25 80 bd 76 8e 18 3e e3 6a 91 3d
       -0.08849092 -0.06257194 0.14898095 0.07100465
000300 b7 c4 46 bd 9f 2f 40 3e dd 6f e7 3d 73 7c 82 be
       -0.048527446 0.18768166 0.11300633 -0.25485572
000310 0c 61 2b be 7e 55 9a 3e ea 21 c1 3d 77 c0 d9 3e
       -0.16736239 0.3014335 0.09430297 0.42529652
000320 2e 8d 73 3d 2b 78 ee 3d db bc 87 3d 53 21 42 bc
       0.05946081 0.11644014 0.06627818 -0.011848765
000330 5c 2f 01 3e a5 1d 3e be d8 ab 62 be 4b 94 d0 3d
       0.12615722 -0.18565996 -0.22135866 0.10184535
000340 c1 96 75 bd 51 da 5e 3e dc 44 eb 3d 34 01 d7 bc
       -0.059958223 0.21762969 0.11487743 -0.02624569
000350 c4 77 22 bd 9a 1b 86 be 5d de 7f bd 30 ec 3c 3e
       -0.039665 -0.26192933 -0.06246792 0.18449473
000360 04 4e 40 3d e5 29 bc 3d e1 2d bb bb 83 b3 67 bc
       0.0469494 0.09187678 -0.0057122563 -0.01414192
000370 78 47 43 3e 62 17 64 3c 6c 2b 0a 3c a4 6c 07 3d
       0.19070232 0.0139215905 0.008433204 0.033062592
000380 e3 6b bf bc e8 b7 36 3e 9e a8 a6 3d ef e7 f3 3c
       -0.023366874 0.17843592 0.0813763 0.02977368
000390 75 7c 8b 3e 58 19 ed 3d 18 69 1f 3e dc eb 8f 3e
       0.2724339 0.115770996 0.15567434 0.28109634
0003a0 9d 78 80 3e 07 e5 39 3d a1 fd 00 3e 25 47 35 3e
       0.2509202 0.045384433 0.12596752 0.1770292
0003b0 f0 e0 86 3e 2a e5 13 3e 1a e7 1f 3c 2e 43 86 3d
       0.2634349 0.14442888 0.009759689 0.06555782
0003c0 ff 88 13 3e dd e6 f1 3b 6b 68 d2 3e 80 ee 04 3e
       0.14407729 0.0073822574 0.4109529 0.12981606
0003d0 3e ef 05 3e f9 f4 2f be 58 21 99 be 42 62 84 3e
       0.13079545 -0.17183293 -0.29908252 0.25856215
0003e0 41 d8 fc 3d 0f 2d 58 3d 18 5c a3 bc 2d 13 94 3d
       0.12345935 0.052777346 -0.019941375 0.0723022
0003f0 93 e4 7d bc dd 5b 11 3d 88 16 7d 3e d1 9a 62 be
       -0.015496391 0.035488 0.24715626 -0.2212937

network_body._body_endoder.seq_layers.4.weight f4 [256, 256]
000000 a7 22 5f bd 60 a7 85 be ef 89 4b bd 79 6d 7d bf
       -0.054476406 -0.2610426 -0.04969209 -0.98995167
000010 d6 ba cc 3e 74 15 03 3e 56 1e 5e be 32 3c 6c be
       0.39986295 0.12801152 -0.2169126 -0.23069838
000020 7a c1 79 3f 3a 62 23 be bf ea 87 be ed 29 9c be
       0.97560847 -0.15955439 -0.26546285 -0.30500737
000030 5c 9e b1 3e 5a 14 f0 bd be d5 a5 be b0 27 01 bf
       0.3469113 -0.11722632 -0.32389635 -0.50451183
000040 f9 c3 b1 bd 10 c9 61 be 34 ca 20 be 40 3d 42 3c
       -0.08679957 -0.22049356 -0.15702134 0.011855423
000050 be e6 12 be d1 58 90 3e 2f 18 dc 3e cd 89 33 be
       -0.14345834 0.28192762 0.429872 -0.17533036
000060 1c 7c e8 be 26 e8 33 be 94 f7 b0 3d b7 89 e1 be
       -0.45407188 -0.17569026 0.08640972 -0.4405038
000070 da 09 2c bf d6 86 96 3c ce 29 89 be 7f ff 01 be
       -0.6720253 0.018374842 -0.26789707 -0.1269512
000080 c4 a0 c5 3e dd 5a b0 bd 41 0e 84 3e e8 f3 66 be
       0.38599217 -0.08611081 0.25792125 -0.2255398
000090 f1 c0 9e 3d 0a ef ed 3d 94 1e 4c 3e 12 25 ef 3e
       0.077516444 0.11617859 0.1993354 0.4670797
0000a0 b7 de 18 3e 57 9c 3b bf d5 f0 52 3e 56 db 87 be
       0.14928709 -0.7328543 0.20599683 -0.26534528
0000b0 91 f5 17 3e 8d 07 d4 be d7 73 83 bd e0 68 ba 3e
       0.1483977 -0.4141201 -0.06418579 0.36408138
0000c0 1c 7b 83 3e 9d 10 70 3e 05 37 14 3f 92 67 15 3e
       0.25679862 0.23443837 0.57896453 0.1459029
0000d0 b0 ff fa be 3e 5f 79 3b 3f 53 97 3b 8c 45 df 3d
       -0.490232 0.0038051154 0.004618078 0.10901937
0000e0 d0 a0 5e be 8b 29 e5 3d d4 42 bf bd f9 84 ca be
       -0.21741033 0.11189564 -0.09338918 -0.39554575
0000f0 2f 33 8b 3e 32 af b2 3d ed 1c 88 be 47 b7 48 bd
       0.27187487 0.08724822 -0.2658457 -0.049002912
000100 ce c2 01 3f 85 1f 2d be e1 cd 8c 3e 0e 7c fc be
       0.50687873 -0.16906555 0.27500823 -0.49313396
000110 22 c7 6a bd 5c 41 3e 3e 1b 94 32 3e 47 37 39 be
       -0.057318814 0.1857962 0.1743931 -0.18087493
000120 59 11 61 be 47 97 98 3d 40 26 7d 3e 11 86 a5 3e
       -0.21979274 0.07450729 0.24721622 0.32328847
000130 92 fa 3e 3d 9b 20 cb 3e a5 80 98 bd 3c 9f 50 bf
       0.04662568 0.39673313 -0.07446412 -0.8149297
000140 f4 83 e2 3e dc 2b 16 3e a8 c1 25 be 1a 61 d9 be
       0.44241297 0.14665169 -0.16187155 -0.42456895
000150 6f 64 3a bd bc fa e3 3e cf 23 1d 3d 65 b2 d1 3e
       -0.045505937 0.44527233 0.038364228 0.40956417
000160 48 29 3f 3e 4b c3 2d bd b3 66 9e bd 8f 9c 9a 3b
       0.18668091 -0.042422574 -0.07734432 0.0047183703
000170 cc 8c 1f bf f4 65 76 bd 21 1b 83 be b1 9d ef bd
       -0.62324214 -0.060155824 -0.25606635 -0.11699999
000180 19 1e dd be 15 e2 08 3f ba dd e1 be 1a d8 ab 3e
       -0.43187025 0.53469974 -0.44114476 0.3356331
000190 ea 26 89 3e b5 a2 b8 bc 1e e0 38 be 8f 78 b2 3c
       0.26787502 -0.022538522 -0.18054244 0.021786002
0001a0 62 a5 fd be 2a 7b 91 be 66 14 fb be b2 4c 91 be
       -0.4954024 -0.2841428 -0.49039 -0.28378826
0001b0 db ce 1c 3c 4c 9c 13 3f 98 ed c1 bb 9f 50 00 bd
       0.009570803 0.57660365 -0.005918216 -0.031326886
0001c0 c4 3b 9f bd 3c ce 4a 3c d8 2b a5 3e 1c a4 31 3f
       -0.07775071 0.012378272 0.32260013 0.69391036
0001d0 43 57 98 3e 19 35 a7 3e 98 cf 82 3e 3e e1 3a 3e
       0.29754075 0.32657698 0.25549006 0.18249986
0001e0 3a 9c 16 bf a4 b2 c5 be d9 cb a3 3e 9c 61 94 be
       -0.5883213 -0.38612854 0.3199146 -0.2898072
0001f0 86 4a df bd fe 82 dd be bd d0 19 bf 2a d5 3e bf
       -0.10902886 -0.43264002 -0.60084134 -0.7454401
000200 8d 15 1f 3f e7 ad e4 3e 99 b6 e2 3e c9 6a 01 3f
       0.6214226 0.44663927 0.44279936 0.50553566
000210 42 e2 a9 3d 14 f6 14 3f 56 12 be 3b d7 d7 14 3f
       0.082951084 0.58187985 0.0058005257 0.58141845
000220 c8 18 60 be 09 b1 46 3e 58 dd 36 be 46 49 d8 be
       -0.21884453 0.19403471 -0.17857873 -0.42243403
000230 f0 20 b1 3e 0c 34 a0 be 01 da 13 bf 3d d6 65 3e
       0.34595442 -0.3128971 -0.5775452 0.22445007
000240 d8 d7 d3 be 4e 82 62 bd 73 84 d9 3d 26 ad 35 3e
       -0.41375613 -0.05530005 0.10620966 0.17741832
000250 ac 85 1a 3e 0c 12 b0 3e 59 21 28 3f 71 b8 8d bd
       0.15090054 0.3438877 0.65675884 -0.06919945
000260 b1 d1 0c be 30 73 0e 3e fc 0c cc be 6a ec 44 be
       -0.13751866 0.13911128 -0.39853656 -0.1923081
000270 1d e1 38 3e c5 8f dd 3d c9 48 05 3f 57 41 0f be
       0.18054624 0.108184375 0.52064186 -0.13989769
000280 3b 10 d9 3d 9d 46 9d 3e 50 b5 0e 3e c1 d0 57 bd
       0.10598799 0.30717936 0.13936353 -0.052689318
000290 1a 10 c8 be d3 cd 2c be 82 fb 42 be fa ff b3 3e
       -0.39074785 -0.1687539 -0.19041255 0.35156232
0002a0 00 d7 b9 be 85 90 cb be 3b 6d ea 3e a4 05 0a bf
       -0.36296844 -0.39758697 0.4578646 -0.53914857
0002b0 ce 41 ab 3e 45 f4 ab 3d 03 f6 4f 3e 79 36 48 be
       0.33448642 0.083962 0.2030869 -0.1955203
0002c0 54 05 48 3e 63 9a 72 3e 24 fa b8 be 65 72 ce be
       0.19533283 0.23691706 -0.36128342 -0.4032165
0002d0 61 bc 23 bc da 84 9b be e3 0b a9 be 0c a9 c3 be
       -0.0099936435 -0.30374795 -0.3301688 -0.3821491
0002e0 50 44 d3 bd 19 1d 6b bb 97 04 2b 3e bf 9d be 3e
       -0.10315764 -0.0035875498 0.1670097 0.37229726
0002f0 21 4c 92 be 25 29 c0 3d e2 30 04 bf 67 49 03 3f
       -0.28573707 0.09382848 -0.5163709 0.5128388
000300 19 92 a9 bd 35 6b 02 3f f3 1f 89 be 5f 87 a1 be
       -0.08279819 0.50944835 -0.26782188 -0.31548592
000310 f1 4e dd bd 7f f4 47 3e 36 d8 09 3d d4 72 a8 bd
       -0.108060725 0.19526862 0.03365346 -0.08225027
000320 73 22 64 3e 4c 93 b0 bd c6 32 d7 3d 80 c2 77 3e
       0.22278766 -0.08621845 0.10507731 0.2419529
000330 11 aa 8a 3e d9 9b 0f bf 83 ec f5 be e5 7d c3 3e
       0.27082875 -0.5609718 -0.48032007 0.38181987
000340 97 74 91 be 66 12 3c be 0c e1 24 be 59 3e ad 3e
       -0.28409263 -0.18366393 -0.16101474 0.3383663
000350 81 68 c8 bd a8 5b 90 be ad 3d a3 3d 5b 24 47 3e
       -0.097855575 -0.28194928 0.07970748 0.19447462
000360 49 d1 9c be 53 9a 16 3f 7d 56 96 bd 02 0e c7 3e
       -0.30628422 0.5882923 -0.07340715 0.38877875
000370 d1 8d 99 be ae 21 d3 3e 58 cf 04 3d a8 70 ba bc
       -0.2999101 0.41236633 0.0324243 -0.022758797
000380 d6 4a 86 be 51 da c8 bc e2 ee f8 be 33 5f b1 be
       -0.2622897 -0.024518164 -0.48619753 -0.34642944
000390 63 61 c2 3e a5 35 d4 bd d1 58 10 3f 2e 61 b0 be
       0.37964925 -0.103617944 0.56385523 -0.34449142
0003a0 08 61 0a be 11 f5 64 be d5 b0 a4 3e 51 f7 e9 be
       -0.13513577 -0.2235911 0.32166162 -0.456965
0003b0 d1 66 4d 3e 35 20 a8 be 3c 91 8e bd 7e 2c a3 bd
       0.20058753 -0.32837072 -0.06961295 -0.079674706
0003c0 4e 63 ce 3e 00 28 f7 3e 99 0d 6c 3e 65 a8 65 bd
       0.40310138 0.48272705 0.23052062 -0.056068797
0003d0 bc 91 61 3e 87 9d c4 bd 69 f9 79 be 7d 71 16 be
       0.2202825 -0.096003585 -0.24411549 -0.1469173
0003e0 bc da 89 be 83 91 b4 3e c4 34 8b be cb 6e 0c be
       -0.26924694 0.35267267 -0.27188694 -0.13714139
0003f0 70 b1 1e be 7b f9 71 3e bf d4 c4 3e 5e 6f dd be
       -0.15497375 0.23630325 0.38443562 -0.4324903

network_body._body_endoder.seq_layers.4.bias f4 [256]
000000 8a c7 85 3e 0f ab 1f 3c 24 70 a3 3d e6 c1 70 bd
       0.261288 0.009745373 0.079803735 -0.058778666
000010 a9 bf 08 bd ed 52 ff bd da c4 87 3e 13 c0 34 3d
       -0.033385906 -0.12466989 0.26517373 0.04412849
000020 86 fa 3b 3d 49 ac f5 bd a7 c2 4b bd 7b 47 c5 bc
       0.045893215 -0.119957514 -0.04974618 -0.024081936
000030 05 fb 79 3e 0a fd 3d 3e c9 b1 04 3f 2d 67 15 3e
       0.24412163 0.18553558 0.5183378 0.1459014
000040 52 0a 78 3e 57 11 71 3e 2e b8 ea 3d f0 71 c5 3e
       0.24222687 0.23541771 0.11460911 0.3856349
000050 f4 f2 b0 3d cb 3e e6 bc c2 db 47 3c eb 1a 00 3e
       0.0864009 -0.028106114 0.01219839 0.12510268
000060 5a 17 52 3e 0c 16 72 be 56 38 1f 3e 34 1c f4 bc
       0.2051672 -0.23641223 0.15548834 -0.029798605
000070 ed e4 65 3e a7 9f 90 3e 9d 0c 93 3e 24 e2 a5 3e
       0.2245061 0.28246805 0.2872056 0.32399094
000080 99 07 e9 3e 24 a2 59 3e 7b 32 de 3c 49 f7 b2 bc
       0.4551361 0.21253258 0.02712368 -0.02184643
000090 db 45 d4 3e ad b2 34 bd bb a0 00 be 53 05 c1 bd
       0.41459545 -0.04411571 -0.12561314 -0.09424844
0000a0 4e 3c 0a 3e 6f 5b f5 3e 8b 39 ac 3e fd 35 06 3e
       0.13499567 0.4792132 0.33637652 0.13106532
0000b0 ca 6b 92 bc 03 b8 22 3d a8 cd dd 3d f5 39 0e be
       -0.017873663 0.03972627 0.108302414 -0.13889296
0000c0 3f 05 a3 3e 39 67 7e 3e 12 5f 0a 3e 3b d5 55 3e
       0.3183994 0.24844064 0.13512829 0.20882122
0000d0 6a bc 94 3e d5 61 9d 3e 89 45 eb 3d 61 78 84 3d
       0.2905 0.30738702 0.11487872 0.06468273
0000e0 65 08 80 3d 7b e5 60 3d a2 b8 01 be 4b 50 a1 3e
       0.06251601 0.05490635 -0.12668088 0.3150657
0000f0 77 8a e7 3e aa 5f 5e 3d 7b d9 bc bc be 8c a4 3e
       0.45222828 0.05429045 -0.023052922 0.32138628
000100 72 f7 06 be 75 76 22 3e 84 b2 c2 3d 1d 44 55 3e
       -0.1318033 0.158655 0.095067054 0.20826764
000110 57 4e 40 3c c7 eb ca 3d 4e a1 97 3c 92 af 4f 3e
       0.011737428 0.09908252 0.018509533 0.20281819
000120 51 79 4f 3d 67 5f b6 3e 7c f8 d9 3d 9b ff 25 3e
       0.050652806 0.3561966 0.10643098 0.16210787
000130 45 04 89 3e 7e 88 4d bd 60 c1 ac 3e 5f b7 32 3e
       0.2676107 -0.050178997 0.33741283 0.17452763
000140 a8 42 7d 3e 60 66 78 3d 8e 6c 67 3e b8 ba e1 3e
       0.24732459 0.060644507 0.22600004 0.44087768
000150 89 2c 60 bd 04 f4 9f 3e 62 df 44 3e 92 d7 75 3d
       -0.054729972 0.31240857 0.19225839 0.060020037
000160 a2 97 44 3e 2d 00 d1 bd 45 8a 98 ba 55 dc 3d 3d
       0.19198468 -0.10205112 -0.0011637887 0.046352703
000170 11 f4 ef 3a 93 6a c1 3e 08 fc 67 3e 4d c6 7a 3e
       0.001830699 0.37776622 0.22654736 0.24489708
000180 ae d3 09 bd ef 15 0f 3e 2e ec 12 3e c1 d0 f8 3d
       -0.03364914 0.13973211 0.14347908 0.12149192
000190 cb 49 e5 3e 39 24 86 bd 70 93 83 3e 28 e7 19 3e
       0.44782862 -0.06549878 0.25698423 0.15029585
0001a0 ff a1 d8 3e fb 33 fb 3d 08 98 2d 3e 6a a3 eb 3e
       0.42311093 0.12265774 0.16952527 0.46023113
0001b0 6c 93 69 3e 17 82 4c 3e 37 6e 0a 3f a8 0c fa 3d
       0.22810143 0.199715 0.54074425 0.12209445
0001c0 db 62 0e 3d 5e d6 8e 3e c3 10 f1 bc dc 45 61 3e
       0.034762245 0.27897924 -0.029426938 0.21999305
0001d0 70 d1 4d 3d a2 b0 ca 3e 76 7a c4 bd 02 75 21 3e
       0.050248563 0.39587885 -0.0959367 0.15767291
0001e0 cf bc ed 3d 32 49 f9 3d fb c4 01 3e 35 fe 84 3b
       0.11608278 0.12172164 0.12672798 0.004058624
0001f0 ec 28 ff bd a0 3f c1 3e 4c 1c 47 be 37 54 da b9
       -0.12458977 0.37743855 -0.19444388 -0.00041642945
000200 85 96 1e bc db 4b 46 bd a5 9e 36 3e f6 a0 d2 3e
       -0.009679441 -0.048412185 0.17833956 0.41138428
000210 f0 ca bb 3d a6 bc c2 3e e4 c0 a6 3e f3 2d 89 3e
       0.09169567 0.38034552 0.3256904 0.2679287
000220 69 29 06 bd cb 40 02 3f 46 be 81 3d 2f 59 88 3e
       -0.032754336 0.50880116 0.0633512 0.26630542
000230 e8 e4 34 be c0 d5 d5 3e ef c8 01 3c b3 c0 fd 3c
       -0.17665446 0.4176464 0.007921441 0.030975675
000240 61 15 14 be b9 05 10 bd d2 57 2e bd d5 17 31 3e
       -0.1446128 -0.035161708 -0.04256422 0.17294247
000250 ef 8f 99 3e 34 f4 5a 3e 4a 2b c8 bc f2 83 8b bd
       0.29992625 0.21382219 -0.024434704 -0.06812276
000260 92 5c 8a bc 21 f4 14 3f ae 6c 1f bb c0 ae 9e 3c
       -0.016889844 0.5818501 -0.0024326253 0.019370437
000270 f8 64 80 3e 00 d3 45 3e 52 de 93 3d c0 9b 6d 3d
       0.25077033 0.19318771 0.072201386 0.058009863
000280 41 ad 09 3e b2 68 f5 3c ab c2 53 3e 0d 92 8e 3d
       0.13444997 0.02995715 0.20679729 0.06961451
000290 ec 27 4d 3e 71 8d d9 3e 6c 2b 03 3e f2 ee 10 be
       0.2003476 0.42490724 0.12809533 -0.1415365
0002a0 cb 81 01 3e 4b 7f f6 3c ce 3a 16 3d c1 03 3c 3e
       0.12647168 0.030089995 0.036677174 0.18360807
0002b0 62 70 c9 bd 96 7a c4 3e d5 f8 a3 bc 03 56 4f bd
       -0.098358884 0.38374776 -0.020016113 -0.050619137
0002c0 2e 88 3e be 5c 53 15 bd 9d df a4 bd 2e 3b c3 3e
       -0.18606636 -0.03645645 -0.08050463 0.38131088
0002d0 52 84 3c 3d 78 db 84 3e 30 b4 31 3e d4 37 3b 3e
       0.046024628 0.2594869 0.17353892 0.18283015
0002e0 d8 81 6a bd db 04 52 3e 91 12 9b 3e 66 56 d2 3d
       -0.057252735 0.20509665 0.30287603 0.102703854
0002f0 58 0a b3 3e 64 b1 b7 3e f7 61 5d 3d e1 ca 15 3e
       0.3496883 0.35877526 0.054048505 0.14628173
000300 8c 55 26 3e 68 d3 92 bd a6 8a 9d 3e d0 a3 72 3e
       0.16243571 -0.07169229 0.30769843 0.23695302
000310 f6 6f b4 3e 70 05 89 3e 01 5e 2a bd 9b df 36 3e
       0.3524167 0.2676196 -0.041593555 0.17858736
000320 5d f2 94 3e 32 90 8e 3d b1 bf 30 3e 42 3a 88 3d
       0.29091159 0.06961097 0.17260624 0.06651737
000330 57 ea 81 3e e5 87 2c 3e 26 98 ec 3e 4d 83 bd 3c
       0.253741 0.16848715 0.4620983 0.023133898
000340 7f 6c 80 3e 15 0a 9d bd 6e 8e 9e 3d 3b b9 cb 3d
       0.25082776 -0.076679386 0.0774201 0.09947439
000350 be 41 7c 3e a6 24 01 3b 5c d3 99 bd a3 c0 c1 3e
       0.24634454 0.0019705682 -0.07511017 0.37842283
000360 86 f7 4f 3e d2 58 1f 3e 92 dd 9f bc 74 d1 cb 3c
       0.20309266 0.15561226 -0.019514833 0.024880148
000370 9f b6 67 3d b8 3f f6 3e 06 9f d0 3e 3f c7 1e 3e
       0.056570645 0.4809549 0.40746325 0.15505694
000380 15 f7 23 3d d2 25 5b 3d a0 ab 97 3e d0 b4 aa 3e
       0.040030558 0.053502865 0.29623127 0.33341074
000390 4f b5 9f 3d 08 19 ac 3e bc c2 d3 3e 2f a3 bb 3e
       0.07798254 0.33612847 0.41359508 0.36647937
0003a0 0d 98 35 3d 5f 09 8c 3c f1 67 c4 b9 2c d7 a3 3e
       0.04433446 0.017094312 -0.00037461476 0.320001
0003b0 65 e6 46 3e 12 30 9f 3e 3a db ac 3d 65 49 a0 3e
       0.19423826 0.31091362 0.08440252 0.31305996
0003c0 74 d5 9e 3e fe 3f 16 3e 6c 80 f6 bc b2 92 a5 bc
       0.31022227 0.14672849 -0.030090533 -0.020211551
0003d0 74 f9 30 3d 6b 2d 55 3e a1 36 10 bd 43 99 e7 3e
       0.043206647 0.20818107 -0.03520835 0.45234117
0003e0 b9 c4 b3 3e 43 57 18 3e a2 0c 22 bd 65 95 ad 3e
       0.35111025 0.14877038 -0.03956283 0.3390304
0003f0 ed 6a 90 3e 37 7b 0d bd 92 b6 01 3d 00 45 2e 3e
       0.28206578 -0.034541335 0.031668253 0.17018509

action_model._continuous_distribution.log_sigma f4 [1, 2]
000000 ea 28 13 41 ee fc 21 41
       9.197489 10.12425

action_model._continuous_distribution.mu.weight f4 [2, 256]
000000 33 e6 3d bf f9 51 05 3f db 68 28 3f 0a 25 d8 3e
       -0.7417938 0.52078205 0.65784997 0.4221576
000010 c5 9e c5 3e 89 52 7f 3e 79 06 aa bc 79 84 3d 3c
       0.38597694 0.24933828 -0.02075504 0.0115672285
000020 ed bb 85 3d d0 10 42 3d 7b f0 48 3e 1f 70 ba 3e
       0.065299846 0.047379315 0.19622986 0.36413667
000030 9e 13 ea bd eb d6 df be 87 02 38 bf 22 3c a3 3e
       -0.11429523 -0.43718657 -0.71878856 0.31881815
000040 c3 ac 26 bf 27 76 f9 3d 94 c1 08 3f 54 e5 ba be
       -0.65107363 0.12180739 0.53420377 -0.36503088
000050 de a8 59 3e de da a2 3e d0 45 77 3e cd af 84 3e
       0.21255824 0.31807607 0.24147725 0.25915375
000060 66 3a 3a 3f 08 de 47 be 16 51 55 bd 3f 26 c8 3e
       0.7274536 -0.19518292 -0.052079283 0.3909168
000070 80 6c 84 be f1 66 08 be 1c 41 24 bf e0 6a 22 bf
       -0.2586403 -0.13320519 -0.6416185 -0.6344433
000080 4b 8c ca be fa 47 b0 3e cd b2 ea 3e 4e 9b e1 3e
       -0.3956016 0.34429914 0.4583954 0.440638
000090 2c 5c 9d 3e 4e 93 f0 3e 31 ca cb 3e d9 53 5a bd
       0.30734384 0.46987385 0.39802697 -0.05330262
0000a0 9d df ef 3e 6d 8f 3c bf 00 de 80 be 96 17 90 3c
       0.4685029 -0.7365635 -0.25169373 0.017589372
0000b0 56 b3 a1 3d c2 98 a7 bd a9 26 02 3e 30 24 90 3e
       0.07895534 -0.08183433 0.1271006 0.2815261
0000c0 5f c7 ed bd 57 7c 4a 3e 19 e2 2d 3e 03 b7 ec be
       -0.11610293 0.19773994 0.1698078 -0.46233377
0000d0 3c c5 ea bd f7 73 6b 3e 67 cc 91 3e ca 6f 35 bd
       -0.11463401 0.22993456 0.2847626 -0.044296063
0000e0 34 c1 bf 3e ff 0f 60 bd 5d 3d 08 3e 60 c4 bf 3d
       0.3745209 -0.054702755 0.13304658 0.093636274
0000f0 76 1d f4 be 7e e1 f7 3e 75 75 2a 3f 24 58 2e bf
       -0.47678727 0.48414224 0.66585475 -0.6810324
000100 d6 75 b8 3e 1f 9f cd be 04 6b 95 3e c7 61 08 3f
       0.36027402 -0.40160462 0.2918321 0.53274196
000110 8b fe cf 3e 44 d2 ab bd 85 24 62 3e 05 b4 68 be
       0.40623888 -0.08389714 0.22084244 -0.22724922
000120 8b 96 b3 3e 51 d6 fa be f8 af 83 3e a1 d0 7c 3e
       0.35075793 -0.48991635 0.2572019 0.2468896
000130 7a 4e 11 be 2e da 27 3f 8e 04 e7 be 9c 71 d4 3e
       -0.14190093 0.6556729 -0.45120662 0.41492927
000140 e7 3e d5 be 46 e4 d7 3e 95 1d 13 bf 9e 54 9b 3d
       -0.41649553 0.42166346 -0.57467014 0.07584499
000150 60 27 b2 3e 59 0e 6b be 02 dc e9 3e 55 59 13 3e
       0.34795666 -0.22954692 0.45675665 0.14389546
000160 e5 0a 14 be 4b d7 ad 3e cb e1 e7 3e 79 79 13 3f
       -0.14457281 0.33953318 0.45289454 0.5760723
000170 e0 34 be 3e 3a 07 44 bf 88 1f 77 3e f3 02 3a bf
       0.37149715 -0.76573527 0.24133122 -0.7266075
000180 17 2d 8b bd a5 9b 72 3e 8d c5 0e 3f d7 a6 96 3e
       -0.067957096 0.23692186 0.5577019 0.29424164
000190 2d 2a 76 bf ad 41 ad 3e 1f cd b9 be 01 47 01 bc
       -0.96158105 0.3383917 -0.36289307 -0.007890464
0001a0 e6 02 3a bf ba c9 ab 3e 56 60 00 3e 48 09 2c bf
       -0.7266067 0.33552343 0.12536749 -0.6720166
0001b0 f9 ad a6 be a6 9b 9d 3e f6 04 89 bf 6c 5e 01 3f
       -0.32554606 0.30782813 -1.0704639 0.505347
0001c0 ff 6d e1 3e 9b 17 8b 3e ae 59 a3 3d 94 7b 0f be
       0.44029233 0.27166447 0.079760894 -0.14011985
0001d0 c8 d4 de 3b 9b 81 46 bf 42 b2 20 3e 89 a9 b8 bd
       0.006800268 -0.7754151 0.15693 -0.09016711
0001e0 96 bc 22 3f 2c fe 09 3e 41 5e c3 bd 46 58 b1 3e
       0.6356901 0.13475865 -0.09539462 0.3463766
0001f0 1b c0 3e 3e c0 74 95 3e 54 90 12 3f 77 b6 1c 3f
       0.1862797 0.29190636 0.5725148 0.6121592
000200 33 ff 79 be 77 d1 a7 3e 27 3a 8d 3c 3f 60 0c bf
       -0.24413757 0.32776996 0.017239643 -0.5483436
000210 b0 3d a1 3d 4b 3e 48 bf 98 7a ed be 1c 8a be bd
       0.07873094 -0.7822005 -0.46382594 -0.09303686
000220 18 2a f4 3e f8 06 23 bf 7b 95 13 bd 8e 12 45 bf
       0.47688365 -0.6368251 -0.036031228 -0.7698144
000230 05 67 48 3e ab 6f 91 be f6 07 86 3d 33 9f bf bd
       0.19570549 -0.28405508 0.06544487 -0.09356537
000240 bc 17 5d 3e 8c 96 ae 3e a8 cf 09 3e ff 78 ab 3e
       0.21591085 0.34099233 0.13458121 0.3349075
000250 68 22 bf be 98 0b eb 3e 9f a0 c5 3e 9e 42 f6 3e
       -0.37330937 0.45907283 0.38599107 0.480977
000260 16 20 44 bb b5 70 47 bf ab b1 bf 3e 81 fc d9 3d
       -0.0029926351 -0.7790635 0.37440237 0.106438644
000270 f2 04 c7 3b 3a 93 f5 be fd 98 de bd 7a 9f 0c 3e
       0.0060735876 -0.47963887 -0.10869024 0.1373271
000280 6d 36 31 3f ad c8 e6 3e e1 2e 6e be d3 f3 ef 3e
       0.6922367 0.45074978 -0.2326007 0.4686571
000290 36 d1 7f bd 0d a3 3f bf b4 3c f8 3e 71 57 b3 3e
       -0.06245538 -0.7485817 0.48483813 0.3502765
0002a0 85 56 88 3e 59 83 a0 3e 36 40 c1 3e 13 96 6e bf
       0.2662851 0.3135021 0.37744302 -0.93197745
0002b0 34 f8 a1 3e 6e ad 3f bf c1 f0 13 3e c0 0a 02 3f
       0.31634676 -0.7487401 0.14447309 0.50797653
0002c0 30 4a 8b 3d 66 5b a3 3e b4 97 f0 3e 65 92 10 be
       0.068012595 0.3190567 0.4699074 -0.14118345
0002d0 f0 6f 8c 3e 7e f0 ca 3e 26 75 1a bf 52 25 5d 3e
       0.27429152 0.39636606 -0.60335004 0.21596268
0002e0 67 b0 2c be 63 c6 f0 be 01 04 5b bf c8 58 89 3d
       -0.16864167 -0.47026357 -0.85552984 0.06706387
0002f0 1d 57 25 bf af e1 23 bf 90 8f d0 3e 30 30 1b 3f
       -0.6458605 -0.6401624 0.4073453 0.60620403
000300 bf 48 06 bd 11 5b 2b 3b 79 7c 88 bd 19 12 13 3e
       -0.03278422 0.002614681 -0.06664366 0.14362372
000310 db 6e 1e bf ec df 2e bf 99 1a f5 3e c3 aa 08 3f
       -0.618879 -0.6831043 0.47871855 0.5338556
000320 b6 f8 2a bf f4 f8 09 be 19 c5 d8 bd ea 1b d5 3e
       -0.6678575 -0.13473874 -0.105844684 0.4162286
000330 d8 c6 ac 3e 5b e8 f7 bb a7 0a 8b be bf 7d eb 3e
       0.33745456 -0.0075655407 -0.27156565 0.45994374
000340 4f 32 33 be 0a 8e e8 3e 82 e7 ce 3e b9 e6 2f 3e
       -0.1749966 0.45420867 0.40411 0.17177857
000350 04 a8 e2 be 30 b7 1f bd ae d3 f7 3d f8 28 5e bf
       -0.4426881 -0.03899306 0.121009216 -0.86781263
000360 7e b7 08 3f ff 74 d9 3c b8 48 00 3f e4 eb a1 3d
       0.53404987 0.026545046 0.5011096 0.07906321
000370 22 8e ee 3e 6d 8f 1d bf 19 f3 c7 be c9 ea c9 3d
       0.46592814 -0.61546975 -0.39052656 0.09859235
000380 5c 2a dc bd 7c 53 56 3f 55 8f 3d bf 27 6b 4e bf
       -0.10750267 0.8372114 -0.7404683 -0.8063225
000390 28 a4 c6 3e ac 4b 2b bf bf 34 2b bf af 93 27 bf
       0.38797116 -0.6691234 -0.6687736 -0.6545972
0003a0 26 73 14 bd 6c e0 d5 3e 5c 57 cc 3e 97 df 2b bf
       -0.036242627 0.41772783 0.399104 -0.67138046
0003b0 8a ab 96 be ac 5b 21 bf 25 03 f2 3d c0 d6 ec be
       -0.2942775 -0.63030505 0.11817006 -0.4625759
0003c0 b0 17 01 be bc fa 05 3d 74 64 ce bd b9 c4 a9 bb
       -0.12606692 0.032709822 -0.10077754 -0.005180922
0003d0 aa 08 e4 3e 74 70 63 bf 7b 68 c2 3e 91 67 52 bf
       0.4453786 -0.88843465 0.37970337 -0.8218928
0003e0 f0 18 1c bf c4 f7 15 bf 96 a3 a0 3e 92 14 6f bd
       -0.6097555 -0.58581185 0.31374806 -0.058369227
0003f0 72 1f 13 3f 22 73 44 3f 4f d4 bd 3e 73 cb e8 3c
       0.57469857 0.7673818 0.3707604 0.028417325

action_model._continuous_distribution.mu.bias f4 [2]
000000 2c 98 1c be d9 82 24 3e
       -0.15292424 0.1606554
