Assets/parking1.onnx (onnx, 648067 bytes, 10 tensors)

network_body._body_endoder.seq_layers.0.weight f4 [256, 107]
0	0x3e0c3b09	0.13694395
1	0xbde107ae	-0.10987793
2	0x3bfc1073	0.0076923906
3	0xbf02b476	-0.5105661
4	0xbda27dfc	-0.07934186
5	0xbe80e672	-0.25175816
6	0x3e885ac0	0.26631737
7	0xbec986a0	-0.39360523
8	0xbdd9b7a6	-0.10630731
9	0xbe154e46	-0.1458064
10	0xbe49d7af	-0.19711183
11	0xbf278149	-0.6543165
12	0xbd526404	-0.051364914
13	0xbe5e82d5	-0.21729596
14	0x3e511c64	0.20420986
15	0xbeb3afe7	-0.3509514
16	0xbd7878cf	-0.060662087
17	0xbdc60757	-0.09669369
18	0xbe9a3088	-0.3011515
19	0xbf08dce7	-0.5346207
20	0x3cd964f3	0.026537394
21	0x3cacce2b	0.021094402
22	0xbefca374	-0.49343455
23	0xbe28a30b	-0.16468446
24	0xbd44f584	-0.048085704
25	0xbe1c6c7d	-0.1527576
26	0x3ecaa345	0.3957769
27	0xbf3e78f6	-0.7440332
28	0x3b7837ad	0.0037874982
29	0xbe054bdd	-0.13017221
30	0x3eb7df46	0.35912532
31	0x3dc6728a	0.09689815
32	0xbbe2864d	-0.0069129826
33	0xbe304307	-0.17213069
34	0xbea9e5d6	-0.33183163
35	0xbf28fe1d	-0.66012746
36	0x3d3be580	0.045873165
37	0xbdd5dfbf	-0.10443067
38	0x3bd0660a	0.0063598203
39	0x3dc7a110	0.09747517
40	0xbe47dd40	-0.19517994
41	0xbc8f7113	-0.017509973
42	0xbeaedab2	-0.34151226
43	0xbf19ca76	-0.60074556
44	0xbd6cf064	-0.057846442
45	0xbd4f78d0	-0.050652325
46	0xbe3d3549	-0.18477358
47	0x3d8f21d6	0.069888756
48	0x3e483b88	0.1955396
49	0xbdcde5bc	-0.10053584
50	0xbd072961	-0.032998446
51	0xbf339072	-0.7014228
52	0xbe21dc47	-0.15806685
53	0xbd0e7a4f	-0.03478461
54	0x3e6a6d02	0.22893146
55	0x3edc2c01	0.43002322
56	0xbbd1617b	-0.0063897944
57	0xbec28256	-0.37990063
58	0xbc4873cc	-0.012234639
59	0xbf4a0a6b	-0.78922147
60	0x3e39ca03	0.18143468
61	0xbdeba214	-0.11505523
62	0x3e137995	0.14401849
63	0x3e7918e2	0.24325898
64	0xbc27ff3f	-0.0102537265
65	0xbd6d3619	-0.05791292
66	0xbeffae98	-0.49937892
67	0xbf0fdcdf	-0.561964
68	0xbdb54827	-0.088516526
69	0xbed7d128	-0.4215176
70	0xbe8ed7c9	-0.27899006
71	0xbd34bd34	-0.04412575
72	0x3d96aa40	0.07356691
73	0x3caaf834	0.020870306
74	0xbd4358d7	-0.047692146
75	0xbeb5300f	-0.35388228
76	0xbd58d3a6	-0.05293622
77	0xbf09c409	-0.5381475
78	0x3f35ab23	0.7096426
79	0x3e8ae3f9	0.27127054
80	0xbdb4529e	-0.088048205
81	0xbd86ebc0	-0.065879345
82	0x3de22b3b	0.11043402
83	0xbdfba089	-0.12286479
84	0xbdc20a4c	-0.0947462
85	0xbe26df68	-0.1629616
86	0x3ed0a92c	0.40754068
87	0x3d839ba8	0.064261734
88	0xbd9ba388	-0.075995505
89	0x3e2b2fb5	0.16717418
90	0x3e63d2e2	0.22248414
91	0x3dcb2fa3	0.09921195
92	0xbdd5b192	-0.104342595
93	0xbe0e4f72	-0.13897493
94	0xbd94411b	-0.072389804
95	0xbd6c0722	-0.05762399
96	0xbdc41456	-0.09574191
97	0xbc9efb4b	-0.019406935
98	0x3e38350d	0.17988987
99	0x3d0e544f	0.03474837
100	0xbe3f5755	-0.18685658
101	0x3e01e29c	0.12684101
102	0xbdc35d42	-0.09539272
103	0x3db73df3	0.08947363
104	0xbe4d1872	-0.20028856
105	0xbe84796b	-0.25873885
106	0x3dfe9cd7	0.124322586
107	0xbdde1c71	-0.108452685
108	0xbdb36f52	-0.08761467
109	0xbedaa951	-0.42707303
110	0x3e3d8f70	0.18511748
111	0xbd81bf98	-0.06335372
112	0xbeb9b4c9	-0.3627074
113	0xbf003ed2	-0.50095856
114	0x3eae12d6	0.33998746
115	0x3c3ca316	0.011513492
116	0xbd838607	-0.06422048
117	0x3c67938e	0.014134301
118	0x3e348e08	0.17632306
119	0x3c838661	0.016055288
120	0xbdb77a86	-0.08958916
121	0xbb87dc0c	-0.0041461047
122	0x3ded9a22	0.11601664
123	0x3d69ca5b	0.057077747
124	0xbe2da976	-0.16959175
125	0x3ef065dc	0.46952713
126	0x3e02fd12	0.12791851
127	0x3db52a17	0.088459186
128	0x3d4a580d	0.049400378
129	0xbe98e638	-0.29863143
130	0x3ddeafcf	0.108733766
131	0x3e6f7271	0.233835
132	0xbf09b835	-0.537967
133	0x3d99e86d	0.07515035
134	0xbdaa5e42	-0.083187595
135	0x3d3ebac3	0.04656483
136	0x3d820daa	0.063502625
137	0x3d3c5396	0.04597815
138	0x3d4f68ae	0.05063694
139	0x3d91bc78	0.07116026
140	0xbe72a51a	-0.23695794
141	0xbf8f3870	-1.1189098
142	0xbe7675bf	-0.24068354
143	0x3dca880b	0.098892294
144	0x3cf3569e	0.029704388
145	0xbd90c9f7	-0.07069772
146	0xbe3ea269	-0.18616642
147	0x3e056977	0.13028513
148	0xbe3b5988	-0.18295872
149	0xbea388d2	-0.31940323
150	0x3d90b1c9	0.0706516
151	0xbc3badca	-0.011455009
152	0xbea006f8	-0.31255317
153	0x3f0ce4cb	0.5503661
154	0xbee5aee2	-0.44859987
155	0x3ca19952	0.01972643
156	0xbe440703	-0.191433
157	0xbf421971	-0.7582007
158	0x3df103e5	0.11768321
159	0x3d7522d9	0.059847686
160	0x3f075823	0.5286886
161	0xbeb7653e	-0.3581943
162	0xbeca8c60	-0.39560223
163	0x3e29649b	0.16542284
164	0xbe8086ee	-0.25102943
165	0xbd6783be	-0.056522124
166	0x3e32eaa9	0.17472328
167	0x3e46e079	0.19421567
168	0x3e65ab37	0.22428595
169	0x3e280149	0.1640674
170	0xbe3571a1	-0.17719127
171	0xbdf409f1	-0.11915959
172	0xbe56aa15	-0.20963319
173	0x3e5b83bf	0.21436976
174	0xbe68674c	-0.22695655
175	0xbe355a1a	-0.17710152
176	0xbe0c44fa	-0.13698187
177	0xbe336768	-0.17519915
178	0xbea2c419	-0.31790236
179	0x3d9b7e04	0.07592395
180	0x3e802778	0.25030112
181	0xbe16fee7	-0.14745675
182	0xbce0f6fa	-0.027461518
183	0xbd9c6329	-0.07636101
184	0x3ebeb4ee	0.37247413
185	0x3e15a8bd	0.1461515
186	0xbdbcf1c7	-0.09225803
187	0xbd956df6	-0.07296364
188	0x3dfb1a8a	0.12260921
189	0xbde97cf8	-0.11400789
190	0x3d377f05	0.04479887
191	0xb95ef35b	-0.00021262227
192	0x3e42231d	0.18958707
193	0xbf010cf0	-0.50410366
194	0xbdc303fa	-0.09522243
195	0xbd65e0c0	-0.05612254
196	0x3d43c434	0.047794536
197	0x3e92b438	0.2865312
198	0xbe02ead5	-0.12784894
199	0xbe1a7ea7	-0.15087377
200	0xbe81cd66	-0.2535202
201	0x3dc0d787	0.094161086
202	0xbf098dff	-0.53732294
203	0x3d2ad7d2	0.04170973
204	0xbed491ef	-0.41517588
205	0xbcdee385	-0.0272081
206	0xbeb00cd1	-0.34384778
207	0xbdc9c70e	-0.0985242
208	0x3ea1a8d9	0.31574133
209	0xbfd447f9	-1.6584464
210	0x3e2acff8	0.16680896
211	0xbccd024e	-0.025025513
212	0xbf7707d7	-0.9649634
213	0xbcb3c023	-0.021942204
214	0xbe152c71	-0.14567734
215	0xbe9cb0fe	-0.30603784
216	0xbeca7d6c	-0.39548814
217	0xbe6849ac	-0.22684354
218	0xbdb5ffc2	-0.088866726
219	0x3e13dfaf	0.14440797
220	0x3e505249	0.2034389
221	0xbddb7522	-0.10715701
222	0xbdbbc8f5	-0.09169189
223	0xbe79fb96	-0.24412379
224	0x3b7961db	0.0038052711
225	0xbd9d1e33	-0.07671776
226	0x3cebe736	0.028796773
227	0x3ed35ba3	0.4128085
228	0x3e418eaa	0.18902078
229	0x3d33ce0e	0.04389768
230	0xbdc66caa	-0.09688695
231	0xbd41823f	-0.047243353
232	0x3ef631cc	0.48084867
233	0xbd6e4f87	-0.058181312
234	0xbda1a783	-0.078932784
235	0x3e2b4797	0.16726528
236	0xbc5ff3e7	-0.013668991
237	0x3dd2b2bc	0.10287997
238	0x3d902bea	0.07039626
239	0xbc832dec	-0.016013108
240	0xbd48fe81	-0.04907084
241	0xbe40f31a	-0.18842736
242	0xbd948eca	-0.07253797
243	0xbd44bd89	-0.048032317
244	0xbe87f844	-0.265566
245	0xbcf11b6d	-0.029432023
246	0xbe4687c2	-0.19387725
247	0x3c112507	0.008858926
248	0xbdd53c05	-0.104118384
249	0xbe07c38b	-0.13258187
250	0x3ded7ac1	0.11595679
251	0x3d845d54	0.064631134
252	0x3d6805e3	0.05664624
253	0xbd9e4623	-0.07728221
254	0x3cb486bb	0.0220369
255	0x3b750a6a	0.003739024

network_body._body_endoder.seq_layers.0.bias f4 [256]
0	0xbe1ec425	-0.1550451
1	0xbd493f6d	-0.049132753
2	0xbb517c5c	-0.0031964993
3	0xbd2b506b	-0.04182474
4	0xbc8d3b7a	-0.017240275
5	0x3dce0c4d	0.1006094
6	0x3d0400a2	0.032227166
7	0x3da0d22d	0.07852588
8	0xbd6e2ed9	-0.058150146
9	0xbcdb620b	-0.026780149
10	0x3980e23a	0.00024582614
11	0xbcbeeb58	-0.02330558
12	0x3d1d7f0e	0.038451247
13	0xbc2aadaa	-0.010417381
14	0xbe09c306	-0.13453302
15	0xbe240fa9	-0.16021599
16	0xbb2f4a8f	-0.0026747321
17	0xbdf5797b	-0.11986061
18	0x3dabfb20	0.08397508
19	0xbd20b45e	-0.03923451
20	0xbdcad72d	-0.09904323
21	0x3ce6646c	0.028124057
22	0xb83fba0f	-4.571123e-05
23	0xbcff7c0c	-0.03118708
24	0x3e3aafea	0.18231168
25	0x3b3c955d	0.002877555
26	0xba096da4	-0.0005242473
27	0x3d8133d6	0.06308715
28	0x3cc31ac9	0.023816483
29	0x3c83ec9e	0.016104039
30	0xbd24a296	-0.040194117
31	0xbda375d0	-0.07981455
32	0xbdaaf3c8	-0.08347279
33	0x3cfee464	0.031114765
34	0x3e0dc975	0.13846381
35	0x3d8200f0	0.06347835
36	0xbdcad438	-0.09903759
37	0xbd098b15	-0.033579905
38	0xbd048e84	-0.032362476
39	0x3a82b50b	0.0009972168
40	0xbccefd55	-0.025267283
41	0xbd340368	-0.04394856
42	0xbd8ba599	-0.068186946
43	0xbd9cd58f	-0.076579206
44	0x3d9214af	0.07132851
45	0xbce785e1	-0.02826208
46	0x3925d1c1	0.00015813766
47	0x3e05ac87	0.13054095
48	0x3d4f9628	0.05068031
49	0xbe06fefd	-0.13183208
50	0x3e25deef	0.16198324
51	0x3d76ea3a	0.06028197
52	0xbdee106c	-0.11624226
53	0xbdbda04c	-0.0925909
54	0xbd8979de	-0.067126974
55	0xbdf83a65	-0.12120513
56	0x3cbebbf5	0.023282984
57	0x3d814d60	0.06313586
58	0xbe06df3a	-0.13171092
59	0x3c2d40af	0.010574504
60	0xbd7d517e	-0.061845295
61	0xbe38de37	-0.18053518
62	0xbde33259	-0.110935874
63	0xbe75a15f	-0.2398734
64	0x3dbf2571	0.09333313
65	0x3e0afa29	0.13571991
66	0x3c32a119	0.0109026665
67	0xbdaf77f5	-0.08567802
68	0xbdcba9b6	-0.09944479
69	0x3dd23f99	0.102660365
70	0xbd8d1762	-0.068892255
71	0xbc4903dd	-0.0122689875
72	0x3b6e9328	0.003640363
73	0xbd119ca7	-0.035549786
74	0x3cf358bb	0.029705396
75	0xbd936829	-0.07197601
76	0x3d3d63b7	0.046237674
77	0x3d821c3c	0.063530415
78	0xbd2dc1d8	-0.042421192
79	0xbdc85838	-0.097824514
80	0xbd1809be	-0.037118666
81	0x3dc58f81	0.09646512
82	0xbd37a2b9	-0.04483292
83	0xbd5abd16	-0.053402983
84	0xbd8b80d1	-0.06811679
85	0xbd1b09d4	-0.03785117
86	0x3e358173	0.17725162
87	0xbd830be5	-0.06398753
88	0x3db435e1	0.08799339
89	0x3d752980	0.05985403
90	0xbd6192df	-0.055071708
91	0xbcb64288	-0.022248521
92	0xbc2d3b08	-0.010573156
93	0x3d64dd99	0.055875394
94	0x3dc130e1	0.09433151
95	0x3a89c3ab	0.0010510584
96	0xbd16e9fc	-0.03684424
97	0xbdbc5ae6	-0.09197025
98	0xbdccfa7c	-0.100087136
99	0xbdeff32c	-0.11716303
100	0x3d887eed	0.06664834
101	0xbd8df966	-0.069323346
102	0xbd5ec07f	-0.054382797
103	0x3e488da0	0.19585276
104	0xbc50c567	-0.012742377
105	0x3d0a6853	0.033790898
106	0xbbb58d43	-0.0055405213
107	0x3d55f8c4	0.052239195
108	0x3c3df53c	0.011594113
109	0xbd138fa1	-0.036025647
110	0xbde03fe6	-0.10949688
111	0x3d05949e	0.032612436
112	0x3d821ff7	0.06353753
113	0xbc716e63	-0.014735791
114	0xbdfc2e24	-0.12313488
115	0xbcaf7fbe	-0.021423217
116	0x3de13533	0.10996475
117	0xbdca99b7	-0.098926
118	0xbd993b84	-0.07482055
119	0x3d7e0e8f	0.062025603
120	0xbe0ed8e2	-0.13949922
121	0x3c95f738	0.01830636
122	0xbd0d410b	-0.034485858
123	0xbd335bec	-0.043788835
124	0xbd436dde	-0.0477122
125	0x3d50db9a	0.05099068
126	0xbccc582d	-0.02494439
127	0x3d021ad4	0.031763867
128	0xbc1b8eb8	-0.009494476
129	0x3e082ee2	0.13299134
130	0xbdf6b0f7	-0.12045472
131	0xbe0d6db0	-0.13811374
132	0xbdb36986	-0.087603614
133	0x3c0d7fd6	0.0086364355
134	0xbe0f81e4	-0.14014393
135	0xbdcef8b0	-0.10106027
136	0x3c2f8565	0.010712956
137	0xbd937646	-0.07200293
138	0x3d0ede59	0.034880016
139	0x3c1a3f2b	0.0094144745
140	0x3c5db180	0.013531089
141	0x3d8d5bae	0.06902252
142	0xbcd02677	-0.025408966
143	0x3cfe57f5	0.0310478
144	0x3b9939ea	0.0046760933
145	0xbcd3091f	-0.025761185
146	0xbdafb4d0	-0.08579409
147	0xbd265e46	-0.04061725
148	0xbd85d032	-0.06533851
149	0xbc1cf5f8	-0.009580128
150	0xbdfc532a	-0.1232055
151	0x3e0453a1	0.12922527
152	0xbd9d8332	-0.07691039
153	0x3cc9df70	0.024642676
154	0xb9bb2d48	-0.00035701157
155	0xbe3d5524	-0.1848951
156	0xbe0ad024	-0.13555962
157	0x3cb6112c	0.022224985
158	0x3df788de	0.12086652
159	0xbd6cfca9	-0.057858143
160	0x3c09f466	0.008420086
161	0xbddd9204	-0.10818866
162	0x3d857548	0.0651651
163	0x3c4233a3	0.011853131
164	0x3c5a0266	0.013306236
165	0xbd130504	-0.035893455
166	0x3d95fe50	0.07323897
167	0xbcf13981	-0.029446365
168	0xbca1e50d	-0.01976254
169	0xbd6973ea	-0.05699531
170	0xbcd8e820	-0.026477873
171	0xbe410352	-0.18848923
172	0x3cb3086c	0.021854602
173	0xbdac9fc2	-0.08428909
174	0xbd19d00c	-0.037551925
175	0xbdbf16c0	-0.09330511
176	0xbe0e66f9	-0.13906468
177	0x3d5e59f7	0.054285016
178	0xbd0f837a	-0.035037495
179	0x3d1791c2	0.03700424
180	0xbdec7efa	-0.11547656
181	0x3e047786	0.1293622
182	0xbe04dd79	-0.1297511
183	0xbd59659d	-0.05307542
184	0x3c31869f	0.010835319
185	0xbdd54121	-0.10412813
186	0xbc885c64	-0.016645618
187	0xbd8afcee	-0.06786524
188	0xbc5e0649	-0.013551303
189	0xbe11d16c	-0.14240044
190	0xbe08543e	-0.13313386
191	0xbdb42eb8	-0.087979734
192	0xbd63c50f	-0.05560785
193	0x3d40c795	0.047065336
194	0x3b9d8c3f	0.0048079784
195	0xbd3cfd78	-0.046140164
196	0xbc519753	-0.012792426
197	0x3d1b27db	0.037879806
198	0x3dcad974	0.09904757
199	0xbd1e00c5	-0.038574953
200	0x3d9afc69	0.07567675
201	0x3a840bba	0.0010074296
202	0xbe311865	-0.17294462
203	0x3d4b72e7	0.049670126
204	0xbd84d78e	-0.06486426
205	0xbce386a1	-0.027774157
206	0xbdbc7b4f	-0.09203207
207	0xbd1e0a6c	-0.038584158
208	0xbdaa4447	-0.08313804
209	0xbd5b03b0	-0.053470314
210	0x3d8118c9	0.063035555
211	0xbd7ddf88	-0.061980754
212	0xbdd55982	-0.10417463
213	0xbe296d61	-0.16545631
214	0x3c93a7c8	0.01802434
215	0x3cee8499	0.029115962
216	0x3df0566e	0.11735235
217	0xbc50c295	-0.0127417045
218	0xbd1ab0c4	-0.037766233
219	0x3c925924	0.017864771
220	0x3d59d4d4	0.053181484
221	0x3de3f4e6	0.11130695
222	0xbd9a2fae	-0.075286254
223	0xbd3809e3	-0.044931304
224	0xbe086eb7	-0.13323484
225	0xbdf066f8	-0.1173839
226	0xbd8241ff	-0.06360244
227	0x3d74d451	0.059772793
228	0xbda7bc4f	-0.08190214
229	0xbd971ae2	-0.07378174
230	0x3bb0a601	0.005390883
231	0x3c28c5f2	0.0103011
232	0xbe37abda	-0.1793665
233	0xbd2733e0	-0.040820956
234	0xbe0f7313	-0.14008741
235	0xbc70a572	-0.014687883
236	0xbce69cee	-0.028151002
237	0x3dc98e8c	0.09841642
238	0x3d2e4c98	0.042553514
239	0xbd75b6e5	-0.059988875
240	0xbd91728f	-0.071019284
241	0xbcf59a02	-0.029980663
242	0x3cf47524	0.029841013
243	0x3d90ce19	0.0707056
244	0xbdfab5e9	-0.12241728
245	0x3d5089ca	0.050912656
246	0xbc199c28	-0.009375609
247	0x3cd8f037	0.02648173
248	0xbcdfbcd0	-0.027311713
249	0xbd02feae	-0.031981163
250	0xbd07fc6c	-0.033199713
251	0xbe07cdb3	-0.13262062
252	0xbd93677b	-0.07197472
253	0xbe2524d2	-0.16127327
254	0x3cf54493	0.029939925
255	0x3d4c53f5	0.049884755

network_body._body_endoder.seq_layers.2.weight f4 [256, 256]
0	0xbd6eaf97	-0.058272924
1	0xbe1f716a	-0.15570608
2	0xbf916d44	-1.136147
3	0xbf4a0d3a	-0.7892643
4	0xbc7d487f	-0.015459179
5	0xbf3b576b	-0.73180264
6	0xbeea37be	-0.45745653
7	0x3c81f8d7	0.015865726
8	0xbe64800c	-0.22314471
9	0x3edda088	0.43286538
10	0xbe793b33	-0.24338989
11	0xbd415ddd	-0.047208656
12	0xbe05d797	-0.13070522
13	0x3e9c7270	0.3055606
14	0xbeba82ff	-0.36428067
15	0x3d16fea1	0.036863927
16	0x3d1d7e94	0.038450792
17	0xbc153b03	-0.009108308
18	0xbf42fb74	-0.76164937
19	0xbeb77a7b	-0.35835633
20	0xbed10731	-0.408258
21	0x3e72965c	0.2369017
22	0x3ddc31c9	0.10751683
23	0x3de21c04	0.110405
24	0xbf4e2d88	-0.80538225
25	0xbec84606	-0.39115924
26	0x3daec7b4	0.08534184
27	0x3deef0dd	0.11667035
28	0xbdf4fd40	-0.11962366
29	0xbd2833aa	-0.041064896
30	0x3dd00694	0.10157505
31	0xbed7a002	-0.42114264
32	0xbe7b8711	-0.24563242
33	0xbf1a2d5e	-0.60225475
34	0xbf0cc941	-0.5499459
35	0xbde8f6ed	-0.11375222
36	0x3ee60d4c	0.4493202
37	0xbdfd63cd	-0.12372551
38	0xbe95f39d	-0.29287425
39	0xbeaaec50	-0.33383417
40	0x3e151a84	0.14560896
41	0xbe09fcf7	-0.13475405
42	0x3f042a6d	0.51627237
43	0xbe4fe8f6	-0.20303711
44	0xbede4076	-0.43408555
45	0xbeaf8f50	-0.34289026
46	0xbc77fbb9	-0.015135699
47	0x3e7abe78	0.2448672
48	0xbe5e42f1	-0.21705224
49	0x3e517d90	0.20458055
50	0xbec8779c	-0.39153755
51	0xbe374e7f	-0.17901038
52	0xbf21534f	-0.63017744
53	0xbdded06a	-0.108795956
54	0xbe7a88d4	-0.24466258
55	0xbdf52cc7	-0.11971431
56	0x3f076417	0.528871
57	0x3e3f7b46	0.18699369
58	0xbe055ee6	-0.13024482
59	0xbedcddb7	-0.43137905
60	0xbeaba4f0	-0.33524275
61	0x3e8d6584	0.27616513
62	0xbcbf6f94	-0.023368634
63	0xbda1a27c	-0.078923196
64	0x3e03c775	0.12869056
65	0xbd829051	-0.063751824
66	0xbe86fa69	-0.26362923
67	0xbe2002d9	-0.15626086
68	0xbe845ccd	-0.2585205
69	0x3caf7b64	0.021421142
70	0xbf09959c	-0.5374391
71	0xbf71f8df	-0.9452037
72	0x3ccd6a13	0.025074994
73	0xbd9c8f0c	-0.076444715
74	0xbe69ccb9	-0.22832002
75	0xbd03b409	-0.032154117
76	0x3f179532	0.5921203
77	0x3ec62237	0.3869798
78	0xbe7c13d0	-0.24616933
79	0xbe812a41	-0.2522755
80	0xbe18a181	-0.14905359
81	0xbd031cd9	-0.032009933
82	0xbe8db76e	-0.27679008
83	0xbe5f6af9	-0.2181815
84	0xbd7df5e8	-0.062002093
85	0xbe73649e	-0.23768851
86	0x3e7476f7	0.23873506
87	0xbee626bf	-0.44951436
88	0x3eaa2e8f	0.33238646
89	0x3ed9a90b	0.42511782
90	0xbf291431	-0.66046435
91	0xbdbbe49d	-0.09174464
92	0x3e230c03	0.15922551
93	0xbf6e63a9	-0.9312082
94	0xbec2f0cc	-0.38074338
95	0x3df7e405	0.12104038
96	0xbc874d6c	-0.01651641
97	0xbceb1ff6	-0.028701764
98	0x3eda5ad9	0.42647436
99	0xbea4e574	-0.3220631
100	0xbd7313da	-0.059345104
101	0xbec09689	-0.3761485
102	0x3e30ec97	0.17277752
103	0x3df7d1d0	0.121005654
104	0x3cfb9fa8	0.030715778
105	0xbd787a28	-0.060663372
106	0x3ddbbdca	0.10729559
107	0x3db2228e	0.08697997
108	0xbeaf1821	-0.34198096
109	0x3dbd77dd	0.09251378
110	0xbe2963d0	-0.16541982
111	0x3a8e7d1d	0.0010871027
112	0xbd29b3f4	-0.041431382
113	0xbd026fec	-0.03184502
114	0xbeb6ce3c	-0.3570422
115	0x3cade733	0.021228408
116	0x3e645efa	0.22301856
117	0xbdcc24ca	-0.099679545
118	0xbe2a6456	-0.16639838
119	0xbe42bdb5	-0.1901768
120	0xbe186006	-0.1488038
121	0xbf0e3006	-0.5554203
122	0xbc83b6df	-0.01607841
123	0xbe8ee566	-0.27909392
124	0xbdd4ca2a	-0.10390122
125	0xbd826919	-0.06367702
126	0xbf07c8be	-0.53040683
127	0xbe7be5ef	-0.24599431
128	0xbe4c054d	-0.19923897
129	0x3e3a3d00	0.18187332
130	0xbe81a5ae	-0.25321716
131	0xbf049208	-0.51785326
132	0xbb76cc4f	-0.0037658399
133	0xbe8b7061	-0.27234176
134	0x3d0e0f59	0.034682605
135	0xbe7979b8	-0.24362838
136	0xbeaeaaa4	-0.34114563
137	0xbd3acb03	-0.045603763
138	0xbd8f1368	-0.06986123
139	0xbe6c5483	-0.23079114
140	0xbea8d4bd	-0.32974806
141	0x3e839a3a	0.25703603
142	0xbe858fe4	-0.26086342
143	0x3e11dbf5	0.14244063
144	0xbee69d3c	-0.45041835
145	0xbd9efb9d	-0.07762835
146	0xbe4bdb86	-0.1990796
147	0xbe33e661	-0.17568351
148	0x3d80b55d	0.06284592
149	0xbd487879	-0.048943017
150	0xbf1fa135	-0.6235536
151	0xbdf41a3f	-0.119190685
152	0xbe89f78f	-0.26946685
153	0xbf04c432	-0.5186187
154	0xbe76bc80	-0.24095345
155	0x3dae26bd	0.085034825
156	0x3cdc7660	0.026911914
157	0xbdb273b9	-0.087134786
158	0xbdb2de3d	-0.08733795
159	0xbe17855a	-0.14796963
160	0xbd8e0af7	-0.06935685
161	0xbda06ef4	-0.07833663
162	0xbf06e324	-0.5269034
163	0xbe5925ba	-0.21205798
164	0xbe74feb2	-0.23925284
165	0x3eff5d21	0.4987574
166	0xbca311f2	-0.019906018
167	0xbe53b5d9	-0.20674838
168	0xbe649b97	-0.22324978
169	0xbecf2ef1	-0.404655
170	0xbe68abd3	-0.22721796
171	0x3e975208	0.29554772
172	0x3e2b521a	0.16730538
173	0xbf081c8a	-0.5316855
174	0xbd4fe94b	-0.050759595
175	0x3ea68f3f	0.32531163
176	0x3ebaaec3	0.36461458
177	0x3d244a46	0.040109895
178	0xbe20424d	-0.15650292
179	0xbd4e4418	-0.050357908
180	0x3ea2b205	0.31776443
181	0xbea5d7af	-0.32391116
182	0x3e1a15be	0.15047356
183	0xbecde977	-0.40217182
184	0x3d838aed	0.06422982
185	0x3e071c3a	0.13194361
186	0xbd7c2bf3	-0.06156535
187	0xbeb2ba99	-0.34907988
188	0x3d98a5ab	0.07453474
189	0xbbe707f8	-0.0070505105
190	0x3e0e4849	0.13894762
191	0xbd6e8d6e	-0.058240347
192	0xbdd066fe	-0.10175894
193	0xbf2256d6	-0.6341375
194	0xbf3b3e69	-0.73142105
195	0xbeffbed9	-0.49950293
196	0xbcfa97fd	-0.030590052
197	0xbe29a687	-0.16567431
198	0x3dd2f1e5	0.10300044
199	0x3ec5613a	0.3855074
200	0xbf179e17	-0.592256
201	0x3ef18d89	0.47178295
202	0xbe8e1464	-0.27749932
203	0x3f03c8df	0.5147838
204	0xbc96b3f6	-0.018396359
205	0x3e4359ee	0.19077274
206	0x3d891bd0	0.06694758
207	0xbf00628b	-0.50150365
208	0x3cd5303e	0.02602398
209	0x3db0d387	0.08634096
210	0x3e0887d1	0.1333306
211	0xbe370d96	-0.17876276
212	0xbe2c7d66	-0.1684471
213	0xbd92b3dd	-0.071632124
214	0x3e84c55f	0.25931832
215	0xbd2509b1	-0.040292446
216	0xbf797361	-0.9744168
217	0xbc9638f3	-0.018337702
218	0xbe698cd6	-0.22807631
219	0x3ec31e15	0.38108888
220	0x3e336f81	0.17523004
221	0xbddd1555	-0.107950844
222	0xbe9893b9	-0.29800203
223	0xbdcc5a9a	-0.099782184
224	0x3e3e83b7	0.18604933
225	0xbdaa334a	-0.08310564
226	0xbe973769	-0.29534462
227	0x3e1a5499	0.15071334
228	0x3eeed0ad	0.46643582
229	0xbcf22857	-0.029560251
230	0xbd19c839	-0.037544463
231	0xbee238c3	-0.4418393
232	0x3df949b0	0.12172258
233	0xbe84a4d4	-0.25907004
234	0xbdaeb00f	-0.08529674
235	0x3e832198	0.25611567
236	0x3dfd6283	0.12372305
237	0x3e43b249	0.19110979
238	0xbd622fd1	-0.055221383
239	0xbebdbe63	-0.37059316
240	0xbc2a1838	-0.010381751
241	0xbe27e5cd	-0.16396256
242	0x3c02d622	0.007985624
243	0xbc08e29d	-0.00835481
244	0x3e0a0bb2	0.13481024
245	0x3e10457c	0.14089006
246	0xbebb4cfd	-0.36582175
247	0xbec10047	-0.37695524
248	0xbdfc7aaf	-0.123280875
249	0xbd48d539	-0.04903147
250	0x3c664a9e	0.014055876
251	0xbc8ef71f	-0.01745182
252	0x3e291eb5	0.1651562
253	0x3ebd7270	0.3700137
254	0xbbfba759	-0.0076798615
255	0xbdeb8992	-0.11500849

network_body._body_endoder.seq_layers.2.bias f4 [256]
0	0x3d97d0d8	0.07412881
1	0xbe1138b2	-0.14181784
2	0x3dc5d931	0.096605666
3	0xbd0b0aa7	-0.033945706
4	0x3e76a1c6	0.24085149
5	0x3dddc920	0.10829377
6	0x3ca41f9d	0.020034606
7	0xbe0f3560	-0.13985205
8	0x3e4a1799	0.19735564
9	0x3e45d86b	0.19320838
10	0x3d62e63c	0.05539535
11	0x3dab964b	0.083782755
12	0x3e86d83d	0.26336852
13	0x3e30e741	0.17275716
14	0x3da3e1ed	0.08002076
15	0xbe115c65	-0.14195402
16	0xbe393b36	-0.18088993
17	0xbe45b0fc	-0.19305795
18	0x3e0fb92e	0.14035484
19	0x3e7d0372	0.24708346
20	0x3c5e6d6e	0.013575895
21	0x3e8c8cfc	0.27451313
22	0x3d03e3ce	0.032199673
23	0x3e560279	0.2089938
24	0x382cc6ea	4.119325e-05
25	0xbe3f71fb	-0.18695824
26	0x3de96c90	0.1139766
27	0x3d1727da	0.03690324
28	0x3e875046	0.2642843
29	0xbb96e205	-0.0046045803
30	0x3e902ae5	0.28157726
31	0xbe0b1424	-0.13581902
32	0x3e762357	0.24036919
33	0x3d8c31fc	0.06845471
34	0xbe457202	-0.19281772
35	0x3dd04498	0.10169333
36	0x3eba0bea	0.36337215
37	0xbad1e243	-0.0016012866
38	0x3e2d3c55	0.16917546
39	0xbd6a0cec	-0.05714123
40	0x3e88f924	0.2675258
41	0xbe0d5dad	-0.13805266
42	0xbd30fb71	-0.043208543
43	0x3e096a48	0.1341945
44	0x3e362a53	0.17789583
45	0xbe0be803	-0.13662724
46	0x3e078d59	0.13237514
47	0xbbe33162	-0.006933377
48	0x3e2341a1	0.15943004
49	0x3d2d9915	0.04238232
50	0x3d21d642	0.039510973
51	0x3ce43f0c	0.027862094
52	0x3e2dd440	0.16975498
53	0x3e9888f4	0.29791987
54	0x3dc8d35f	0.09805941
55	0x3d4dc29f	0.050234433
56	0xbe25f11c	-0.16205257
57	0x3eeb2ae0	0.4593115
58	0x3e7b8808	0.2456361
59	0x3dfdca09	0.12392051
60	0x3c923a7e	0.017850157
61	0x3eefecf0	0.46860456
62	0xbe397d82	-0.18114284
63	0x3e48d9c9	0.19614328
64	0x3cdf12fe	0.027230736
65	0x3e34c765	0.17654188
66	0x3df050c1	0.117341526
67	0x3db6e064	0.08929518
68	0x3dc3b6f5	0.09556381
69	0x3e311292	0.1729224
70	0xbd04bb7c	-0.03240536
71	0xbd068ba4	-0.032848015
72	0xbe2c0cbe	-0.16801736
73	0x3d05149d	0.03249036
74	0xbd9c130a	-0.07620819
75	0x3e63c418	0.22242773
76	0x3e8cdbc2	0.27511412
77	0x3ecf54a9	0.40494278
78	0x3eaf3c0e	0.34225506
79	0xbe8d116d	-0.27552357
80	0x3e81c7e4	0.25347817
81	0x3e32f475	0.17476065
82	0xbde3ede5	-0.11129359
83	0x3e314066	0.17309722
84	0x3dc51e55	0.09624926
85	0x3e30b00f	0.17254661
86	0x3d951080	0.07278538
87	0xbcc269a2	-0.02373201
88	0x3df2c3f6	0.11853783
89	0xbd8d49e0	-0.06898856
90	0x3e306a17	0.1722797
91	0x3deecb9a	0.11659928
92	0x3dc77241	0.09738589
93	0xbdfaeac3	-0.122518085
94	0xbe08ce8d	-0.13360043
95	0xbcab1c3b	-0.020887485
96	0x3dacf9e8	0.08446103
97	0x3dad1eb3	0.08453121
98	0x3e342417	0.17591892
99	0xbd04851b	-0.0323535
100	0xbd815080	-0.06314182
101	0x3e80fb63	0.25191793
102	0xbe6d03fd	-0.23146053
103	0xbcba366a	-0.022731025
104	0x3d7ede3e	0.062223665
105	0xbdd48ed4	-0.10378805
106	0x3e1c5ba5	0.15269335
107	0x3e2bb5d8	0.16768587
108	0x3dfab3f5	0.12241355
109	0x3de1db43	0.11028149
110	0x3bd1d2be	0.0064032963
111	0x3d8cb6a9	0.06870777
112	0x3e6f2aae	0.23356125
113	0x3ddfb2c3	0.10922768
114	0x3d982496	0.07428853
115	0x3d7192a3	0.058977734
116	0x3d635d1d	0.05550872
117	0x3dfd9fbf	0.12383985
118	0x3dfa3f01	0.12219048
119	0xbccbcef7	-0.024878962
120	0x3e10023e	0.14063355
121	0xbceed67f	-0.029155014
122	0xbe36d15b	-0.178533
123	0xbe8c0dde	-0.2735433
124	0xbdd445c2	-0.10364868
125	0x3d9a683d	0.07539413
126	0x3e359b86	0.17735109
127	0x3dc6c363	0.09705236
128	0x3d87253e	0.065989
129	0x3e986cbf	0.29770467
130	0x3e2493af	0.16071962
131	0x3ea57748	0.32317567
132	0x3d6840c1	0.05670238
133	0x3d0b0b33	0.033946227
134	0x3e35217b	0.17688553
135	0x3e694cad	0.22783156
136	0xbdf721c0	-0.12066984
137	0x3d3292e8	0.043597132
138	0xbdcf0705	-0.10108761
139	0x3ddd548e	0.10807143
140	0x3ec37e22	0.3818217
141	0x3d23025c	0.039797172
142	0x3e72bd30	0.23704982
143	0x3e41d6eb	0.18929641
144	0xbc0fc959	-0.008776032
145	0x3e5643dd	0.20924325
146	0x3e031545	0.12801082
147	0x3d777129	0.060410652
148	0x3df4cba6	0.11952905
149	0x3e6a3a2c	0.22873753
150	0x3dd66e15	0.10470215
151	0x3e86fb9c	0.26363838
152	0x3c5328f1	0.012888179
153	0xbe2a0150	-0.16602063
154	0x3d3b19c5	0.045678873
155	0xbded917c	-0.116000146
156	0x3e9c9137	0.3057954
157	0xbd57c3ba	-0.052676894
158	0x3d8568a9	0.06514103
159	0x3cdc82f1	0.026917906
160	0x3e895ef7	0.26830265
161	0x3e2dfd3a	0.1699113
162	0x3de76ffd	0.11300657
163	0x3dcebdbf	0.10094785
164	0xbc4b2266	-0.012398338
165	0xbdf97aa1	-0.12181593
166	0x3d840ded	0.06447969
167	0x3e48bcf7	0.19603334
168	0xbd824813	-0.06361403
169	0xbe89b8d0	-0.26898813
170	0x3e4b0c51	0.19828917
171	0x3c08cfc9	0.008350321
172	0x3e821e90	0.25413942
173	0x3e3d5e78	0.18493068
174	0x3d8df3f0	0.06931293
175	0x3b3c83af	0.0028765013
176	0xbd3026a0	-0.043005586
177	0x3e264f02	0.16241077
178	0xbb3450bb	-0.002751394
179	0x3cde0fb9	0.027107107
180	0x3e0c8732	0.13723448
181	0xbd0c2308	-0.034213096
182	0xbd3e5d89	-0.04647592
183	0x3dd7132f	0.10501706
184	0xbd253e67	-0.040342715
185	0x3d1cbf9c	0.03826867
186	0x3e24af29	0.16082443
187	0x3e120cac	0.14262646
188	0xbdae525b	-0.08511802
189	0xbdbc5902	-0.091966644
190	0x3e14d521	0.14534427
191	0x3da4a2c1	0.08038855
192	0xbd600dbc	-0.054700598
193	0x3e209fbd	0.15685935
194	0x3e25cc4e	0.16191217
195	0xbe8135eb	-0.2523645
196	0xbdd9ef6a	-0.10641368
197	0x3e83243e	0.25613588
198	0x3d8a455e	0.06751512
199	0x3ec6f9ab	0.38862357
200	0x3ca217d1	0.019786747
201	0x3e058bc9	0.13041605
202	0x3c8fb226	0.017541002
203	0xbd2ffdaf	-0.04296654
204	0x3dcf6866	0.10127334
205	0xbe2a1fb0	-0.1661365
206	0xbdc063ff	-0.09394073
207	0x3d8a33be	0.0674815
208	0xbc3c1feb	-0.011482219
209	0x3e5fa08e	0.2183859
210	0x3dd2f21e	0.103000864
211	0xbcfb8f53	-0.03070799
212	0xbc794621	-0.015214474
213	0xbe4fad5c	-0.20280975
214	0xbdbe9e5a	-0.09307547
215	0x3e07a6d7	0.13247238
216	0x3dad7de0	0.084712744
217	0x3d995956	0.074877426
218	0x3ccefad5	0.02526609
219	0xbdac65f4	-0.084178835
220	0x3e32417b	0.17407791
221	0xbcc19248	-0.023629323
222	0x3c0981cc	0.008392762
223	0x3dc3164a	0.09525736
224	0xbda2e132	-0.07953109
225	0x3e2553b1	0.16145207
226	0x3db33c17	0.087516956
227	0xbd074f53	-0.033034634
228	0x3e81edde	0.2537679
229	0xbb9fdbb1	-0.004878484
230	0x3e4da5aa	0.20082727
231	0x3e81d9e8	0.25361562
232	0x3e521994	0.2051757
233	0x3d66cd25	0.056347985
234	0x3e0933e0	0.13398695
235	0x3e108275	0.14112265
236	0x3e7ca411	0.24671961
237	0x3e5938fa	0.21213141
238	0xbd5082a0	-0.050905824
239	0x3da63cce	0.08117066
240	0x3e137c29	0.14402832
241	0xbdd0e9e8	-0.10200864
242	0x3ec00810	0.3750615
243	0x3e0004e6	0.12501869
244	0x3d0941c6	0.033509992
245	0xbe26cae5	-0.16288336
246	0xbe8d260a	-0.27568084
247	0x3e33ae8f	0.17547058
248	0x3e1ffc2c	0.1562354
249	0x3d48527f	0.0489068
250	0xbcaa3cdd	-0.020780975
251	0x3dedfd81	0.11620618
252	0xbd13afcb	-0.03605632
253	0x3d41ae9b	0.047285657
254	0x3e3f0fb0	0.18658328
255	0xbe5593bc	-0.20857137

network_body._body_endoder.seq_layers.4.weight f4 [256, 256]
0	0xbd92bf55	-0.071654
1	0xbe341732	-0.17586973
2	0xbd9c58d4	-0.0763413
3	0xbf0b56f1	-0.5442954
4	0x3ea93c90	0.33054018
5	0x3da3a3d3	0.07990231
6	0xbe2e33dd	-0.17011972
7	0xbdf8d523	-0.121500276
8	0x3f6c7884	0.9237139
9	0xbe8761d2	-0.26441818
10	0xbe9c94a0	-0.30582142
11	0xbeacb935	-0.33735052
12	0x3e610439	0.21974267
13	0xbe2e5725	-0.1702543
14	0xbea15ad6	-0.31514615
15	0xbecffc15	-0.4062201
16	0xbdb2e9f0	-0.08736026
17	0xbe6dd738	-0.2322663
18	0xbe6d8431	-0.23194958
19	0xbce57fbc	-0.02801501
20	0xbcf5daa1	-0.030011477
21	0x3e678cfd	0.22612377
22	0x3ebf106c	0.37317216
23	0xbe834d0f	-0.2564473
24	0xbed35d7e	-0.41282266
25	0xbeb7b6e4	-0.35881722
26	0x3d1e1d32	0.03860206
27	0xbee06e26	-0.43834037
28	0xbf1e6e20	-0.6188679
29	0xbe026a7e	-0.12735936
30	0xbe7f3c26	-0.24925289
31	0xbd9e4f6e	-0.07729994
32	0x3eaefd66	0.34177703
33	0xbe29a768	-0.16567767
34	0x3e529440	0.20564365
35	0xbe1f11e0	-0.15534163
36	0x3d4de966	0.050271414
37	0x3d044df5	0.032300908
38	0x3e228270	0.1587007
39	0x3eec96e3	0.46208867
40	0x3dcc58b1	0.09977854
41	0xbf18ff98	-0.59765005
42	0x3e7605be	0.24025628
43	0xbeade42d	-0.33963147
44	0x3c6bed2c	0.014399808
45	0xbe9d4228	-0.30714536
46	0xbdedf91b	-0.11619779
47	0x3e88d7c1	0.26727107
48	0x3e9ae105	0.302498
49	0x3df4aa8b	0.11946591
50	0x3f1471cd	0.57986146
51	0x3c9dd9d2	0.019268904
52	0xbf01d103	-0.5070955
53	0xbbb2aa6f	-0.005452446
54	0xbc0f569e	-0.0087486785
55	0x3c8736f8	0.016505703
56	0xbd9f18fb	-0.077684365
57	0x3db288fe	0.087175354
58	0xbe6ace39	-0.2293023
59	0xbef77b3a	-0.48336202
60	0x3e9cc21f	0.30616853
61	0x3d5b8171	0.05359024
62	0xbdfc51bd	-0.12320278
63	0xbd8fba4f	-0.070179574
64	0x3ee066ac	0.43828332
65	0xbea13c12	-0.31491143
66	0x3e732333	0.23743896
67	0xbedba4d1	-0.42899182
68	0xbe1da1b3	-0.15393715
69	0x3e2a0b72	0.16605929
70	0x3e7bef2c	0.24602956
71	0xbe68d242	-0.22736457
72	0xbe010c47	-0.1260234
73	0x3cd76e49	0.026297705
74	0x3e8f82b0	0.28029394
75	0x3ea0e09f	0.31421372
76	0x3b9369cc	0.004498696
77	0x3ec5fc3c	0.38669002
78	0xbe052f5b	-0.13006346
79	0xbf1e2d37	-0.6178774
80	0x3ebb8ccd	0.3663086
81	0x3d9a0f0b	0.075224005
82	0xbe8b3568	-0.27189183
83	0xbed1f202	-0.4100495
84	0xbd83a5bb	-0.06428095
85	0x3ec6203a	0.38696462
86	0xbdd3c0f8	-0.1033954
87	0x3e92de0c	0.28685033
88	0x3e1cc41b	0.15309183
89	0xbd9a2a4c	-0.07527599
90	0xbdeb0fbc	-0.114776105
91	0x3c39c1c4	0.011337701
92	0xbeab769e	-0.33488935
93	0x3d78b03a	0.060714938
94	0xbe322a83	-0.1739903
95	0xbe38683e	-0.18008515
96	0xbe9d8dfd	-0.3077239
97	0x3f024543	0.50886935
98	0xbed93bef	-0.42428538
99	0x3ea7bc95	0.32761064
100	0x3e7c8925	0.24661691
101	0xbd1b0fb5	-0.037856776
102	0xbd4c985e	-0.049949996
103	0x3caf75ee	0.021418538
104	0xbf0c4abd	-0.5480154
105	0xbe64d74c	-0.22347754
106	0xbf05d496	-0.52277505
107	0xbe9faee9	-0.31188133
108	0xbc981b1a	-0.01856761
109	0x3f0ea0fb	0.55714387
110	0x3d4cc289	0.04999021
111	0xbd6d4517	-0.057927217
112	0xbe1f9690	-0.15584779
113	0xbce90600	-0.028445244
114	0x3ea8d5db	0.3297566
115	0x3f15c22f	0.58499426
116	0x3e5b3d48	0.21410096
117	0x3e82b95e	0.2553205
118	0x3e11247d	0.14174075
119	0x3e4ba785	0.19888122
120	0xbee7016f	-0.4511828
121	0xbeb4aca6	-0.3528797
122	0x3e9820a7	0.29712412
123	0xbe082ae9	-0.13297619
124	0xbd94f8fa	-0.07274051
125	0xbee56fed	-0.44811955
126	0xbf19d2c1	-0.6008721
127	0xbf00fdd9	-0.5038734
128	0x3f0959f4	0.5365288
129	0x3ed4efb4	0.4158913
130	0x3ed4c6f5	0.41558042
131	0x3ee32ce6	0.44370192
132	0x3d27a8eb	0.040932577
133	0x3f1a1094	0.60181546
134	0xbdc2a089	-0.09503276
135	0x3f0d58f5	0.5521386
136	0xbe80d713	-0.2516409
137	0x3e4fa909	0.20279326
138	0xbe51441a	-0.20436135
139	0xbed615e8	-0.41813588
140	0x3ea05204	0.31312573
141	0xbea64453	-0.32474002
142	0xbf0e3213	-0.5554516
143	0x3e5cfb0d	0.21580143
144	0xbea9b152	-0.33143097
145	0xbe3e9f7b	-0.18615524
146	0x3d417047	0.047226217
147	0x3db47848	0.08812004
148	0x3d219805	0.039451618
149	0x3e943fdd	0.28954974
150	0x3f149ab3	0.5804855
151	0xbe39bd18	-0.1813854
152	0xbe4d0b32	-0.20023802
153	0x3d65e5d7	0.056127395
154	0xbea8ebf5	-0.3299252
155	0xbe398b74	-0.18119603
156	0x3e14691d	0.14493223
157	0x3e2a02a3	0.16602568
158	0x3e6ba66f	0.23012708
159	0xbe1952e0	-0.1497302
160	0x3cdedb7c	0.027204268
161	0x3e747aba	0.23874941
162	0x3d3b7c12	0.04577262
163	0x3c85b2aa	0.016320545
164	0xbed3166b	-0.4122804
165	0xbd9abc3b	-0.07555433
166	0xbdf86051	-0.12127746
167	0x3e2306b4	0.15920526
168	0xbddb769c	-0.10715982
169	0xbe8d322f	-0.2757735
170	0x3eedb9a8	0.46430707
171	0xbf1973e3	-0.59942454
172	0x3ead0bcb	0.3379806
173	0xbb88e86a	-0.0041780965
174	0x3e105717	0.14095722
175	0xbe4d1579	-0.20027722
176	0x3e041b25	0.1290098
177	0x3e4597df	0.19296215
178	0xbe76a12b	-0.24084918
179	0xbed10f83	-0.40832147
180	0x3d1d4781	0.03839827
181	0xbec59e07	-0.38597128
182	0xbebafc72	-0.36520725
183	0xbecb705e	-0.39734167
184	0xbe098b1b	-0.13431971
185	0xbd8f70b1	-0.07003916
186	0x3dac8353	0.084234856
187	0x3ea4b924	0.321725
188	0xbe71a144	-0.23596674
189	0x3d21080f	0.039314326
190	0xbef679e9	-0.48139885
191	0x3eec57f9	0.46160868
192	0xbe2f2204	-0.1710282
193	0x3eff4a4e	0.49861377
194	0xbea5da34	-0.32393038
195	0xbe2d68ed	-0.16934557
196	0xbcd4e18e	-0.02598646
197	0x3e365cde	0.17808864
198	0x3bd2efd1	0.0064372797
199	0xbe2f2f42	-0.17107871
200	0x3e712ccd	0.23552246
201	0xbe10a2ff	-0.14124678
202	0x3e026450	0.12733579
203	0x3d562bb7	0.052287783
204	0x3e916439	0.28396776
205	0xbeecaa3d	-0.46223632
206	0xbeb1d443	-0.34732255
207	0x3eb48dde	0.35264486
208	0xbed5600f	-0.4167485
209	0xbe34d095	-0.17657693
210	0xbe84653b	-0.25858483
211	0x3e81fff7	0.25390598
212	0x3ce4f0e2	0.027946893
213	0xbe6fb08a	-0.23407188
214	0x3d54363b	0.05180953
215	0x3dd7d744	0.105391055
216	0xbe856455	-0.2605311
217	0x3f0c2402	0.54742444
218	0xbe109193	-0.14118032
219	0x3e8890a1	0.26672843
220	0xbe237d74	-0.15965825
221	0x3ee1ccbf	0.4410152
222	0x3d04d367	0.03242817
223	0xbd8dca86	-0.06923394
224	0xbe9f93cb	-0.31167445
225	0xbd9a76c4	-0.07542184
226	0xbef71462	-0.48257738
227	0xbe61b0df	-0.22040127
228	0x3eabdf26	0.33568686
229	0xbe94bc78	-0.2905004
230	0x3efa7547	0.489176
231	0xbed210b9	-0.41028383
232	0xbdfd4e04	-0.12368396
233	0xbe59be57	-0.21264015
234	0x3e531801	0.20614626
235	0xbf06eb8b	-0.5270316
236	0x3e0f28db	0.13980429
237	0xbeb52989	-0.3538325
238	0xbbd4afe0	-0.0064906925
239	0xbd8a2146	-0.06744628
240	0x3ec50f28	0.38488126
241	0x3ec80c39	0.39071825
242	0x3e42c12e	0.19019005
243	0xbd513f01	-0.051085476
244	0x3dd70249	0.10498483
245	0xbe318251	-0.17334868
246	0xbd902622	-0.07038523
247	0xbe4981d5	-0.19678433
248	0xbea1ebbe	-0.3162517
249	0x3eb27f22	0.3486262
250	0xbe27567f	-0.1634159
251	0xbe750095	-0.23926003
252	0xbcfd992e	-0.03095683
253	0x3e7cbc65	0.24681242
254	0x3ec17961	0.37787917
255	0xbec28876	-0.37994736

network_body._body_endoder.seq_layers.4.bias f4 [256]
0	0x3e58ab7a	0.21159163
1	0x3c6f3613	0.014600295
2	0x3db5be42	0.088741794
3	0xbceefe61	-0.029174032
4	0xbc10cc9b	-0.008837844
5	0xbde4dad5	-0.111745514
6	0x3e7c23cf	0.24623035
7	0x3d0449aa	0.032296814
8	0x3d2af749	0.041739736
9	0xbdf95028	-0.12173492
10	0xbd1e71aa	-0.038682617
11	0xbbe57f88	-0.0070037283
12	0x3e68d0fc	0.22735971
13	0x3e07dc01	0.13267519
14	0x3ef989c7	0.48737928
15	0x3e1bfe0c	0.1523363
16	0x3e54da76	0.20786461
17	0x3e6a93e0	0.22907972
18	0x3e052f77	0.13006388
19	0x3eb1e159	0.3474224
20	0x3d9a59ba	0.07536645
21	0xbc848f8f	-0.016181735
22	0x3cf09728	0.029368952
23	0x3e165f89	0.14684881
24	0x3e6baa7a	0.2301425
25	0xbe72160c	-0.23641223
26	0x3e140bbc	0.14457601
27	0xbd3fe8b4	-0.046852782
28	0x3e44aa19	0.19205512
29	0x3e78fc47	0.24314986
30	0x3e74d7ae	0.239104
31	0x3e944193	0.2895628
32	0x3edc1936	0.42987984
33	0x3e7c2347	0.24622832
34	0x3d39d535	0.045369346
35	0xbd094516	-0.03351315
36	0x3ec9729f	0.3934526
37	0xbca0b0aa	-0.01961549
38	0xbdee9465	-0.11649398
39	0xbdc10553	-0.09424844
40	0x3e3534b4	0.17695886
41	0x3edda4a0	0.4328966
42	0x3e99bfca	0.30029136
43	0x3ddde4d7	0.10834663
44	0xbce0c510	-0.027437717
45	0x3c03e02e	0.008049054
46	0x3d913a56	0.07091205
47	0xbe172816	-0.14761385
48	0x3ea2cc6d	0.3179659
49	0x3e6a55e7	0.22884332
50	0x3e0dc67c	0.13845247
51	0x3e1dc885	0.15408523
52	0x3e8b20a2	0.27173334
53	0x3e9cde9f	0.30638596
54	0x3db106a2	0.08643843
55	0x3cb7cd88	0.022436872
56	0x3d9f81fe	0.07788466
57	0x3d14b6cf	0.036307152
58	0xbe1791dd	-0.14801736
59	0x3e9c05b8	0.30473113
60	0x3ed25d22	0.4108668
61	0x3d97c7a7	0.074111275
62	0xbd669d61	-0.056302432
63	0x3e81ce5d	0.25352755
64	0xbdd120cd	-0.102113344
65	0x3e1a06ab	0.15041606
66	0x3df236cb	0.11826857
67	0x3e62ca98	0.22147596
68	0x3c0bf5fc	0.008542534
69	0x3d6f0942	0.05835844
70	0x3c97a14e	0.018509533
71	0x3e353bf4	0.17698652
72	0x3cde5ee6	0.02714486
73	0x3ea6fa80	0.3261299
74	0x3dd34537	0.10315936
75	0x3e36137e	0.17780873
76	0x3e6c59f3	0.23081188
77	0xbc63c85d	-0.013902751
78	0x3e956bcc	0.29183805
79	0x3e13a322	0.14417699
80	0x3e6bc6a8	0.23025
81	0x3cf6be66	0.030120086
82	0x3e439945	0.19101436
83	0x3ed1e54e	0.40995258
84	0xbd031b1c	-0.032008275
85	0x3e8b8d44	0.27256215
86	0x3e6f6191	0.23377062
87	0x3d55cd42	0.052197702
88	0x3e30c2cb	0.17261808
89	0xbd90c58c	-0.07068929
90	0x3cc416cd	0.023936654
91	0x3d781588	0.06056741
92	0x3d0ede27	0.03487983
93	0x3eaafb3f	0.3339481
94	0x3e6e7910	0.23288369
95	0x3e3bb63e	0.18331239
96	0xbd8cc2e8	-0.06873113
97	0x3e0b22fe	0.13587567
98	0x3df9665f	0.12177729
99	0x3e059530	0.13045192
100	0x3ed35243	0.41273698
101	0xbd454e34	-0.048170283
102	0x3e5148bc	0.20437902
103	0x3df7b6b0	0.12095392
104	0x3ebfcfe9	0.3746331
105	0x3e0c0c06	0.13676462
106	0x3e29b7a0	0.16573954
107	0x3ecce194	0.40015852
108	0x3e50ee4b	0.20403402
109	0x3e3b02f2	0.18262842
110	0x3ef912fb	0.48647293
111	0x3e2454a4	0.16047913
112	0x3d8e89a5	0.06959847
113	0x3e7b9def	0.24571966
114	0xbcf110c3	-0.029426938
115	0x3e6c0e71	0.23052384
116	0x3d0034d0	0.031300366
117	0x3eadd9b9	0.33955172
118	0xbddd69d1	-0.108111985
119	0x3e078cd8	0.13237321
120	0x3e25c825	0.1618963
121	0x3dfc5ab9	0.123219915
122	0x3de44f3d	0.11147926
123	0x3c516cb7	0.012782267
124	0xbe029832	-0.1275337
125	0x3ebbd14e	0.36683124
126	0xbe17d5dc	-0.14827675
127	0x3d1423d6	0.03616699
128	0xbb9651f7	-0.0045874077
129	0xbcd56e56	-0.026053589
130	0x3e082733	0.13296203
131	0x3ec4931a	0.3839348
132	0x3db1d750	0.08683646
133	0x3ea4b82d	0.32171765
134	0x3e8f30cc	0.27966917
135	0x3e6bc41e	0.23024032
136	0xbd3e4ce9	-0.046460066
137	0x3eef850b	0.4678119
138	0x3cefb958	0.029263183
139	0x3e6a65d2	0.22890404
140	0xbe34e4e8	-0.17665446
141	0x3eba722a	0.36415225
142	0x3c01c8ef	0.007921441
143	0x3bcc5dcf	0.006236769
144	0xbe141561	-0.1446128
145	0xbd18d983	-0.03731681
146	0xbd0e6e90	-0.03477341
147	0x3e0b74eb	0.1361882
148	0x3e73db83	0.23814206
149	0x3e6f9d4c	0.23399848
150	0xbaff327f	-0.0019470005
151	0xbd836f46	-0.06417708
152	0xbd3b93e4	-0.045795336
153	0x3f089c82	0.5336381
154	0x3c2490ad	0.010044259
155	0x3cbc8ef2	0.02301738
156	0x3e808828	0.2510388
157	0x3e1dc60a	0.15407577
158	0x3d55815c	0.05212532
159	0x3d7ab993	0.061212134
160	0x3e05c5a1	0.1306367
161	0x3d81f0fd	0.06344793
162	0x3e34f921	0.1767316
163	0x3dfc55bf	0.12321042
164	0x3e3bfd77	0.18358408
165	0x3ebffdd8	0.37498355
166	0x3e177daf	0.14794038
167	0xbdf68e67	-0.1203888
168	0x3e01c10f	0.12671302
169	0x3d3a5d24	0.045498982
170	0x3db4b8c0	0.08824301
171	0x3e09f350	0.13471723
172	0xbd8df852	-0.06932129
173	0x3eaf5a05	0.34248367
174	0xbca3f8d5	-0.020016113
175	0xbcd62d74	-0.02614472
176	0xbe5a9c65	-0.21348722
177	0xbcd6059e	-0.026125725
178	0xbdb5b5f3	-0.08872595
179	0x3eb33b62	0.35006243
180	0x3d76a6cf	0.060217675
181	0x3e7e6472	0.24843004
182	0x3dc16fe5	0.0944517
183	0x3e471232	0.19440535
184	0xbd6a81d8	-0.057252735
185	0x3e1da19f	0.15393685
186	0x3e74a0b3	0.23889427
187	0x3dbf9ba3	0.09355857
188	0x3ea56207	0.3230135
189	0x3e9da391	0.30788854
190	0x3d478603	0.048711788
191	0x3df825da	0.121165946
192	0x3e16223d	0.14661498
193	0xbd92d368	-0.07169229
194	0x3e9da1e2	0.3078757
195	0x3e7b056b	0.24513786
196	0x3e96704e	0.29382557
197	0x3e60084f	0.2187817
198	0x3c1b42ba	0.009476358
199	0x3e41d884	0.1893025
200	0x3e7562f5	0.2396353
201	0x3d297114	0.041367605
202	0x3e17f636	0.14840016
203	0x3db43ce1	0.08800674
204	0x3e8595ad	0.26090756
205	0x3e292db4	0.1652134
206	0x3edd6226	0.43238944
207	0x3d2c4002	0.04205323
208	0x3e5c92b5	0.2154034
209	0xbd614129	-0.054993782
210	0x3dadafbf	0.084807865
211	0x3de162be	0.11005162
212	0x3e454ce9	0.1926762
213	0x3b0124a6	0.0019705682
214	0xbda247c4	-0.079238445
215	0x3ea17fee	0.31542915
216	0x3e64ff25	0.22362955
217	0x3e1288a2	0.14309934
218	0xbcb87243	-0.022515422
219	0x3c72bee0	0.014816016
220	0x3d98bf99	0.07458419
221	0x3ededb54	0.4352671
222	0x3ec08070	0.3759799
223	0x3e1d69f9	0.15372457
224	0xbc839703	-0.016063219
225	0x3d115817	0.0354844
226	0x3e83c16d	0.2573351
227	0x3e956041	0.29174998
228	0x3dafc0e2	0.08581711
229	0x3e9faf3e	0.31188387
230	0x3ec4be24	0.38426316
231	0x3ea41fb6	0.32055444
232	0xbbffb976	-0.007804091
233	0x3d190c48	0.037365228
234	0x3c7353fe	0.014851568
235	0x3e8658d7	0.26239654
236	0x3e13fc68	0.14451754
237	0x3e8987ff	0.2686157
238	0x3d823aee	0.06358896
239	0x3e8d4ce6	0.2759773
240	0x3e979a91	0.29610112
241	0x3e0ba452	0.13636902
242	0xbcf6806c	-0.030090533
243	0xbd435880	-0.047691822
244	0x3d9371e1	0.07199455
245	0x3e20a821	0.15689136
246	0xbd1036a1	-0.03520835
247	0x3ec604b3	0.3867546
248	0x3e9f523b	0.31117424
249	0x3ddb6455	0.10712496
250	0xbbb2ed78	-0.0054604374
251	0x3ea08455	0.3135096
252	0x3e992e9d	0.29918376
253	0x3ca71b0f	0.020398645
254	0x3d33cf50	0.04389888
255	0x3e300166	0.17188033

action_model._continuous_distribution.log_sigma f4 [1, 2]
0	0x410cd1c5	8.801213
1	0x4116e7a4	9.431553

action_model._continuous_distribution.mu.weight f4 [2, 256]
0	0xbf3221f2	-0.69583046
1	0x3edafebb	0.4277247
2	0x3f18d212	0.5969554
3	0x3ecc44b6	0.39896172
4	0x3ea6051c	0.32425773
5	0x3e8171f2	0.25282246
6	0x3a9b5442	0.0011850672
7	0x3c663745	0.014051263
8	0x3d83d958	0.064379394
9	0x3d9c4e08	0.07632071
10	0x3e58f2a4	0.2118631
11	0x3ea89da0	0.32932758
12	0xbd87ba37	-0.066273145
13	0xbecfd499	-0.40591887
14	0xbf25f4b1	-0.64826494
15	0x3e9cabae	0.3059973
16	0xbf1a0349	-0.6016126
17	0x3e02caf8	0.12772739
18	0x3f0738db	0.5282113
19	0xbea76f70	-0.32702208
20	0x3e547227	0.2074667
21	0x3e8a5cb9	0.27023867
22	0x3e75fdac	0.2402255
23	0x3e79c272	0.24390581
24	0x3f384148	0.7197461
25	0xbe47de08	-0.19518292
26	0xbc7705ab	-0.015077035
27	0x3eae23ae	0.34011596
28	0xbe7589b0	-0.23978305
29	0xbe026346	-0.12733182
30	0xbf16f05a	-0.589605
31	0xbf14e712	-0.58165085
32	0xbeb2e406	-0.34939593
33	0x3ec0c44e	0.3764977
34	0x3ee49522	0.4464503
35	0x3eadda82	0.3395577
36	0x3eb871cb	0.36024317
37	0x3ed1619f	0.4089479
38	0x3ea910dd	0.33020678
39	0xbd5a53d9	-0.05330262
40	0x3edd5b1f	0.43233582
41	0xbf29ac66	-0.66278684
42	0xbe70f2cd	-0.23530121
43	0x3d05a9d6	0.03263267
44	0x3dc0b718	0.09409922
45	0xbd97e4e6	-0.07416706
46	0x3e060cbb	0.13090794
47	0x3e7308f1	0.2373388
48	0xbd8010ce	-0.06253205
49	0x3e54a963	0.20767741
50	0x3e31fe11	0.17382075
51	0xbed00bde	-0.40634054
52	0xbde10fb5	-0.10989324
53	0x3e6c6fe1	0.23089553
54	0x3e875adc	0.26436508
55	0xbd0ebd0b	-0.034848254
56	0x3ebde316	0.37087315
57	0xbd133dd6	-0.035947643
58	0x3e1e0f92	0.15435627
59	0x3dd6847e	0.1047449
60	0xbedcce8f	-0.43126342
61	0x3ed36b2a	0.41292697
62	0x3f1a3e54	0.60251355
63	0xbf21199c	-0.629297
64	0x3e98b44e	0.29825062
65	0xbebfe358	-0.37478137
66	0x3e8e9034	0.27844393
67	0x3f03881f	0.5137958
68	0x3eb3a561	0.35087112
69	0xbd271019	-0.040786836
70	0x3e622485	0.22084244
71	0xbe31b31b	-0.1735348
72	0x3e977d3c	0.29587734
73	0xbeeef88f	-0.4667401
74	0x3e853f28	0.26024747
75	0x3e814202	0.25245672
76	0xbdc591de	-0.096469626
77	0x3f1d3a9b	0.6141755
78	0xbed5366a	-0.41643077
79	0x3ec2db79	0.3805807
80	0xbeba6f82	-0.364132
81	0x3ebe8a1e	0.3721475
82	0xbf04a8fd	-0.51820356
83	0x3dd52037	0.10406535
84	0x3e95d8f9	0.292671
85	0xbe63c6b3	-0.22243766
86	0x3edf5dc4	0.43626225
87	0x3e18e75c	0.14932007
88	0xbdcaf897	-0.09910696
89	0x3e94b577	0.29044697
90	0x3ed88551	0.42289212
91	0x3f0a3acf	0.53995985
92	0x3eb43030	0.35193014
93	0xbf359769	-0.7093416
94	0x3e774a87	0.24149524
95	0xbf2dd8b7	-0.67908806
96	0xbd5df6c4	-0.054190412
97	0x3e7e1e4c	0.24816245
98	0x3f02d594	0.51107144
99	0x3e9ae24f	0.30250785
100	0xbf6560de	-0.8960093
101	0x3e980137	0.29688427
102	0xbeb93e0b	-0.36180148
103	0x3cebbfa6	0.028777909
104	0xbf321081	-0.6955643
105	0x3ea644bd	0.32474318
106	0x3e040ebb	0.12896244
107	0xbf1e472b	-0.61827344
108	0xbe961c1d	-0.29318324
109	0x3e97258d	0.29520836
110	0xbf7d33f4	-0.989074
111	0x3ee8d4b6	0.45474786
112	0x3eca8d97	0.3956115
113	0x3e834ca8	0.25644422
114	0x3da359ae	0.079760894
115	0xbda1202b	-0.07867464
116	0x3c9dbb62	0.01925439
117	0xbf39bcf0	-0.7255392
118	0x3e2cfc74	0.16893178
119	0xbd942f2e	-0.07235561
120	0x3f1c5529	0.61067444
121	0x3e17cb95	0.14823754
122	0xbd5ad67d	-0.05342721
123	0x3e9a2b85	0.30111328
124	0x3e5056dd	0.20345636
125	0x3ea8ba81	0.3295479
126	0x3ef70991	0.48249486
127	0x3f0153fb	0.5051877
128	0xbe4ef711	-0.20211436
129	0x3ea9b87e	0.3314857
130	0x3d89ccba	0.067285016
131	0xbeff20cd	-0.49829713
132	0x3dc31955	0.09526316
133	0xbf39f710	-0.7264261
134	0xbedf35ab	-0.43595633
135	0xbd616570	-0.05502838
136	0x3edc2f54	0.43004858
137	0xbf180632	-0.59384453
138	0xbc55edd1	-0.013057188
139	0xbf374928	-0.71596
140	0x3e486705	0.19570549
141	0xbe6f1ff8	-0.23352039
142	0x3d8607f6	0.06544487
143	0xbdb48abb	-0.08815523
144	0x3e5d17bc	0.21591085
145	0x3eaf3675	0.34221235
146	0x3e0e05fc	0.1386947
147	0x3e98db7c	0.29854953
148	0xbeb3153e	-0.34977144
149	0x3ee477c5	0.44622627
150	0x3eb2cd82	0.34922415
151	0x3edf0c21	0.4356394
152	0x3c035bba	0.008017475
153	0xbf3564c9	-0.7085691
154	0x3ea76a59	0.32698324
155	0x3e027202	0.12738803
156	0x3d0379bb	0.032098513
157	0xbed9a3a1	-0.4250765
158	0xbdd8e7ad	-0.10591064
159	0x3e192886	0.14956865
160	0x3f276b21	0.6539784
161	0x3ed03c4f	0.40671012
162	0xbe57a332	-0.21058348
163	0x3ee5e74a	0.44903022
164	0xbd30829a	-0.0430933
165	0xbf31c443	-0.69440097
166	0x3eefa8a7	0.4680836
167	0x3ea0ffc7	0.31445143
168	0x3e85aef8	0.26110053
169	0x3e9ddcb5	0.3083245
170	0x3ec77c07	0.38961813
171	0xbf6569b1	-0.896144
172	0x3e8b87f1	0.27252153
173	0xbf320b68	-0.69548655
174	0x3e13f0c1	0.14447309
175	0x3eea0e13	0.45713863
176	0x3dd8217c	0.10553262
177	0x3e917225	0.28407398
178	0x3ed2722c	0.4110273
179	0xbe067f12	-0.13134411
180	0x3e885429	0.2662671
181	0x3eae5c21	0.34054664
182	0xbf0c5f85	-0.5483325
183	0x3e64969f	0.22323082
184	0xbe2cb067	-0.16864167
185	0xbed765e3	-0.4206992
186	0xbf501196	-0.81276834
187	0x3da14d66	0.07876091
188	0xbf16ae62	-0.5885984
189	0xbf153eda	-0.5829903
190	0x3ecb2a95	0.39680925
191	0x3f0f6767	0.56017154
192	0x3a0c8a7f	0.00053612137
193	0x3b2b5b11	0.002614681
194	0xbd0af303	-0.03392316
195	0x3e25fffa	0.16210929
196	0xbf1053bc	-0.5637777
197	0xbf1fb1aa	-0.6238047
198	0x3ec22e9d	0.37926188
199	0x3f07586e	0.5286931
200	0xbf1c407c	-0.61035895
201	0xbdf38196	-0.11889951
202	0xbdb07031	-0.08615149
203	0x3ebbb944	0.36664784
204	0x3ea0fbf9	0.3144224
205	0xbb189eb4	-0.0023287954
206	0xbe7e82d7	-0.24854599
207	0x3ed0442f	0.4067702
208	0xbe1ac3a3	-0.15113692
209	0x3ecc669d	0.39922038
210	0x3ec37ab4	0.38179553
211	0x3e2f11af	0.1709659
212	0xbed97e6e	-0.4247927
213	0xbd1fb730	-0.03899306
214	0x3df48a27	0.11940413
215	0xbf51870e	-0.818467
216	0x3f06f22f	0.5271329
217	0x3d6110e6	0.054947756
218	0x3eed2530	0.46317434
219	0x3da9011b	0.08252164
220	0x3ed1de9d	0.40990153
221	0xbf0b5257	-0.54422516
222	0xbeb37197	-0.350476
223	0x3dd46fea	0.103729084
224	0xbd78e247	-0.06076267
225	0x3f4a9f76	0.7914957
226	0xbf31d95c	-0.6947229
227	0xbf435a18	-0.7630935
228	0x3ebf772b	0.37395605
229	0xbf1fae39	-0.6237522
230	0xbf18dc8d	-0.59711534
231	0xbf1c4b20	-0.6105213
232	0x3b04ba46	0.002025263
233	0x3ebf26d2	0.37334305
234	0x3eb21218	0.3477943
235	0xbf1e3b6a	-0.6180941
236	0xbe8da2e5	-0.2766334
237	0xbf13c4f7	-0.5772242
238	0x3e0a0626	0.13478908
239	0xbee0507b	-0.43811402
240	0xbde9c69b	-0.11414834
241	0x3d3c09b4	0.04590769
242	0xbdce6474	-0.10077754
243	0x3c7a093b	0.01526099
244	0x3ed0e32a	0.40798312
245	0xbf554b7a	-0.83318293
246	0x3ec2687b	0.37970337
247	0xbf3f2cde	-0.74677837
248	0xbf0a54b9	-0.54035527
249	0xbf08cac9	-0.53434426
250	0x3e8a359b	0.26994023
251	0xbc7657c2	-0.0150355715
252	0x3f07b8c7	0.5301632
253	0x3f2f743b	0.6853673
254	0x3ec08226	0.37599295
255	0x3d2dfd9c	0.04247819

action_model._continuous_distribution.mu.bias f4 [2]
0	0xbdf533e1	-0.11972786
1	0x3e266d0a	0.16252533
